{"format": "graph-model", "generatedBy": "2.5.0-dev20201228", "convertedBy": "TensorFlow.js Converter v2.8.1", "signature": {"inputs": {"inputs:0": {"name": "inputs:0", "dtype": "DT_FLOAT", "tensorShape": {"dim": [{"size": "1"}, {"size": "256"}, {"size": "128"}, {"size": "3"}]}}}, "outputs": {"Identity:0": {"name": "Identity:0", "dtype": "DT_FLOAT", "tensorShape": {"dim": [{"size": "1"}, {"size": "256"}]}}}}, "modelTopology": {"node": [{"name": "model/p_re_lu/Neg", "op": "Const", "attr": {"value": {"tensor": {"dtype": "DT_FLOAT", "tensorShape": {"dim": [{"size": "1"}, {"size": "1"}]}}}, "dtype": {"type": "DT_FLOAT"}}}, {"name": "model/tf.math.reduce_mean_51/Const", "op": "Const", "attr": {"value": {"tensor": {"dtype": "DT_INT32", "tensorShape": {"dim": [{"size": "3"}]}}}, "dtype": {"type": "DT_INT32"}}}, {"name": "model/conv2d_91/Conv2D/ReadVariableOp", "op": "Const", "attr": {"dtype": {"type": "DT_FLOAT"}, "value": {"tensor": {"dtype": "DT_FLOAT", "tensorShape": {"dim": [{"size": "1"}, {"size": "1"}, {"size": "32"}, {"size": "32"}]}}}}}, {"name": "model/depthwise_conv2d_50/depthwise/ReadVariableOp", "op": "Const", "attr": {"dtype": {"type": "DT_FLOAT"}, "value": {"tensor": {"dtype": "DT_FLOAT", "tensorShape": {"dim": [{"size": "3"}, {"size": "3"}, {"size": "32"}, {"size": "1"}]}}}}}, {"name": "model/tf.math.add_129/Add/y", "op": "Const", "attr": {"dtype": {"type": "DT_FLOAT"}, "value": {"tensor": {"dtype": "DT_FLOAT", "tensorShape": {"dim": [{"size": "32"}]}}}}}, {"name": "model/tf.math.reduce_mean_50/Mean/reduction_indices", "op": "Const", "attr": {"value": {"tensor": {"dtype": "DT_INT32", "tensorShape": {"dim": [{"size": "2"}]}}}, "dtype": {"type": "DT_INT32"}}}, {"name": "model/tf.reshape_16/Reshape/shape", "op": "Const", "attr": {"dtype": {"type": "DT_INT32"}, "value": {"tensor": {"dtype": "DT_INT32", "tensorShape": {"dim": [{"size": "3"}]}}}}}, {"name": "model/tf.math.reduce_mean_52/Const", "op": "Const", "attr": {"value": {"tensor": {"dtype": "DT_INT32", "tensorShape": {"dim": [{"size": "3"}]}}}, "dtype": {"type": "DT_INT32"}}}, {"name": "model/tf.math.reduce_mean_53/Const", "op": "Const", "attr": {"dtype": {"type": "DT_INT32"}, "value": {"tensor": {"dtype": "DT_INT32", "tensorShape": {"dim": [{"size": "3"}]}}}}}, {"name": "model/tf.__operators__.add_10/y", "op": "Const", "attr": {"value": {"tensor": {"dtype": "DT_FLOAT", "tensorShape": {}}}, "dtype": {"type": "DT_FLOAT"}}}, {"name": "model/tf.reshape_17/Reshape/shape", "op": "Const", "attr": {"dtype": {"type": "DT_INT64"}, "value": {"tensor": {"dtype": "DT_INT64", "tensorShape": {"dim": [{"size": "4"}]}}}}}, {"name": "model/tf.math.multiply_40/Mul/y", "op": "Const", "attr": {"dtype": {"type": "DT_FLOAT"}, "value": {"tensor": {"dtype": "DT_FLOAT", "tensorShape": {"dim": [{"size": "1"}, {"size": "1"}, {"size": "1"}, {"size": "32"}]}}}}}, {"name": "model/tf.math.add_131/Add/y", "op": "Const", "attr": {"value": {"tensor": {"dtype": "DT_FLOAT", "tensorShape": {"dim": [{"size": "32"}]}}}, "dtype": {"type": "DT_FLOAT"}}}, {"name": "model/tf.math.reduce_mean_55/Const", "op": "Const", "attr": {"dtype": {"type": "DT_INT32"}, "value": {"tensor": {"dtype": "DT_INT32", "tensorShape": {"dim": [{"size": "3"}]}}}}}, {"name": "model/conv2d_92/Conv2D/ReadVariableOp", "op": "Const", "attr": {"value": {"tensor": {"dtype": "DT_FLOAT", "tensorShape": {"dim": [{"size": "1"}, {"size": "1"}, {"size": "32"}, {"size": "32"}]}}}, "dtype": {"type": "DT_FLOAT"}}}, {"name": "model/depthwise_conv2d_51/depthwise/ReadVariableOp", "op": "Const", "attr": {"dtype": {"type": "DT_FLOAT"}, "value": {"tensor": {"dtype": "DT_FLOAT", "tensorShape": {"dim": [{"size": "3"}, {"size": "3"}, {"size": "32"}, {"size": "1"}]}}}}}, {"name": "model/tf.math.add_132/Add/y", "op": "Const", "attr": {"value": {"tensor": {"dtype": "DT_FLOAT", "tensorShape": {"dim": [{"size": "32"}]}}}, "dtype": {"type": "DT_FLOAT"}}}, {"name": "model/conv2d_93/Conv2D/ReadVariableOp", "op": "Const", "attr": {"value": {"tensor": {"dtype": "DT_FLOAT", "tensorShape": {"dim": [{"size": "1"}, {"size": "1"}, {"size": "32"}, {"size": "32"}]}}}, "dtype": {"type": "DT_FLOAT"}}}, {"name": "model/depthwise_conv2d_52/depthwise/ReadVariableOp", "op": "Const", "attr": {"value": {"tensor": {"dtype": "DT_FLOAT", "tensorShape": {"dim": [{"size": "3"}, {"size": "3"}, {"size": "32"}, {"size": "1"}]}}}, "dtype": {"type": "DT_FLOAT"}}}, {"name": "model/tf.math.add_133/Add/y", "op": "Const", "attr": {"dtype": {"type": "DT_FLOAT"}, "value": {"tensor": {"dtype": "DT_FLOAT", "tensorShape": {"dim": [{"size": "32"}]}}}}}, {"name": "model/tf.math.reduce_mean_54/Mean/reduction_indices", "op": "Const", "attr": {"dtype": {"type": "DT_INT32"}, "value": {"tensor": {"dtype": "DT_INT32", "tensorShape": {"dim": [{"size": "2"}]}}}}}, {"name": "model/tf.reshape_18/Reshape/shape", "op": "Const", "attr": {"dtype": {"type": "DT_INT32"}, "value": {"tensor": {"dtype": "DT_INT32", "tensorShape": {"dim": [{"size": "3"}]}}}}}, {"name": "model/tf.math.reduce_mean_56/Const", "op": "Const", "attr": {"dtype": {"type": "DT_INT32"}, "value": {"tensor": {"dtype": "DT_INT32", "tensorShape": {"dim": [{"size": "3"}]}}}}}, {"name": "model/tf.math.reduce_mean_57/Const", "op": "Const", "attr": {"value": {"tensor": {"dtype": "DT_INT32", "tensorShape": {"dim": [{"size": "3"}]}}}, "dtype": {"type": "DT_INT32"}}}, {"name": "model/tf.__operators__.add_11/y", "op": "Const", "attr": {"value": {"tensor": {"dtype": "DT_FLOAT", "tensorShape": {}}}, "dtype": {"type": "DT_FLOAT"}}}, {"name": "model/tf.reshape_19/Reshape/shape", "op": "Const", "attr": {"dtype": {"type": "DT_INT64"}, "value": {"tensor": {"dtype": "DT_INT64", "tensorShape": {"dim": [{"size": "4"}]}}}}}, {"name": "model/tf.math.multiply_43/Mul/y", "op": "Const", "attr": {"value": {"tensor": {"dtype": "DT_FLOAT", "tensorShape": {"dim": [{"size": "1"}, {"size": "1"}, {"size": "1"}, {"size": "32"}]}}}, "dtype": {"type": "DT_FLOAT"}}}, {"name": "model/tf.math.add_135/Add/y", "op": "Const", "attr": {"value": {"tensor": {"dtype": "DT_FLOAT", "tensorShape": {"dim": [{"size": "32"}]}}}, "dtype": {"type": "DT_FLOAT"}}}, {"name": "model/tf.math.reduce_mean_59/Const", "op": "Const", "attr": {"dtype": {"type": "DT_INT32"}, "value": {"tensor": {"dtype": "DT_INT32", "tensorShape": {"dim": [{"size": "3"}]}}}}}, {"name": "model/conv2d_94/Conv2D/ReadVariableOp", "op": "Const", "attr": {"dtype": {"type": "DT_FLOAT"}, "value": {"tensor": {"dtype": "DT_FLOAT", "tensorShape": {"dim": [{"size": "1"}, {"size": "1"}, {"size": "32"}, {"size": "32"}]}}}}}, {"name": "model/depthwise_conv2d_53/depthwise/ReadVariableOp", "op": "Const", "attr": {"value": {"tensor": {"dtype": "DT_FLOAT", "tensorShape": {"dim": [{"size": "3"}, {"size": "3"}, {"size": "32"}, {"size": "1"}]}}}, "dtype": {"type": "DT_FLOAT"}}}, {"name": "model/tf.math.add_137/Add/y", "op": "Const", "attr": {"dtype": {"type": "DT_FLOAT"}, "value": {"tensor": {"dtype": "DT_FLOAT", "tensorShape": {"dim": [{"size": "32"}]}}}}}, {"name": "model/conv2d_95/Conv2D/ReadVariableOp", "op": "Const", "attr": {"dtype": {"type": "DT_FLOAT"}, "value": {"tensor": {"dtype": "DT_FLOAT", "tensorShape": {"dim": [{"size": "1"}, {"size": "1"}, {"size": "32"}, {"size": "32"}]}}}}}, {"name": "model/depthwise_conv2d_54/depthwise/ReadVariableOp", "op": "Const", "attr": {"dtype": {"type": "DT_FLOAT"}, "value": {"tensor": {"dtype": "DT_FLOAT", "tensorShape": {"dim": [{"size": "3"}, {"size": "3"}, {"size": "32"}, {"size": "1"}]}}}}}, {"name": "model/tf.math.add_138/Add/y", "op": "Const", "attr": {"value": {"tensor": {"dtype": "DT_FLOAT", "tensorShape": {"dim": [{"size": "32"}]}}}, "dtype": {"type": "DT_FLOAT"}}}, {"name": "model/conv2d_96/Conv2D/ReadVariableOp", "op": "Const", "attr": {"dtype": {"type": "DT_FLOAT"}, "value": {"tensor": {"dtype": "DT_FLOAT", "tensorShape": {"dim": [{"size": "1"}, {"size": "1"}, {"size": "32"}, {"size": "32"}]}}}}}, {"name": "model/depthwise_conv2d_55/depthwise/ReadVariableOp", "op": "Const", "attr": {"dtype": {"type": "DT_FLOAT"}, "value": {"tensor": {"dtype": "DT_FLOAT", "tensorShape": {"dim": [{"size": "3"}, {"size": "3"}, {"size": "32"}, {"size": "1"}]}}}}}, {"name": "model/tf.math.add_139/Add/y", "op": "Const", "attr": {"dtype": {"type": "DT_FLOAT"}, "value": {"tensor": {"dtype": "DT_FLOAT", "tensorShape": {"dim": [{"size": "32"}]}}}}}, {"name": "model/tf.math.reduce_mean_58/Mean/reduction_indices", "op": "Const", "attr": {"value": {"tensor": {"dtype": "DT_INT32", "tensorShape": {"dim": [{"size": "2"}]}}}, "dtype": {"type": "DT_INT32"}}}, {"name": "model/tf.reshape_20/Reshape/shape", "op": "Const", "attr": {"value": {"tensor": {"dtype": "DT_INT32", "tensorShape": {"dim": [{"size": "3"}]}}}, "dtype": {"type": "DT_INT32"}}}, {"name": "model/tf.math.reduce_mean_60/Const", "op": "Const", "attr": {"dtype": {"type": "DT_INT32"}, "value": {"tensor": {"dtype": "DT_INT32", "tensorShape": {"dim": [{"size": "3"}]}}}}}, {"name": "model/tf.math.reduce_mean_61/Const", "op": "Const", "attr": {"value": {"tensor": {"dtype": "DT_INT32", "tensorShape": {"dim": [{"size": "3"}]}}}, "dtype": {"type": "DT_INT32"}}}, {"name": "model/tf.__operators__.add_12/y", "op": "Const", "attr": {"value": {"tensor": {"dtype": "DT_FLOAT", "tensorShape": {}}}, "dtype": {"type": "DT_FLOAT"}}}, {"name": "model/tf.reshape_21/Reshape/shape", "op": "Const", "attr": {"dtype": {"type": "DT_INT64"}, "value": {"tensor": {"dtype": "DT_INT64", "tensorShape": {"dim": [{"size": "4"}]}}}}}, {"name": "model/tf.math.multiply_46/Mul/y", "op": "Const", "attr": {"value": {"tensor": {"dtype": "DT_FLOAT", "tensorShape": {"dim": [{"size": "1"}, {"size": "1"}, {"size": "1"}, {"size": "32"}]}}}, "dtype": {"type": "DT_FLOAT"}}}, {"name": "model/tf.math.add_141/Add/y", "op": "Const", "attr": {"value": {"tensor": {"dtype": "DT_FLOAT", "tensorShape": {"dim": [{"size": "32"}]}}}, "dtype": {"type": "DT_FLOAT"}}}, {"name": "model/tf.math.reduce_mean_63/Const", "op": "Const", "attr": {"value": {"tensor": {"dtype": "DT_INT32", "tensorShape": {"dim": [{"size": "3"}]}}}, "dtype": {"type": "DT_INT32"}}}, {"name": "model/conv2d_90/Conv2D/ReadVariableOp", "op": "Const", "attr": {"dtype": {"type": "DT_FLOAT"}, "value": {"tensor": {"dtype": "DT_FLOAT", "tensorShape": {"dim": [{"size": "1"}, {"size": "1"}, {"size": "128"}, {"size": "32"}]}}}}}, {"name": "model/tf.math.add_128/Add/y", "op": "Const", "attr": {"dtype": {"type": "DT_FLOAT"}, "value": {"tensor": {"dtype": "DT_FLOAT", "tensorShape": {"dim": [{"size": "32"}]}}}}}, {"name": "model/conv2d_97/Conv2D/ReadVariableOp", "op": "Const", "attr": {"value": {"tensor": {"dtype": "DT_FLOAT", "tensorShape": {"dim": [{"size": "1"}, {"size": "1"}, {"size": "32"}, {"size": "32"}]}}}, "dtype": {"type": "DT_FLOAT"}}}, {"name": "model/depthwise_conv2d_56/depthwise/ReadVariableOp", "op": "Const", "attr": {"dtype": {"type": "DT_FLOAT"}, "value": {"tensor": {"dtype": "DT_FLOAT", "tensorShape": {"dim": [{"size": "3"}, {"size": "3"}, {"size": "32"}, {"size": "1"}]}}}}}, {"name": "model/tf.math.add_143/Add/y", "op": "Const", "attr": {"value": {"tensor": {"dtype": "DT_FLOAT", "tensorShape": {"dim": [{"size": "32"}]}}}, "dtype": {"type": "DT_FLOAT"}}}, {"name": "model/conv2d_98/Conv2D/ReadVariableOp", "op": "Const", "attr": {"value": {"tensor": {"dtype": "DT_FLOAT", "tensorShape": {"dim": [{"size": "1"}, {"size": "1"}, {"size": "32"}, {"size": "32"}]}}}, "dtype": {"type": "DT_FLOAT"}}}, {"name": "model/depthwise_conv2d_57/depthwise/ReadVariableOp", "op": "Const", "attr": {"dtype": {"type": "DT_FLOAT"}, "value": {"tensor": {"dtype": "DT_FLOAT", "tensorShape": {"dim": [{"size": "3"}, {"size": "3"}, {"size": "32"}, {"size": "1"}]}}}}}, {"name": "model/tf.math.add_144/Add/y", "op": "Const", "attr": {"value": {"tensor": {"dtype": "DT_FLOAT", "tensorShape": {"dim": [{"size": "32"}]}}}, "dtype": {"type": "DT_FLOAT"}}}, {"name": "model/conv2d_99/Conv2D/ReadVariableOp", "op": "Const", "attr": {"dtype": {"type": "DT_FLOAT"}, "value": {"tensor": {"dtype": "DT_FLOAT", "tensorShape": {"dim": [{"size": "1"}, {"size": "1"}, {"size": "32"}, {"size": "32"}]}}}}}, {"name": "model/depthwise_conv2d_58/depthwise/ReadVariableOp", "op": "Const", "attr": {"dtype": {"type": "DT_FLOAT"}, "value": {"tensor": {"dtype": "DT_FLOAT", "tensorShape": {"dim": [{"size": "3"}, {"size": "3"}, {"size": "32"}, {"size": "1"}]}}}}}, {"name": "model/tf.math.add_145/Add/y", "op": "Const", "attr": {"dtype": {"type": "DT_FLOAT"}, "value": {"tensor": {"dtype": "DT_FLOAT", "tensorShape": {"dim": [{"size": "32"}]}}}}}, {"name": "model/conv2d_100/Conv2D/ReadVariableOp", "op": "Const", "attr": {"dtype": {"type": "DT_FLOAT"}, "value": {"tensor": {"dtype": "DT_FLOAT", "tensorShape": {"dim": [{"size": "1"}, {"size": "1"}, {"size": "32"}, {"size": "32"}]}}}}}, {"name": "model/depthwise_conv2d_59/depthwise/ReadVariableOp", "op": "Const", "attr": {"dtype": {"type": "DT_FLOAT"}, "value": {"tensor": {"dtype": "DT_FLOAT", "tensorShape": {"dim": [{"size": "3"}, {"size": "3"}, {"size": "32"}, {"size": "1"}]}}}}}, {"name": "model/tf.math.add_146/Add/y", "op": "Const", "attr": {"dtype": {"type": "DT_FLOAT"}, "value": {"tensor": {"dtype": "DT_FLOAT", "tensorShape": {"dim": [{"size": "32"}]}}}}}, {"name": "model/tf.math.reduce_mean_62/Mean/reduction_indices", "op": "Const", "attr": {"value": {"tensor": {"dtype": "DT_INT32", "tensorShape": {"dim": [{"size": "2"}]}}}, "dtype": {"type": "DT_INT32"}}}, {"name": "model/tf.reshape_22/Reshape/shape", "op": "Const", "attr": {"value": {"tensor": {"dtype": "DT_INT32", "tensorShape": {"dim": [{"size": "3"}]}}}, "dtype": {"type": "DT_INT32"}}}, {"name": "model/tf.math.reduce_mean_64/Const", "op": "Const", "attr": {"dtype": {"type": "DT_INT32"}, "value": {"tensor": {"dtype": "DT_INT32", "tensorShape": {"dim": [{"size": "3"}]}}}}}, {"name": "model/tf.math.reduce_mean_65/Const", "op": "Const", "attr": {"dtype": {"type": "DT_INT32"}, "value": {"tensor": {"dtype": "DT_INT32", "tensorShape": {"dim": [{"size": "3"}]}}}}}, {"name": "model/tf.__operators__.add_13/y", "op": "Const", "attr": {"dtype": {"type": "DT_FLOAT"}, "value": {"tensor": {"dtype": "DT_FLOAT", "tensorShape": {}}}}}, {"name": "model/tf.reshape_23/Reshape/shape", "op": "Const", "attr": {"dtype": {"type": "DT_INT64"}, "value": {"tensor": {"dtype": "DT_INT64", "tensorShape": {"dim": [{"size": "4"}]}}}}}, {"name": "model/tf.math.multiply_49/Mul/y", "op": "Const", "attr": {"value": {"tensor": {"dtype": "DT_FLOAT", "tensorShape": {"dim": [{"size": "1"}, {"size": "1"}, {"size": "1"}, {"size": "32"}]}}}, "dtype": {"type": "DT_FLOAT"}}}, {"name": "model/tf.math.add_148/Add/y", "op": "Const", "attr": {"dtype": {"type": "DT_FLOAT"}, "value": {"tensor": {"dtype": "DT_FLOAT", "tensorShape": {"dim": [{"size": "32"}]}}}}}, {"name": "model/conv2d_101/Conv2D/ReadVariableOp", "op": "Const", "attr": {"dtype": {"type": "DT_FLOAT"}, "value": {"tensor": {"dtype": "DT_FLOAT", "tensorShape": {"dim": [{"size": "1"}, {"size": "1"}, {"size": "32"}, {"size": "128"}]}}}}}, {"name": "model/tf.math.add_150/Add/y", "op": "Const", "attr": {"value": {"tensor": {"dtype": "DT_FLOAT", "tensorShape": {"dim": [{"size": "128"}]}}}, "dtype": {"type": "DT_FLOAT"}}}, {"name": "model/conv2d_70/Conv2D/ReadVariableOp", "op": "Const", "attr": {"dtype": {"type": "DT_FLOAT"}, "value": {"tensor": {"dtype": "DT_FLOAT", "tensorShape": {"dim": [{"size": "1"}, {"size": "1"}, {"size": "32"}, {"size": "32"}]}}}}}, {"name": "model/depthwise_conv2d_40/depthwise/ReadVariableOp", "op": "Const", "attr": {"dtype": {"type": "DT_FLOAT"}, "value": {"tensor": {"dtype": "DT_FLOAT", "tensorShape": {"dim": [{"size": "3"}, {"size": "3"}, {"size": "32"}, {"size": "1"}]}}}}}, {"name": "model/tf.math.add_104/Add/y", "op": "Const", "attr": {"dtype": {"type": "DT_FLOAT"}, "value": {"tensor": {"dtype": "DT_FLOAT", "tensorShape": {"dim": [{"size": "32"}]}}}}}, {"name": "model/tf.math.reduce_mean_46/Mean/reduction_indices", "op": "Const", "attr": {"value": {"tensor": {"dtype": "DT_INT32", "tensorShape": {"dim": [{"size": "2"}]}}}, "dtype": {"type": "DT_INT32"}}}, {"name": "model/conv2d_71/Conv2D/ReadVariableOp", "op": "Const", "attr": {"dtype": {"type": "DT_FLOAT"}, "value": {"tensor": {"dtype": "DT_FLOAT", "tensorShape": {"dim": [{"size": "1"}, {"size": "1"}, {"size": "32"}, {"size": "2"}]}}}}}, {"name": "model/tf.math.add_105/Add/y", "op": "Const", "attr": {"value": {"tensor": {"dtype": "DT_FLOAT", "tensorShape": {"dim": [{"size": "2"}]}}}, "dtype": {"type": "DT_FLOAT"}}}, {"name": "model/conv2d_72/Conv2D/ReadVariableOp", "op": "Const", "attr": {"value": {"tensor": {"dtype": "DT_FLOAT", "tensorShape": {"dim": [{"size": "1"}, {"size": "1"}, {"size": "2"}, {"size": "32"}]}}}, "dtype": {"type": "DT_FLOAT"}}}, {"name": "model/tf.math.add_106/Add/y", "op": "Const", "attr": {"dtype": {"type": "DT_FLOAT"}, "value": {"tensor": {"dtype": "DT_FLOAT", "tensorShape": {"dim": [{"size": "32"}]}}}}}, {"name": "model/conv2d_73/Conv2D/ReadVariableOp", "op": "Const", "attr": {"dtype": {"type": "DT_FLOAT"}, "value": {"tensor": {"dtype": "DT_FLOAT", "tensorShape": {"dim": [{"size": "1"}, {"size": "1"}, {"size": "32"}, {"size": "32"}]}}}}}, {"name": "model/depthwise_conv2d_41/depthwise/ReadVariableOp", "op": "Const", "attr": {"value": {"tensor": {"dtype": "DT_FLOAT", "tensorShape": {"dim": [{"size": "3"}, {"size": "3"}, {"size": "32"}, {"size": "1"}]}}}, "dtype": {"type": "DT_FLOAT"}}}, {"name": "model/tf.math.add_107/Add/y", "op": "Const", "attr": {"dtype": {"type": "DT_FLOAT"}, "value": {"tensor": {"dtype": "DT_FLOAT", "tensorShape": {"dim": [{"size": "32"}]}}}}}, {"name": "model/conv2d_74/Conv2D/ReadVariableOp", "op": "Const", "attr": {"value": {"tensor": {"dtype": "DT_FLOAT", "tensorShape": {"dim": [{"size": "1"}, {"size": "1"}, {"size": "32"}, {"size": "32"}]}}}, "dtype": {"type": "DT_FLOAT"}}}, {"name": "model/depthwise_conv2d_42/depthwise/ReadVariableOp", "op": "Const", "attr": {"dtype": {"type": "DT_FLOAT"}, "value": {"tensor": {"dtype": "DT_FLOAT", "tensorShape": {"dim": [{"size": "3"}, {"size": "3"}, {"size": "32"}, {"size": "1"}]}}}}}, {"name": "model/tf.math.add_108/Add/y", "op": "Const", "attr": {"dtype": {"type": "DT_FLOAT"}, "value": {"tensor": {"dtype": "DT_FLOAT", "tensorShape": {"dim": [{"size": "32"}]}}}}}, {"name": "model/tf.math.reduce_mean_47/Mean/reduction_indices", "op": "Const", "attr": {"dtype": {"type": "DT_INT32"}, "value": {"tensor": {"dtype": "DT_INT32", "tensorShape": {"dim": [{"size": "2"}]}}}}}, {"name": "model/conv2d_75/Conv2D/ReadVariableOp", "op": "Const", "attr": {"value": {"tensor": {"dtype": "DT_FLOAT", "tensorShape": {"dim": [{"size": "1"}, {"size": "1"}, {"size": "32"}, {"size": "2"}]}}}, "dtype": {"type": "DT_FLOAT"}}}, {"name": "model/tf.math.add_109/Add/y", "op": "Const", "attr": {"dtype": {"type": "DT_FLOAT"}, "value": {"tensor": {"dtype": "DT_FLOAT", "tensorShape": {"dim": [{"size": "2"}]}}}}}, {"name": "model/conv2d_76/Conv2D/ReadVariableOp", "op": "Const", "attr": {"dtype": {"type": "DT_FLOAT"}, "value": {"tensor": {"dtype": "DT_FLOAT", "tensorShape": {"dim": [{"size": "1"}, {"size": "1"}, {"size": "2"}, {"size": "32"}]}}}}}, {"name": "model/tf.math.add_110/Add/y", "op": "Const", "attr": {"dtype": {"type": "DT_FLOAT"}, "value": {"tensor": {"dtype": "DT_FLOAT", "tensorShape": {"dim": [{"size": "32"}]}}}}}, {"name": "model/conv2d_77/Conv2D/ReadVariableOp", "op": "Const", "attr": {"dtype": {"type": "DT_FLOAT"}, "value": {"tensor": {"dtype": "DT_FLOAT", "tensorShape": {"dim": [{"size": "1"}, {"size": "1"}, {"size": "32"}, {"size": "32"}]}}}}}, {"name": "model/depthwise_conv2d_43/depthwise/ReadVariableOp", "op": "Const", "attr": {"value": {"tensor": {"dtype": "DT_FLOAT", "tensorShape": {"dim": [{"size": "3"}, {"size": "3"}, {"size": "32"}, {"size": "1"}]}}}, "dtype": {"type": "DT_FLOAT"}}}, {"name": "model/tf.math.add_112/Add/y", "op": "Const", "attr": {"value": {"tensor": {"dtype": "DT_FLOAT", "tensorShape": {"dim": [{"size": "32"}]}}}, "dtype": {"type": "DT_FLOAT"}}}, {"name": "model/conv2d_78/Conv2D/ReadVariableOp", "op": "Const", "attr": {"value": {"tensor": {"dtype": "DT_FLOAT", "tensorShape": {"dim": [{"size": "1"}, {"size": "1"}, {"size": "32"}, {"size": "32"}]}}}, "dtype": {"type": "DT_FLOAT"}}}, {"name": "model/depthwise_conv2d_44/depthwise/ReadVariableOp", "op": "Const", "attr": {"value": {"tensor": {"dtype": "DT_FLOAT", "tensorShape": {"dim": [{"size": "3"}, {"size": "3"}, {"size": "32"}, {"size": "1"}]}}}, "dtype": {"type": "DT_FLOAT"}}}, {"name": "model/tf.math.add_113/Add/y", "op": "Const", "attr": {"value": {"tensor": {"dtype": "DT_FLOAT", "tensorShape": {"dim": [{"size": "32"}]}}}, "dtype": {"type": "DT_FLOAT"}}}, {"name": "model/conv2d_79/Conv2D/ReadVariableOp", "op": "Const", "attr": {"dtype": {"type": "DT_FLOAT"}, "value": {"tensor": {"dtype": "DT_FLOAT", "tensorShape": {"dim": [{"size": "1"}, {"size": "1"}, {"size": "32"}, {"size": "32"}]}}}}}, {"name": "model/depthwise_conv2d_45/depthwise/ReadVariableOp", "op": "Const", "attr": {"value": {"tensor": {"dtype": "DT_FLOAT", "tensorShape": {"dim": [{"size": "3"}, {"size": "3"}, {"size": "32"}, {"size": "1"}]}}}, "dtype": {"type": "DT_FLOAT"}}}, {"name": "model/tf.math.add_114/Add/y", "op": "Const", "attr": {"dtype": {"type": "DT_FLOAT"}, "value": {"tensor": {"dtype": "DT_FLOAT", "tensorShape": {"dim": [{"size": "32"}]}}}}}, {"name": "model/tf.math.reduce_mean_48/Mean/reduction_indices", "op": "Const", "attr": {"dtype": {"type": "DT_INT32"}, "value": {"tensor": {"dtype": "DT_INT32", "tensorShape": {"dim": [{"size": "2"}]}}}}}, {"name": "model/conv2d_80/Conv2D/ReadVariableOp", "op": "Const", "attr": {"value": {"tensor": {"dtype": "DT_FLOAT", "tensorShape": {"dim": [{"size": "1"}, {"size": "1"}, {"size": "32"}, {"size": "2"}]}}}, "dtype": {"type": "DT_FLOAT"}}}, {"name": "model/tf.math.add_115/Add/y", "op": "Const", "attr": {"dtype": {"type": "DT_FLOAT"}, "value": {"tensor": {"dtype": "DT_FLOAT", "tensorShape": {"dim": [{"size": "2"}]}}}}}, {"name": "model/conv2d_81/Conv2D/ReadVariableOp", "op": "Const", "attr": {"dtype": {"type": "DT_FLOAT"}, "value": {"tensor": {"dtype": "DT_FLOAT", "tensorShape": {"dim": [{"size": "1"}, {"size": "1"}, {"size": "2"}, {"size": "32"}]}}}}}, {"name": "model/tf.math.add_116/Add/y", "op": "Const", "attr": {"value": {"tensor": {"dtype": "DT_FLOAT", "tensorShape": {"dim": [{"size": "32"}]}}}, "dtype": {"type": "DT_FLOAT"}}}, {"name": "model/conv2d_69/Conv2D/ReadVariableOp", "op": "Const", "attr": {"dtype": {"type": "DT_FLOAT"}, "value": {"tensor": {"dtype": "DT_FLOAT", "tensorShape": {"dim": [{"size": "1"}, {"size": "1"}, {"size": "96"}, {"size": "32"}]}}}}}, {"name": "model/tf.math.add_103/Add/y", "op": "Const", "attr": {"value": {"tensor": {"dtype": "DT_FLOAT", "tensorShape": {"dim": [{"size": "32"}]}}}, "dtype": {"type": "DT_FLOAT"}}}, {"name": "model/conv2d_82/Conv2D/ReadVariableOp", "op": "Const", "attr": {"value": {"tensor": {"dtype": "DT_FLOAT", "tensorShape": {"dim": [{"size": "1"}, {"size": "1"}, {"size": "32"}, {"size": "32"}]}}}, "dtype": {"type": "DT_FLOAT"}}}, {"name": "model/depthwise_conv2d_46/depthwise/ReadVariableOp", "op": "Const", "attr": {"dtype": {"type": "DT_FLOAT"}, "value": {"tensor": {"dtype": "DT_FLOAT", "tensorShape": {"dim": [{"size": "3"}, {"size": "3"}, {"size": "32"}, {"size": "1"}]}}}}}, {"name": "model/tf.math.add_118/Add/y", "op": "Const", "attr": {"dtype": {"type": "DT_FLOAT"}, "value": {"tensor": {"dtype": "DT_FLOAT", "tensorShape": {"dim": [{"size": "32"}]}}}}}, {"name": "model/conv2d_83/Conv2D/ReadVariableOp", "op": "Const", "attr": {"value": {"tensor": {"dtype": "DT_FLOAT", "tensorShape": {"dim": [{"size": "1"}, {"size": "1"}, {"size": "32"}, {"size": "32"}]}}}, "dtype": {"type": "DT_FLOAT"}}}, {"name": "model/depthwise_conv2d_47/depthwise/ReadVariableOp", "op": "Const", "attr": {"value": {"tensor": {"dtype": "DT_FLOAT", "tensorShape": {"dim": [{"size": "3"}, {"size": "3"}, {"size": "32"}, {"size": "1"}]}}}, "dtype": {"type": "DT_FLOAT"}}}, {"name": "model/tf.math.add_119/Add/y", "op": "Const", "attr": {"value": {"tensor": {"dtype": "DT_FLOAT", "tensorShape": {"dim": [{"size": "32"}]}}}, "dtype": {"type": "DT_FLOAT"}}}, {"name": "model/conv2d_84/Conv2D/ReadVariableOp", "op": "Const", "attr": {"value": {"tensor": {"dtype": "DT_FLOAT", "tensorShape": {"dim": [{"size": "1"}, {"size": "1"}, {"size": "32"}, {"size": "32"}]}}}, "dtype": {"type": "DT_FLOAT"}}}, {"name": "model/depthwise_conv2d_48/depthwise/ReadVariableOp", "op": "Const", "attr": {"value": {"tensor": {"dtype": "DT_FLOAT", "tensorShape": {"dim": [{"size": "3"}, {"size": "3"}, {"size": "32"}, {"size": "1"}]}}}, "dtype": {"type": "DT_FLOAT"}}}, {"name": "model/tf.math.add_120/Add/y", "op": "Const", "attr": {"dtype": {"type": "DT_FLOAT"}, "value": {"tensor": {"dtype": "DT_FLOAT", "tensorShape": {"dim": [{"size": "32"}]}}}}}, {"name": "model/conv2d_85/Conv2D/ReadVariableOp", "op": "Const", "attr": {"dtype": {"type": "DT_FLOAT"}, "value": {"tensor": {"dtype": "DT_FLOAT", "tensorShape": {"dim": [{"size": "1"}, {"size": "1"}, {"size": "32"}, {"size": "32"}]}}}}}, {"name": "model/depthwise_conv2d_49/depthwise/ReadVariableOp", "op": "Const", "attr": {"dtype": {"type": "DT_FLOAT"}, "value": {"tensor": {"dtype": "DT_FLOAT", "tensorShape": {"dim": [{"size": "3"}, {"size": "3"}, {"size": "32"}, {"size": "1"}]}}}}}, {"name": "model/tf.math.add_121/Add/y", "op": "Const", "attr": {"value": {"tensor": {"dtype": "DT_FLOAT", "tensorShape": {"dim": [{"size": "32"}]}}}, "dtype": {"type": "DT_FLOAT"}}}, {"name": "model/tf.math.reduce_mean_49/Mean/reduction_indices", "op": "Const", "attr": {"value": {"tensor": {"dtype": "DT_INT32", "tensorShape": {"dim": [{"size": "2"}]}}}, "dtype": {"type": "DT_INT32"}}}, {"name": "model/conv2d_86/Conv2D/ReadVariableOp", "op": "Const", "attr": {"value": {"tensor": {"dtype": "DT_FLOAT", "tensorShape": {"dim": [{"size": "1"}, {"size": "1"}, {"size": "32"}, {"size": "2"}]}}}, "dtype": {"type": "DT_FLOAT"}}}, {"name": "model/tf.math.add_122/Add/y", "op": "Const", "attr": {"dtype": {"type": "DT_FLOAT"}, "value": {"tensor": {"dtype": "DT_FLOAT", "tensorShape": {"dim": [{"size": "2"}]}}}}}, {"name": "model/conv2d_87/Conv2D/ReadVariableOp", "op": "Const", "attr": {"value": {"tensor": {"dtype": "DT_FLOAT", "tensorShape": {"dim": [{"size": "1"}, {"size": "1"}, {"size": "2"}, {"size": "32"}]}}}, "dtype": {"type": "DT_FLOAT"}}}, {"name": "model/tf.math.add_123/Add/y", "op": "Const", "attr": {"value": {"tensor": {"dtype": "DT_FLOAT", "tensorShape": {"dim": [{"size": "32"}]}}}, "dtype": {"type": "DT_FLOAT"}}}, {"name": "model/conv2d_88/Conv2D/ReadVariableOp", "op": "Const", "attr": {"value": {"tensor": {"dtype": "DT_FLOAT", "tensorShape": {"dim": [{"size": "1"}, {"size": "1"}, {"size": "32"}, {"size": "128"}]}}}, "dtype": {"type": "DT_FLOAT"}}}, {"name": "model/tf.math.add_125/Add/y", "op": "Const", "attr": {"value": {"tensor": {"dtype": "DT_FLOAT", "tensorShape": {"dim": [{"size": "128"}]}}}, "dtype": {"type": "DT_FLOAT"}}}, {"name": "model/tf.math.reduce_mean_31/Const", "op": "Const", "attr": {"dtype": {"type": "DT_INT32"}, "value": {"tensor": {"dtype": "DT_INT32", "tensorShape": {"dim": [{"size": "3"}]}}}}}, {"name": "model/conv2d_57/Conv2D/ReadVariableOp", "op": "Const", "attr": {"value": {"tensor": {"dtype": "DT_FLOAT", "tensorShape": {"dim": [{"size": "1"}, {"size": "1"}, {"size": "24"}, {"size": "24"}]}}}, "dtype": {"type": "DT_FLOAT"}}}, {"name": "model/depthwise_conv2d_30/depthwise/ReadVariableOp", "op": "Const", "attr": {"value": {"tensor": {"dtype": "DT_FLOAT", "tensorShape": {"dim": [{"size": "3"}, {"size": "3"}, {"size": "24"}, {"size": "1"}]}}}, "dtype": {"type": "DT_FLOAT"}}}, {"name": "model/tf.math.add_79/Add/y", "op": "Const", "attr": {"dtype": {"type": "DT_FLOAT"}, "value": {"tensor": {"dtype": "DT_FLOAT", "tensorShape": {"dim": [{"size": "24"}]}}}}}, {"name": "model/tf.math.reduce_mean_30/Mean/reduction_indices", "op": "Const", "attr": {"dtype": {"type": "DT_INT32"}, "value": {"tensor": {"dtype": "DT_INT32", "tensorShape": {"dim": [{"size": "2"}]}}}}}, {"name": "model/tf.reshape_8/Reshape/shape", "op": "Const", "attr": {"dtype": {"type": "DT_INT32"}, "value": {"tensor": {"dtype": "DT_INT32", "tensorShape": {"dim": [{"size": "3"}]}}}}}, {"name": "model/tf.math.reduce_mean_32/Const", "op": "Const", "attr": {"value": {"tensor": {"dtype": "DT_INT32", "tensorShape": {"dim": [{"size": "3"}]}}}, "dtype": {"type": "DT_INT32"}}}, {"name": "model/tf.math.reduce_mean_33/Const", "op": "Const", "attr": {"value": {"tensor": {"dtype": "DT_INT32", "tensorShape": {"dim": [{"size": "3"}]}}}, "dtype": {"type": "DT_INT32"}}}, {"name": "model/tf.__operators__.add_6/y", "op": "Const", "attr": {"value": {"tensor": {"dtype": "DT_FLOAT", "tensorShape": {}}}, "dtype": {"type": "DT_FLOAT"}}}, {"name": "model/tf.reshape_9/Reshape/shape", "op": "Const", "attr": {"value": {"tensor": {"dtype": "DT_INT64", "tensorShape": {"dim": [{"size": "4"}]}}}, "dtype": {"type": "DT_INT64"}}}, {"name": "model/tf.math.multiply_24/Mul/y", "op": "Const", "attr": {"dtype": {"type": "DT_FLOAT"}, "value": {"tensor": {"dtype": "DT_FLOAT", "tensorShape": {"dim": [{"size": "1"}, {"size": "1"}, {"size": "1"}, {"size": "24"}]}}}}}, {"name": "model/tf.math.add_81/Add/y", "op": "Const", "attr": {"dtype": {"type": "DT_FLOAT"}, "value": {"tensor": {"dtype": "DT_FLOAT", "tensorShape": {"dim": [{"size": "24"}]}}}}}, {"name": "model/tf.math.reduce_mean_35/Const", "op": "Const", "attr": {"value": {"tensor": {"dtype": "DT_INT32", "tensorShape": {"dim": [{"size": "3"}]}}}, "dtype": {"type": "DT_INT32"}}}, {"name": "model/conv2d_58/Conv2D/ReadVariableOp", "op": "Const", "attr": {"value": {"tensor": {"dtype": "DT_FLOAT", "tensorShape": {"dim": [{"size": "1"}, {"size": "1"}, {"size": "24"}, {"size": "24"}]}}}, "dtype": {"type": "DT_FLOAT"}}}, {"name": "model/depthwise_conv2d_31/depthwise/ReadVariableOp", "op": "Const", "attr": {"value": {"tensor": {"dtype": "DT_FLOAT", "tensorShape": {"dim": [{"size": "3"}, {"size": "3"}, {"size": "24"}, {"size": "1"}]}}}, "dtype": {"type": "DT_FLOAT"}}}, {"name": "model/tf.math.add_82/Add/y", "op": "Const", "attr": {"dtype": {"type": "DT_FLOAT"}, "value": {"tensor": {"dtype": "DT_FLOAT", "tensorShape": {"dim": [{"size": "24"}]}}}}}, {"name": "model/conv2d_59/Conv2D/ReadVariableOp", "op": "Const", "attr": {"value": {"tensor": {"dtype": "DT_FLOAT", "tensorShape": {"dim": [{"size": "1"}, {"size": "1"}, {"size": "24"}, {"size": "24"}]}}}, "dtype": {"type": "DT_FLOAT"}}}, {"name": "model/depthwise_conv2d_32/depthwise/ReadVariableOp", "op": "Const", "attr": {"value": {"tensor": {"dtype": "DT_FLOAT", "tensorShape": {"dim": [{"size": "3"}, {"size": "3"}, {"size": "24"}, {"size": "1"}]}}}, "dtype": {"type": "DT_FLOAT"}}}, {"name": "model/tf.math.add_83/Add/y", "op": "Const", "attr": {"value": {"tensor": {"dtype": "DT_FLOAT", "tensorShape": {"dim": [{"size": "24"}]}}}, "dtype": {"type": "DT_FLOAT"}}}, {"name": "model/tf.math.reduce_mean_34/Mean/reduction_indices", "op": "Const", "attr": {"value": {"tensor": {"dtype": "DT_INT32", "tensorShape": {"dim": [{"size": "2"}]}}}, "dtype": {"type": "DT_INT32"}}}, {"name": "model/tf.reshape_10/Reshape/shape", "op": "Const", "attr": {"dtype": {"type": "DT_INT32"}, "value": {"tensor": {"dtype": "DT_INT32", "tensorShape": {"dim": [{"size": "3"}]}}}}}, {"name": "model/tf.math.reduce_mean_36/Const", "op": "Const", "attr": {"dtype": {"type": "DT_INT32"}, "value": {"tensor": {"dtype": "DT_INT32", "tensorShape": {"dim": [{"size": "3"}]}}}}}, {"name": "model/tf.math.reduce_mean_37/Const", "op": "Const", "attr": {"dtype": {"type": "DT_INT32"}, "value": {"tensor": {"dtype": "DT_INT32", "tensorShape": {"dim": [{"size": "3"}]}}}}}, {"name": "model/tf.__operators__.add_7/y", "op": "Const", "attr": {"dtype": {"type": "DT_FLOAT"}, "value": {"tensor": {"dtype": "DT_FLOAT", "tensorShape": {}}}}}, {"name": "model/tf.reshape_11/Reshape/shape", "op": "Const", "attr": {"value": {"tensor": {"dtype": "DT_INT64", "tensorShape": {"dim": [{"size": "4"}]}}}, "dtype": {"type": "DT_INT64"}}}, {"name": "model/tf.math.multiply_27/Mul/y", "op": "Const", "attr": {"dtype": {"type": "DT_FLOAT"}, "value": {"tensor": {"dtype": "DT_FLOAT", "tensorShape": {"dim": [{"size": "1"}, {"size": "1"}, {"size": "1"}, {"size": "24"}]}}}}}, {"name": "model/tf.math.add_85/Add/y", "op": "Const", "attr": {"dtype": {"type": "DT_FLOAT"}, "value": {"tensor": {"dtype": "DT_FLOAT", "tensorShape": {"dim": [{"size": "24"}]}}}}}, {"name": "model/tf.math.reduce_mean_39/Const", "op": "Const", "attr": {"value": {"tensor": {"dtype": "DT_INT32", "tensorShape": {"dim": [{"size": "3"}]}}}, "dtype": {"type": "DT_INT32"}}}, {"name": "model/conv2d_60/Conv2D/ReadVariableOp", "op": "Const", "attr": {"dtype": {"type": "DT_FLOAT"}, "value": {"tensor": {"dtype": "DT_FLOAT", "tensorShape": {"dim": [{"size": "1"}, {"size": "1"}, {"size": "24"}, {"size": "24"}]}}}}}, {"name": "model/depthwise_conv2d_33/depthwise/ReadVariableOp", "op": "Const", "attr": {"value": {"tensor": {"dtype": "DT_FLOAT", "tensorShape": {"dim": [{"size": "3"}, {"size": "3"}, {"size": "24"}, {"size": "1"}]}}}, "dtype": {"type": "DT_FLOAT"}}}, {"name": "model/tf.math.add_87/Add/y", "op": "Const", "attr": {"dtype": {"type": "DT_FLOAT"}, "value": {"tensor": {"dtype": "DT_FLOAT", "tensorShape": {"dim": [{"size": "24"}]}}}}}, {"name": "model/conv2d_61/Conv2D/ReadVariableOp", "op": "Const", "attr": {"dtype": {"type": "DT_FLOAT"}, "value": {"tensor": {"dtype": "DT_FLOAT", "tensorShape": {"dim": [{"size": "1"}, {"size": "1"}, {"size": "24"}, {"size": "24"}]}}}}}, {"name": "model/depthwise_conv2d_34/depthwise/ReadVariableOp", "op": "Const", "attr": {"value": {"tensor": {"dtype": "DT_FLOAT", "tensorShape": {"dim": [{"size": "3"}, {"size": "3"}, {"size": "24"}, {"size": "1"}]}}}, "dtype": {"type": "DT_FLOAT"}}}, {"name": "model/tf.math.add_88/Add/y", "op": "Const", "attr": {"dtype": {"type": "DT_FLOAT"}, "value": {"tensor": {"dtype": "DT_FLOAT", "tensorShape": {"dim": [{"size": "24"}]}}}}}, {"name": "model/conv2d_62/Conv2D/ReadVariableOp", "op": "Const", "attr": {"dtype": {"type": "DT_FLOAT"}, "value": {"tensor": {"dtype": "DT_FLOAT", "tensorShape": {"dim": [{"size": "1"}, {"size": "1"}, {"size": "24"}, {"size": "24"}]}}}}}, {"name": "model/depthwise_conv2d_35/depthwise/ReadVariableOp", "op": "Const", "attr": {"value": {"tensor": {"dtype": "DT_FLOAT", "tensorShape": {"dim": [{"size": "3"}, {"size": "3"}, {"size": "24"}, {"size": "1"}]}}}, "dtype": {"type": "DT_FLOAT"}}}, {"name": "model/tf.math.add_89/Add/y", "op": "Const", "attr": {"dtype": {"type": "DT_FLOAT"}, "value": {"tensor": {"dtype": "DT_FLOAT", "tensorShape": {"dim": [{"size": "24"}]}}}}}, {"name": "model/tf.math.reduce_mean_38/Mean/reduction_indices", "op": "Const", "attr": {"value": {"tensor": {"dtype": "DT_INT32", "tensorShape": {"dim": [{"size": "2"}]}}}, "dtype": {"type": "DT_INT32"}}}, {"name": "model/tf.reshape_12/Reshape/shape", "op": "Const", "attr": {"value": {"tensor": {"dtype": "DT_INT32", "tensorShape": {"dim": [{"size": "3"}]}}}, "dtype": {"type": "DT_INT32"}}}, {"name": "model/tf.math.reduce_mean_40/Const", "op": "Const", "attr": {"dtype": {"type": "DT_INT32"}, "value": {"tensor": {"dtype": "DT_INT32", "tensorShape": {"dim": [{"size": "3"}]}}}}}, {"name": "model/tf.math.reduce_mean_41/Const", "op": "Const", "attr": {"dtype": {"type": "DT_INT32"}, "value": {"tensor": {"dtype": "DT_INT32", "tensorShape": {"dim": [{"size": "3"}]}}}}}, {"name": "model/tf.__operators__.add_8/y", "op": "Const", "attr": {"dtype": {"type": "DT_FLOAT"}, "value": {"tensor": {"dtype": "DT_FLOAT", "tensorShape": {}}}}}, {"name": "model/tf.reshape_13/Reshape/shape", "op": "Const", "attr": {"value": {"tensor": {"dtype": "DT_INT64", "tensorShape": {"dim": [{"size": "4"}]}}}, "dtype": {"type": "DT_INT64"}}}, {"name": "model/tf.math.multiply_30/Mul/y", "op": "Const", "attr": {"value": {"tensor": {"dtype": "DT_FLOAT", "tensorShape": {"dim": [{"size": "1"}, {"size": "1"}, {"size": "1"}, {"size": "24"}]}}}, "dtype": {"type": "DT_FLOAT"}}}, {"name": "model/tf.math.add_91/Add/y", "op": "Const", "attr": {"value": {"tensor": {"dtype": "DT_FLOAT", "tensorShape": {"dim": [{"size": "24"}]}}}, "dtype": {"type": "DT_FLOAT"}}}, {"name": "model/tf.math.reduce_mean_43/Const", "op": "Const", "attr": {"value": {"tensor": {"dtype": "DT_INT32", "tensorShape": {"dim": [{"size": "3"}]}}}, "dtype": {"type": "DT_INT32"}}}, {"name": "model/conv2d_56/Conv2D/ReadVariableOp", "op": "Const", "attr": {"dtype": {"type": "DT_FLOAT"}, "value": {"tensor": {"dtype": "DT_FLOAT", "tensorShape": {"dim": [{"size": "1"}, {"size": "1"}, {"size": "96"}, {"size": "24"}]}}}}}, {"name": "model/tf.math.add_78/Add/y", "op": "Const", "attr": {"value": {"tensor": {"dtype": "DT_FLOAT", "tensorShape": {"dim": [{"size": "24"}]}}}, "dtype": {"type": "DT_FLOAT"}}}, {"name": "model/conv2d_63/Conv2D/ReadVariableOp", "op": "Const", "attr": {"dtype": {"type": "DT_FLOAT"}, "value": {"tensor": {"dtype": "DT_FLOAT", "tensorShape": {"dim": [{"size": "1"}, {"size": "1"}, {"size": "24"}, {"size": "24"}]}}}}}, {"name": "model/depthwise_conv2d_36/depthwise/ReadVariableOp", "op": "Const", "attr": {"dtype": {"type": "DT_FLOAT"}, "value": {"tensor": {"dtype": "DT_FLOAT", "tensorShape": {"dim": [{"size": "3"}, {"size": "3"}, {"size": "24"}, {"size": "1"}]}}}}}, {"name": "model/tf.math.add_93/Add/y", "op": "Const", "attr": {"value": {"tensor": {"dtype": "DT_FLOAT", "tensorShape": {"dim": [{"size": "24"}]}}}, "dtype": {"type": "DT_FLOAT"}}}, {"name": "model/conv2d_64/Conv2D/ReadVariableOp", "op": "Const", "attr": {"value": {"tensor": {"dtype": "DT_FLOAT", "tensorShape": {"dim": [{"size": "1"}, {"size": "1"}, {"size": "24"}, {"size": "24"}]}}}, "dtype": {"type": "DT_FLOAT"}}}, {"name": "model/depthwise_conv2d_37/depthwise/ReadVariableOp", "op": "Const", "attr": {"dtype": {"type": "DT_FLOAT"}, "value": {"tensor": {"dtype": "DT_FLOAT", "tensorShape": {"dim": [{"size": "3"}, {"size": "3"}, {"size": "24"}, {"size": "1"}]}}}}}, {"name": "model/tf.math.add_94/Add/y", "op": "Const", "attr": {"value": {"tensor": {"dtype": "DT_FLOAT", "tensorShape": {"dim": [{"size": "24"}]}}}, "dtype": {"type": "DT_FLOAT"}}}, {"name": "model/conv2d_65/Conv2D/ReadVariableOp", "op": "Const", "attr": {"dtype": {"type": "DT_FLOAT"}, "value": {"tensor": {"dtype": "DT_FLOAT", "tensorShape": {"dim": [{"size": "1"}, {"size": "1"}, {"size": "24"}, {"size": "24"}]}}}}}, {"name": "model/depthwise_conv2d_38/depthwise/ReadVariableOp", "op": "Const", "attr": {"value": {"tensor": {"dtype": "DT_FLOAT", "tensorShape": {"dim": [{"size": "3"}, {"size": "3"}, {"size": "24"}, {"size": "1"}]}}}, "dtype": {"type": "DT_FLOAT"}}}, {"name": "model/tf.math.add_95/Add/y", "op": "Const", "attr": {"value": {"tensor": {"dtype": "DT_FLOAT", "tensorShape": {"dim": [{"size": "24"}]}}}, "dtype": {"type": "DT_FLOAT"}}}, {"name": "model/conv2d_66/Conv2D/ReadVariableOp", "op": "Const", "attr": {"dtype": {"type": "DT_FLOAT"}, "value": {"tensor": {"dtype": "DT_FLOAT", "tensorShape": {"dim": [{"size": "1"}, {"size": "1"}, {"size": "24"}, {"size": "24"}]}}}}}, {"name": "model/depthwise_conv2d_39/depthwise/ReadVariableOp", "op": "Const", "attr": {"dtype": {"type": "DT_FLOAT"}, "value": {"tensor": {"dtype": "DT_FLOAT", "tensorShape": {"dim": [{"size": "3"}, {"size": "3"}, {"size": "24"}, {"size": "1"}]}}}}}, {"name": "model/tf.math.add_96/Add/y", "op": "Const", "attr": {"value": {"tensor": {"dtype": "DT_FLOAT", "tensorShape": {"dim": [{"size": "24"}]}}}, "dtype": {"type": "DT_FLOAT"}}}, {"name": "model/tf.math.reduce_mean_42/Mean/reduction_indices", "op": "Const", "attr": {"dtype": {"type": "DT_INT32"}, "value": {"tensor": {"dtype": "DT_INT32", "tensorShape": {"dim": [{"size": "2"}]}}}}}, {"name": "model/tf.reshape_14/Reshape/shape", "op": "Const", "attr": {"value": {"tensor": {"dtype": "DT_INT32", "tensorShape": {"dim": [{"size": "3"}]}}}, "dtype": {"type": "DT_INT32"}}}, {"name": "model/tf.math.reduce_mean_44/Const", "op": "Const", "attr": {"dtype": {"type": "DT_INT32"}, "value": {"tensor": {"dtype": "DT_INT32", "tensorShape": {"dim": [{"size": "3"}]}}}}}, {"name": "model/tf.math.reduce_mean_45/Const", "op": "Const", "attr": {"value": {"tensor": {"dtype": "DT_INT32", "tensorShape": {"dim": [{"size": "3"}]}}}, "dtype": {"type": "DT_INT32"}}}, {"name": "model/tf.__operators__.add_9/y", "op": "Const", "attr": {"value": {"tensor": {"dtype": "DT_FLOAT", "tensorShape": {}}}, "dtype": {"type": "DT_FLOAT"}}}, {"name": "model/tf.reshape_15/Reshape/shape", "op": "Const", "attr": {"value": {"tensor": {"dtype": "DT_INT64", "tensorShape": {"dim": [{"size": "4"}]}}}, "dtype": {"type": "DT_INT64"}}}, {"name": "model/tf.math.multiply_33/Mul/y", "op": "Const", "attr": {"dtype": {"type": "DT_FLOAT"}, "value": {"tensor": {"dtype": "DT_FLOAT", "tensorShape": {"dim": [{"size": "1"}, {"size": "1"}, {"size": "1"}, {"size": "24"}]}}}}}, {"name": "model/tf.math.add_98/Add/y", "op": "Const", "attr": {"value": {"tensor": {"dtype": "DT_FLOAT", "tensorShape": {"dim": [{"size": "24"}]}}}, "dtype": {"type": "DT_FLOAT"}}}, {"name": "model/conv2d_67/Conv2D/ReadVariableOp", "op": "Const", "attr": {"value": {"tensor": {"dtype": "DT_FLOAT", "tensorShape": {"dim": [{"size": "1"}, {"size": "1"}, {"size": "24"}, {"size": "96"}]}}}, "dtype": {"type": "DT_FLOAT"}}}, {"name": "model/tf.math.add_100/Add/y", "op": "Const", "attr": {"dtype": {"type": "DT_FLOAT"}, "value": {"tensor": {"dtype": "DT_FLOAT", "tensorShape": {"dim": [{"size": "96"}]}}}}}, {"name": "model/conv2d_36/Conv2D/ReadVariableOp", "op": "Const", "attr": {"dtype": {"type": "DT_FLOAT"}, "value": {"tensor": {"dtype": "DT_FLOAT", "tensorShape": {"dim": [{"size": "1"}, {"size": "1"}, {"size": "24"}, {"size": "24"}]}}}}}, {"name": "model/depthwise_conv2d_20/depthwise/ReadVariableOp", "op": "Const", "attr": {"value": {"tensor": {"dtype": "DT_FLOAT", "tensorShape": {"dim": [{"size": "3"}, {"size": "3"}, {"size": "24"}, {"size": "1"}]}}}, "dtype": {"type": "DT_FLOAT"}}}, {"name": "model/tf.math.add_54/Add/y", "op": "Const", "attr": {"value": {"tensor": {"dtype": "DT_FLOAT", "tensorShape": {"dim": [{"size": "24"}]}}}, "dtype": {"type": "DT_FLOAT"}}}, {"name": "model/tf.math.reduce_mean_26/Mean/reduction_indices", "op": "Const", "attr": {"dtype": {"type": "DT_INT32"}, "value": {"tensor": {"dtype": "DT_INT32", "tensorShape": {"dim": [{"size": "2"}]}}}}}, {"name": "model/conv2d_37/Conv2D/ReadVariableOp", "op": "Const", "attr": {"value": {"tensor": {"dtype": "DT_FLOAT", "tensorShape": {"dim": [{"size": "1"}, {"size": "1"}, {"size": "24"}, {"size": "1"}]}}}, "dtype": {"type": "DT_FLOAT"}}}, {"name": "model/tf.math.add_55/Add/y", "op": "Const", "attr": {"dtype": {"type": "DT_FLOAT"}, "value": {"tensor": {"dtype": "DT_FLOAT", "tensorShape": {"dim": [{"size": "1"}]}}}}}, {"name": "model/conv2d_38/Conv2D/ReadVariableOp", "op": "Const", "attr": {"dtype": {"type": "DT_FLOAT"}, "value": {"tensor": {"dtype": "DT_FLOAT", "tensorShape": {"dim": [{"size": "1"}, {"size": "1"}, {"size": "1"}, {"size": "24"}]}}}}}, {"name": "model/tf.math.add_56/Add/y", "op": "Const", "attr": {"value": {"tensor": {"dtype": "DT_FLOAT", "tensorShape": {"dim": [{"size": "24"}]}}}, "dtype": {"type": "DT_FLOAT"}}}, {"name": "model/conv2d_39/Conv2D/ReadVariableOp", "op": "Const", "attr": {"value": {"tensor": {"dtype": "DT_FLOAT", "tensorShape": {"dim": [{"size": "1"}, {"size": "1"}, {"size": "24"}, {"size": "24"}]}}}, "dtype": {"type": "DT_FLOAT"}}}, {"name": "model/depthwise_conv2d_21/depthwise/ReadVariableOp", "op": "Const", "attr": {"value": {"tensor": {"dtype": "DT_FLOAT", "tensorShape": {"dim": [{"size": "3"}, {"size": "3"}, {"size": "24"}, {"size": "1"}]}}}, "dtype": {"type": "DT_FLOAT"}}}, {"name": "model/tf.math.add_57/Add/y", "op": "Const", "attr": {"value": {"tensor": {"dtype": "DT_FLOAT", "tensorShape": {"dim": [{"size": "24"}]}}}, "dtype": {"type": "DT_FLOAT"}}}, {"name": "model/conv2d_40/Conv2D/ReadVariableOp", "op": "Const", "attr": {"dtype": {"type": "DT_FLOAT"}, "value": {"tensor": {"dtype": "DT_FLOAT", "tensorShape": {"dim": [{"size": "1"}, {"size": "1"}, {"size": "24"}, {"size": "24"}]}}}}}, {"name": "model/depthwise_conv2d_22/depthwise/ReadVariableOp", "op": "Const", "attr": {"value": {"tensor": {"dtype": "DT_FLOAT", "tensorShape": {"dim": [{"size": "3"}, {"size": "3"}, {"size": "24"}, {"size": "1"}]}}}, "dtype": {"type": "DT_FLOAT"}}}, {"name": "model/tf.math.add_58/Add/y", "op": "Const", "attr": {"value": {"tensor": {"dtype": "DT_FLOAT", "tensorShape": {"dim": [{"size": "24"}]}}}, "dtype": {"type": "DT_FLOAT"}}}, {"name": "model/tf.math.reduce_mean_27/Mean/reduction_indices", "op": "Const", "attr": {"dtype": {"type": "DT_INT32"}, "value": {"tensor": {"dtype": "DT_INT32", "tensorShape": {"dim": [{"size": "2"}]}}}}}, {"name": "model/conv2d_41/Conv2D/ReadVariableOp", "op": "Const", "attr": {"dtype": {"type": "DT_FLOAT"}, "value": {"tensor": {"dtype": "DT_FLOAT", "tensorShape": {"dim": [{"size": "1"}, {"size": "1"}, {"size": "24"}, {"size": "1"}]}}}}}, {"name": "model/tf.math.add_59/Add/y", "op": "Const", "attr": {"dtype": {"type": "DT_FLOAT"}, "value": {"tensor": {"dtype": "DT_FLOAT", "tensorShape": {"dim": [{"size": "1"}]}}}}}, {"name": "model/conv2d_42/Conv2D/ReadVariableOp", "op": "Const", "attr": {"value": {"tensor": {"dtype": "DT_FLOAT", "tensorShape": {"dim": [{"size": "1"}, {"size": "1"}, {"size": "1"}, {"size": "24"}]}}}, "dtype": {"type": "DT_FLOAT"}}}, {"name": "model/tf.math.add_60/Add/y", "op": "Const", "attr": {"dtype": {"type": "DT_FLOAT"}, "value": {"tensor": {"dtype": "DT_FLOAT", "tensorShape": {"dim": [{"size": "24"}]}}}}}, {"name": "model/conv2d_43/Conv2D/ReadVariableOp", "op": "Const", "attr": {"value": {"tensor": {"dtype": "DT_FLOAT", "tensorShape": {"dim": [{"size": "1"}, {"size": "1"}, {"size": "24"}, {"size": "24"}]}}}, "dtype": {"type": "DT_FLOAT"}}}, {"name": "model/depthwise_conv2d_23/depthwise/ReadVariableOp", "op": "Const", "attr": {"dtype": {"type": "DT_FLOAT"}, "value": {"tensor": {"dtype": "DT_FLOAT", "tensorShape": {"dim": [{"size": "3"}, {"size": "3"}, {"size": "24"}, {"size": "1"}]}}}}}, {"name": "model/tf.math.add_62/Add/y", "op": "Const", "attr": {"dtype": {"type": "DT_FLOAT"}, "value": {"tensor": {"dtype": "DT_FLOAT", "tensorShape": {"dim": [{"size": "24"}]}}}}}, {"name": "model/conv2d_44/Conv2D/ReadVariableOp", "op": "Const", "attr": {"value": {"tensor": {"dtype": "DT_FLOAT", "tensorShape": {"dim": [{"size": "1"}, {"size": "1"}, {"size": "24"}, {"size": "24"}]}}}, "dtype": {"type": "DT_FLOAT"}}}, {"name": "model/depthwise_conv2d_24/depthwise/ReadVariableOp", "op": "Const", "attr": {"value": {"tensor": {"dtype": "DT_FLOAT", "tensorShape": {"dim": [{"size": "3"}, {"size": "3"}, {"size": "24"}, {"size": "1"}]}}}, "dtype": {"type": "DT_FLOAT"}}}, {"name": "model/tf.math.add_63/Add/y", "op": "Const", "attr": {"value": {"tensor": {"dtype": "DT_FLOAT", "tensorShape": {"dim": [{"size": "24"}]}}}, "dtype": {"type": "DT_FLOAT"}}}, {"name": "model/conv2d_45/Conv2D/ReadVariableOp", "op": "Const", "attr": {"dtype": {"type": "DT_FLOAT"}, "value": {"tensor": {"dtype": "DT_FLOAT", "tensorShape": {"dim": [{"size": "1"}, {"size": "1"}, {"size": "24"}, {"size": "24"}]}}}}}, {"name": "model/depthwise_conv2d_25/depthwise/ReadVariableOp", "op": "Const", "attr": {"value": {"tensor": {"dtype": "DT_FLOAT", "tensorShape": {"dim": [{"size": "3"}, {"size": "3"}, {"size": "24"}, {"size": "1"}]}}}, "dtype": {"type": "DT_FLOAT"}}}, {"name": "model/tf.math.add_64/Add/y", "op": "Const", "attr": {"dtype": {"type": "DT_FLOAT"}, "value": {"tensor": {"dtype": "DT_FLOAT", "tensorShape": {"dim": [{"size": "24"}]}}}}}, {"name": "model/tf.math.reduce_mean_28/Mean/reduction_indices", "op": "Const", "attr": {"dtype": {"type": "DT_INT32"}, "value": {"tensor": {"dtype": "DT_INT32", "tensorShape": {"dim": [{"size": "2"}]}}}}}, {"name": "model/conv2d_46/Conv2D/ReadVariableOp", "op": "Const", "attr": {"dtype": {"type": "DT_FLOAT"}, "value": {"tensor": {"dtype": "DT_FLOAT", "tensorShape": {"dim": [{"size": "1"}, {"size": "1"}, {"size": "24"}, {"size": "1"}]}}}}}, {"name": "model/tf.math.add_65/Add/y", "op": "Const", "attr": {"value": {"tensor": {"dtype": "DT_FLOAT", "tensorShape": {"dim": [{"size": "1"}]}}}, "dtype": {"type": "DT_FLOAT"}}}, {"name": "model/conv2d_47/Conv2D/ReadVariableOp", "op": "Const", "attr": {"value": {"tensor": {"dtype": "DT_FLOAT", "tensorShape": {"dim": [{"size": "1"}, {"size": "1"}, {"size": "1"}, {"size": "24"}]}}}, "dtype": {"type": "DT_FLOAT"}}}, {"name": "model/tf.math.add_66/Add/y", "op": "Const", "attr": {"dtype": {"type": "DT_FLOAT"}, "value": {"tensor": {"dtype": "DT_FLOAT", "tensorShape": {"dim": [{"size": "24"}]}}}}}, {"name": "model/conv2d_35/Conv2D/ReadVariableOp", "op": "Const", "attr": {"value": {"tensor": {"dtype": "DT_FLOAT", "tensorShape": {"dim": [{"size": "1"}, {"size": "1"}, {"size": "64"}, {"size": "24"}]}}}, "dtype": {"type": "DT_FLOAT"}}}, {"name": "model/tf.math.add_53/Add/y", "op": "Const", "attr": {"value": {"tensor": {"dtype": "DT_FLOAT", "tensorShape": {"dim": [{"size": "24"}]}}}, "dtype": {"type": "DT_FLOAT"}}}, {"name": "model/conv2d_48/Conv2D/ReadVariableOp", "op": "Const", "attr": {"value": {"tensor": {"dtype": "DT_FLOAT", "tensorShape": {"dim": [{"size": "1"}, {"size": "1"}, {"size": "24"}, {"size": "24"}]}}}, "dtype": {"type": "DT_FLOAT"}}}, {"name": "model/depthwise_conv2d_26/depthwise/ReadVariableOp", "op": "Const", "attr": {"value": {"tensor": {"dtype": "DT_FLOAT", "tensorShape": {"dim": [{"size": "3"}, {"size": "3"}, {"size": "24"}, {"size": "1"}]}}}, "dtype": {"type": "DT_FLOAT"}}}, {"name": "model/tf.math.add_68/Add/y", "op": "Const", "attr": {"dtype": {"type": "DT_FLOAT"}, "value": {"tensor": {"dtype": "DT_FLOAT", "tensorShape": {"dim": [{"size": "24"}]}}}}}, {"name": "model/conv2d_49/Conv2D/ReadVariableOp", "op": "Const", "attr": {"value": {"tensor": {"dtype": "DT_FLOAT", "tensorShape": {"dim": [{"size": "1"}, {"size": "1"}, {"size": "24"}, {"size": "24"}]}}}, "dtype": {"type": "DT_FLOAT"}}}, {"name": "model/depthwise_conv2d_27/depthwise/ReadVariableOp", "op": "Const", "attr": {"value": {"tensor": {"dtype": "DT_FLOAT", "tensorShape": {"dim": [{"size": "3"}, {"size": "3"}, {"size": "24"}, {"size": "1"}]}}}, "dtype": {"type": "DT_FLOAT"}}}, {"name": "model/tf.math.add_69/Add/y", "op": "Const", "attr": {"value": {"tensor": {"dtype": "DT_FLOAT", "tensorShape": {"dim": [{"size": "24"}]}}}, "dtype": {"type": "DT_FLOAT"}}}, {"name": "model/conv2d_50/Conv2D/ReadVariableOp", "op": "Const", "attr": {"dtype": {"type": "DT_FLOAT"}, "value": {"tensor": {"dtype": "DT_FLOAT", "tensorShape": {"dim": [{"size": "1"}, {"size": "1"}, {"size": "24"}, {"size": "24"}]}}}}}, {"name": "model/depthwise_conv2d_28/depthwise/ReadVariableOp", "op": "Const", "attr": {"dtype": {"type": "DT_FLOAT"}, "value": {"tensor": {"dtype": "DT_FLOAT", "tensorShape": {"dim": [{"size": "3"}, {"size": "3"}, {"size": "24"}, {"size": "1"}]}}}}}, {"name": "model/tf.math.add_70/Add/y", "op": "Const", "attr": {"dtype": {"type": "DT_FLOAT"}, "value": {"tensor": {"dtype": "DT_FLOAT", "tensorShape": {"dim": [{"size": "24"}]}}}}}, {"name": "model/conv2d_51/Conv2D/ReadVariableOp", "op": "Const", "attr": {"dtype": {"type": "DT_FLOAT"}, "value": {"tensor": {"dtype": "DT_FLOAT", "tensorShape": {"dim": [{"size": "1"}, {"size": "1"}, {"size": "24"}, {"size": "24"}]}}}}}, {"name": "model/depthwise_conv2d_29/depthwise/ReadVariableOp", "op": "Const", "attr": {"dtype": {"type": "DT_FLOAT"}, "value": {"tensor": {"dtype": "DT_FLOAT", "tensorShape": {"dim": [{"size": "3"}, {"size": "3"}, {"size": "24"}, {"size": "1"}]}}}}}, {"name": "model/tf.math.add_71/Add/y", "op": "Const", "attr": {"value": {"tensor": {"dtype": "DT_FLOAT", "tensorShape": {"dim": [{"size": "24"}]}}}, "dtype": {"type": "DT_FLOAT"}}}, {"name": "model/tf.math.reduce_mean_29/Mean/reduction_indices", "op": "Const", "attr": {"value": {"tensor": {"dtype": "DT_INT32", "tensorShape": {"dim": [{"size": "2"}]}}}, "dtype": {"type": "DT_INT32"}}}, {"name": "model/conv2d_52/Conv2D/ReadVariableOp", "op": "Const", "attr": {"dtype": {"type": "DT_FLOAT"}, "value": {"tensor": {"dtype": "DT_FLOAT", "tensorShape": {"dim": [{"size": "1"}, {"size": "1"}, {"size": "24"}, {"size": "1"}]}}}}}, {"name": "model/tf.math.add_72/Add/y", "op": "Const", "attr": {"dtype": {"type": "DT_FLOAT"}, "value": {"tensor": {"dtype": "DT_FLOAT", "tensorShape": {"dim": [{"size": "1"}]}}}}}, {"name": "model/conv2d_53/Conv2D/ReadVariableOp", "op": "Const", "attr": {"dtype": {"type": "DT_FLOAT"}, "value": {"tensor": {"dtype": "DT_FLOAT", "tensorShape": {"dim": [{"size": "1"}, {"size": "1"}, {"size": "1"}, {"size": "24"}]}}}}}, {"name": "model/tf.math.add_73/Add/y", "op": "Const", "attr": {"dtype": {"type": "DT_FLOAT"}, "value": {"tensor": {"dtype": "DT_FLOAT", "tensorShape": {"dim": [{"size": "24"}]}}}}}, {"name": "model/conv2d_54/Conv2D/ReadVariableOp", "op": "Const", "attr": {"dtype": {"type": "DT_FLOAT"}, "value": {"tensor": {"dtype": "DT_FLOAT", "tensorShape": {"dim": [{"size": "1"}, {"size": "1"}, {"size": "24"}, {"size": "96"}]}}}}}, {"name": "model/tf.math.add_75/Add/y", "op": "Const", "attr": {"value": {"tensor": {"dtype": "DT_FLOAT", "tensorShape": {"dim": [{"size": "96"}]}}}, "dtype": {"type": "DT_FLOAT"}}}, {"name": "model/conv2d_23/Conv2D/ReadVariableOp", "op": "Const", "attr": {"value": {"tensor": {"dtype": "DT_FLOAT", "tensorShape": {"dim": [{"size": "1"}, {"size": "1"}, {"size": "16"}, {"size": "16"}]}}}, "dtype": {"type": "DT_FLOAT"}}}, {"name": "model/depthwise_conv2d_10/depthwise/ReadVariableOp", "op": "Const", "attr": {"dtype": {"type": "DT_FLOAT"}, "value": {"tensor": {"dtype": "DT_FLOAT", "tensorShape": {"dim": [{"size": "3"}, {"size": "3"}, {"size": "16"}, {"size": "1"}]}}}}}, {"name": "model/tf.math.add_29/Add/y", "op": "Const", "attr": {"dtype": {"type": "DT_FLOAT"}, "value": {"tensor": {"dtype": "DT_FLOAT", "tensorShape": {"dim": [{"size": "16"}]}}}}}, {"name": "model/conv2d_24/Conv2D/ReadVariableOp", "op": "Const", "attr": {"value": {"tensor": {"dtype": "DT_FLOAT", "tensorShape": {"dim": [{"size": "1"}, {"size": "1"}, {"size": "16"}, {"size": "16"}]}}}, "dtype": {"type": "DT_FLOAT"}}}, {"name": "model/depthwise_conv2d_11/depthwise/ReadVariableOp", "op": "Const", "attr": {"value": {"tensor": {"dtype": "DT_FLOAT", "tensorShape": {"dim": [{"size": "3"}, {"size": "3"}, {"size": "16"}, {"size": "1"}]}}}, "dtype": {"type": "DT_FLOAT"}}}, {"name": "model/tf.math.add_32/Add/y", "op": "Const", "attr": {"value": {"tensor": {"dtype": "DT_FLOAT", "tensorShape": {"dim": [{"size": "16"}]}}}, "dtype": {"type": "DT_FLOAT"}}}, {"name": "model/conv2d_25/Conv2D/ReadVariableOp", "op": "Const", "attr": {"dtype": {"type": "DT_FLOAT"}, "value": {"tensor": {"dtype": "DT_FLOAT", "tensorShape": {"dim": [{"size": "1"}, {"size": "1"}, {"size": "16"}, {"size": "16"}]}}}}}, {"name": "model/depthwise_conv2d_12/depthwise/ReadVariableOp", "op": "Const", "attr": {"value": {"tensor": {"dtype": "DT_FLOAT", "tensorShape": {"dim": [{"size": "3"}, {"size": "3"}, {"size": "16"}, {"size": "1"}]}}}, "dtype": {"type": "DT_FLOAT"}}}, {"name": "model/tf.math.add_33/Add/y", "op": "Const", "attr": {"value": {"tensor": {"dtype": "DT_FLOAT", "tensorShape": {"dim": [{"size": "16"}]}}}, "dtype": {"type": "DT_FLOAT"}}}, {"name": "model/conv2d_26/Conv2D/ReadVariableOp", "op": "Const", "attr": {"value": {"tensor": {"dtype": "DT_FLOAT", "tensorShape": {"dim": [{"size": "1"}, {"size": "1"}, {"size": "16"}, {"size": "16"}]}}}, "dtype": {"type": "DT_FLOAT"}}}, {"name": "model/depthwise_conv2d_13/depthwise/ReadVariableOp", "op": "Const", "attr": {"dtype": {"type": "DT_FLOAT"}, "value": {"tensor": {"dtype": "DT_FLOAT", "tensorShape": {"dim": [{"size": "3"}, {"size": "3"}, {"size": "16"}, {"size": "1"}]}}}}}, {"name": "model/tf.math.add_37/Add/y", "op": "Const", "attr": {"value": {"tensor": {"dtype": "DT_FLOAT", "tensorShape": {"dim": [{"size": "16"}]}}}, "dtype": {"type": "DT_FLOAT"}}}, {"name": "model/conv2d_27/Conv2D/ReadVariableOp", "op": "Const", "attr": {"dtype": {"type": "DT_FLOAT"}, "value": {"tensor": {"dtype": "DT_FLOAT", "tensorShape": {"dim": [{"size": "1"}, {"size": "1"}, {"size": "16"}, {"size": "16"}]}}}}}, {"name": "model/depthwise_conv2d_14/depthwise/ReadVariableOp", "op": "Const", "attr": {"dtype": {"type": "DT_FLOAT"}, "value": {"tensor": {"dtype": "DT_FLOAT", "tensorShape": {"dim": [{"size": "3"}, {"size": "3"}, {"size": "16"}, {"size": "1"}]}}}}}, {"name": "model/tf.math.add_38/Add/y", "op": "Const", "attr": {"value": {"tensor": {"dtype": "DT_FLOAT", "tensorShape": {"dim": [{"size": "16"}]}}}, "dtype": {"type": "DT_FLOAT"}}}, {"name": "model/conv2d_28/Conv2D/ReadVariableOp", "op": "Const", "attr": {"value": {"tensor": {"dtype": "DT_FLOAT", "tensorShape": {"dim": [{"size": "1"}, {"size": "1"}, {"size": "16"}, {"size": "16"}]}}}, "dtype": {"type": "DT_FLOAT"}}}, {"name": "model/depthwise_conv2d_15/depthwise/ReadVariableOp", "op": "Const", "attr": {"value": {"tensor": {"dtype": "DT_FLOAT", "tensorShape": {"dim": [{"size": "3"}, {"size": "3"}, {"size": "16"}, {"size": "1"}]}}}, "dtype": {"type": "DT_FLOAT"}}}, {"name": "model/tf.math.add_39/Add/y", "op": "Const", "attr": {"value": {"tensor": {"dtype": "DT_FLOAT", "tensorShape": {"dim": [{"size": "16"}]}}}, "dtype": {"type": "DT_FLOAT"}}}, {"name": "model/conv2d_22/Conv2D/ReadVariableOp", "op": "Const", "attr": {"dtype": {"type": "DT_FLOAT"}, "value": {"tensor": {"dtype": "DT_FLOAT", "tensorShape": {"dim": [{"size": "1"}, {"size": "1"}, {"size": "64"}, {"size": "16"}]}}}}}, {"name": "model/tf.math.add_28/Add/y", "op": "Const", "attr": {"dtype": {"type": "DT_FLOAT"}, "value": {"tensor": {"dtype": "DT_FLOAT", "tensorShape": {"dim": [{"size": "16"}]}}}}}, {"name": "model/conv2d_29/Conv2D/ReadVariableOp", "op": "Const", "attr": {"value": {"tensor": {"dtype": "DT_FLOAT", "tensorShape": {"dim": [{"size": "1"}, {"size": "1"}, {"size": "16"}, {"size": "16"}]}}}, "dtype": {"type": "DT_FLOAT"}}}, {"name": "model/depthwise_conv2d_16/depthwise/ReadVariableOp", "op": "Const", "attr": {"value": {"tensor": {"dtype": "DT_FLOAT", "tensorShape": {"dim": [{"size": "3"}, {"size": "3"}, {"size": "16"}, {"size": "1"}]}}}, "dtype": {"type": "DT_FLOAT"}}}, {"name": "model/tf.math.add_43/Add/y", "op": "Const", "attr": {"value": {"tensor": {"dtype": "DT_FLOAT", "tensorShape": {"dim": [{"size": "16"}]}}}, "dtype": {"type": "DT_FLOAT"}}}, {"name": "model/conv2d_30/Conv2D/ReadVariableOp", "op": "Const", "attr": {"value": {"tensor": {"dtype": "DT_FLOAT", "tensorShape": {"dim": [{"size": "1"}, {"size": "1"}, {"size": "16"}, {"size": "16"}]}}}, "dtype": {"type": "DT_FLOAT"}}}, {"name": "model/depthwise_conv2d_17/depthwise/ReadVariableOp", "op": "Const", "attr": {"dtype": {"type": "DT_FLOAT"}, "value": {"tensor": {"dtype": "DT_FLOAT", "tensorShape": {"dim": [{"size": "3"}, {"size": "3"}, {"size": "16"}, {"size": "1"}]}}}}}, {"name": "model/tf.math.add_44/Add/y", "op": "Const", "attr": {"value": {"tensor": {"dtype": "DT_FLOAT", "tensorShape": {"dim": [{"size": "16"}]}}}, "dtype": {"type": "DT_FLOAT"}}}, {"name": "model/conv2d_31/Conv2D/ReadVariableOp", "op": "Const", "attr": {"value": {"tensor": {"dtype": "DT_FLOAT", "tensorShape": {"dim": [{"size": "1"}, {"size": "1"}, {"size": "16"}, {"size": "16"}]}}}, "dtype": {"type": "DT_FLOAT"}}}, {"name": "model/depthwise_conv2d_18/depthwise/ReadVariableOp", "op": "Const", "attr": {"value": {"tensor": {"dtype": "DT_FLOAT", "tensorShape": {"dim": [{"size": "3"}, {"size": "3"}, {"size": "16"}, {"size": "1"}]}}}, "dtype": {"type": "DT_FLOAT"}}}, {"name": "model/tf.math.add_45/Add/y", "op": "Const", "attr": {"dtype": {"type": "DT_FLOAT"}, "value": {"tensor": {"dtype": "DT_FLOAT", "tensorShape": {"dim": [{"size": "16"}]}}}}}, {"name": "model/conv2d_32/Conv2D/ReadVariableOp", "op": "Const", "attr": {"value": {"tensor": {"dtype": "DT_FLOAT", "tensorShape": {"dim": [{"size": "1"}, {"size": "1"}, {"size": "16"}, {"size": "16"}]}}}, "dtype": {"type": "DT_FLOAT"}}}, {"name": "model/depthwise_conv2d_19/depthwise/ReadVariableOp", "op": "Const", "attr": {"dtype": {"type": "DT_FLOAT"}, "value": {"tensor": {"dtype": "DT_FLOAT", "tensorShape": {"dim": [{"size": "3"}, {"size": "3"}, {"size": "16"}, {"size": "1"}]}}}}}, {"name": "model/tf.math.add_46/Add/y", "op": "Const", "attr": {"value": {"tensor": {"dtype": "DT_FLOAT", "tensorShape": {"dim": [{"size": "16"}]}}}, "dtype": {"type": "DT_FLOAT"}}}, {"name": "model/conv2d_33/Conv2D/ReadVariableOp", "op": "Const", "attr": {"value": {"tensor": {"dtype": "DT_FLOAT", "tensorShape": {"dim": [{"size": "1"}, {"size": "1"}, {"size": "16"}, {"size": "64"}]}}}, "dtype": {"type": "DT_FLOAT"}}}, {"name": "model/tf.math.add_50/Add/y", "op": "Const", "attr": {"dtype": {"type": "DT_FLOAT"}, "value": {"tensor": {"dtype": "DT_FLOAT", "tensorShape": {"dim": [{"size": "64"}]}}}}}, {"name": "model/conv2d_2/Conv2D/ReadVariableOp", "op": "Const", "attr": {"dtype": {"type": "DT_FLOAT"}, "value": {"tensor": {"dtype": "DT_FLOAT", "tensorShape": {"dim": [{"size": "1"}, {"size": "1"}, {"size": "16"}, {"size": "16"}]}}}}}, {"name": "model/depthwise_conv2d/depthwise/ReadVariableOp", "op": "Const", "attr": {"dtype": {"type": "DT_FLOAT"}, "value": {"tensor": {"dtype": "DT_FLOAT", "tensorShape": {"dim": [{"size": "3"}, {"size": "3"}, {"size": "16"}, {"size": "1"}]}}}}}, {"name": "model/tf.math.add_4/Add/y", "op": "Const", "attr": {"dtype": {"type": "DT_FLOAT"}, "value": {"tensor": {"dtype": "DT_FLOAT", "tensorShape": {"dim": [{"size": "16"}]}}}}}, {"name": "model/tf.math.reduce_mean_6/Mean/reduction_indices", "op": "Const", "attr": {"value": {"tensor": {"dtype": "DT_INT32", "tensorShape": {"dim": [{"size": "2"}]}}}, "dtype": {"type": "DT_INT32"}}}, {"name": "model/conv2d_3/Conv2D/ReadVariableOp", "op": "Const", "attr": {"dtype": {"type": "DT_FLOAT"}, "value": {"tensor": {"dtype": "DT_FLOAT", "tensorShape": {"dim": [{"size": "1"}, {"size": "1"}, {"size": "16"}, {"size": "1"}]}}}}}, {"name": "model/tf.math.add_5/Add/y", "op": "Const", "attr": {"dtype": {"type": "DT_FLOAT"}, "value": {"tensor": {"dtype": "DT_FLOAT", "tensorShape": {"dim": [{"size": "1"}]}}}}}, {"name": "model/conv2d_4/Conv2D/ReadVariableOp", "op": "Const", "attr": {"dtype": {"type": "DT_FLOAT"}, "value": {"tensor": {"dtype": "DT_FLOAT", "tensorShape": {"dim": [{"size": "1"}, {"size": "1"}, {"size": "1"}, {"size": "16"}]}}}}}, {"name": "model/tf.math.add_6/Add/y", "op": "Const", "attr": {"value": {"tensor": {"dtype": "DT_FLOAT", "tensorShape": {"dim": [{"size": "16"}]}}}, "dtype": {"type": "DT_FLOAT"}}}, {"name": "model/conv2d_5/Conv2D/ReadVariableOp", "op": "Const", "attr": {"dtype": {"type": "DT_FLOAT"}, "value": {"tensor": {"dtype": "DT_FLOAT", "tensorShape": {"dim": [{"size": "1"}, {"size": "1"}, {"size": "16"}, {"size": "16"}]}}}}}, {"name": "model/depthwise_conv2d_1/depthwise/ReadVariableOp", "op": "Const", "attr": {"value": {"tensor": {"dtype": "DT_FLOAT", "tensorShape": {"dim": [{"size": "3"}, {"size": "3"}, {"size": "16"}, {"size": "1"}]}}}, "dtype": {"type": "DT_FLOAT"}}}, {"name": "model/tf.math.add_7/Add/y", "op": "Const", "attr": {"dtype": {"type": "DT_FLOAT"}, "value": {"tensor": {"dtype": "DT_FLOAT", "tensorShape": {"dim": [{"size": "16"}]}}}}}, {"name": "model/conv2d_6/Conv2D/ReadVariableOp", "op": "Const", "attr": {"value": {"tensor": {"dtype": "DT_FLOAT", "tensorShape": {"dim": [{"size": "1"}, {"size": "1"}, {"size": "16"}, {"size": "16"}]}}}, "dtype": {"type": "DT_FLOAT"}}}, {"name": "model/depthwise_conv2d_2/depthwise/ReadVariableOp", "op": "Const", "attr": {"dtype": {"type": "DT_FLOAT"}, "value": {"tensor": {"dtype": "DT_FLOAT", "tensorShape": {"dim": [{"size": "3"}, {"size": "3"}, {"size": "16"}, {"size": "1"}]}}}}}, {"name": "model/tf.math.add_8/Add/y", "op": "Const", "attr": {"value": {"tensor": {"dtype": "DT_FLOAT", "tensorShape": {"dim": [{"size": "16"}]}}}, "dtype": {"type": "DT_FLOAT"}}}, {"name": "model/tf.math.reduce_mean_7/Mean/reduction_indices", "op": "Const", "attr": {"value": {"tensor": {"dtype": "DT_INT32", "tensorShape": {"dim": [{"size": "2"}]}}}, "dtype": {"type": "DT_INT32"}}}, {"name": "model/conv2d_7/Conv2D/ReadVariableOp", "op": "Const", "attr": {"value": {"tensor": {"dtype": "DT_FLOAT", "tensorShape": {"dim": [{"size": "1"}, {"size": "1"}, {"size": "16"}, {"size": "1"}]}}}, "dtype": {"type": "DT_FLOAT"}}}, {"name": "model/tf.math.add_9/Add/y", "op": "Const", "attr": {"value": {"tensor": {"dtype": "DT_FLOAT", "tensorShape": {"dim": [{"size": "1"}]}}}, "dtype": {"type": "DT_FLOAT"}}}, {"name": "model/conv2d_8/Conv2D/ReadVariableOp", "op": "Const", "attr": {"dtype": {"type": "DT_FLOAT"}, "value": {"tensor": {"dtype": "DT_FLOAT", "tensorShape": {"dim": [{"size": "1"}, {"size": "1"}, {"size": "1"}, {"size": "16"}]}}}}}, {"name": "model/tf.math.add_10/Add/y", "op": "Const", "attr": {"value": {"tensor": {"dtype": "DT_FLOAT", "tensorShape": {"dim": [{"size": "16"}]}}}, "dtype": {"type": "DT_FLOAT"}}}, {"name": "model/conv2d_9/Conv2D/ReadVariableOp", "op": "Const", "attr": {"value": {"tensor": {"dtype": "DT_FLOAT", "tensorShape": {"dim": [{"size": "1"}, {"size": "1"}, {"size": "16"}, {"size": "16"}]}}}, "dtype": {"type": "DT_FLOAT"}}}, {"name": "model/depthwise_conv2d_3/depthwise/ReadVariableOp", "op": "Const", "attr": {"value": {"tensor": {"dtype": "DT_FLOAT", "tensorShape": {"dim": [{"size": "3"}, {"size": "3"}, {"size": "16"}, {"size": "1"}]}}}, "dtype": {"type": "DT_FLOAT"}}}, {"name": "model/tf.math.add_12/Add/y", "op": "Const", "attr": {"value": {"tensor": {"dtype": "DT_FLOAT", "tensorShape": {"dim": [{"size": "16"}]}}}, "dtype": {"type": "DT_FLOAT"}}}, {"name": "model/conv2d_10/Conv2D/ReadVariableOp", "op": "Const", "attr": {"dtype": {"type": "DT_FLOAT"}, "value": {"tensor": {"dtype": "DT_FLOAT", "tensorShape": {"dim": [{"size": "1"}, {"size": "1"}, {"size": "16"}, {"size": "16"}]}}}}}, {"name": "model/depthwise_conv2d_4/depthwise/ReadVariableOp", "op": "Const", "attr": {"dtype": {"type": "DT_FLOAT"}, "value": {"tensor": {"dtype": "DT_FLOAT", "tensorShape": {"dim": [{"size": "3"}, {"size": "3"}, {"size": "16"}, {"size": "1"}]}}}}}, {"name": "model/tf.math.add_13/Add/y", "op": "Const", "attr": {"dtype": {"type": "DT_FLOAT"}, "value": {"tensor": {"dtype": "DT_FLOAT", "tensorShape": {"dim": [{"size": "16"}]}}}}}, {"name": "model/conv2d_11/Conv2D/ReadVariableOp", "op": "Const", "attr": {"dtype": {"type": "DT_FLOAT"}, "value": {"tensor": {"dtype": "DT_FLOAT", "tensorShape": {"dim": [{"size": "1"}, {"size": "1"}, {"size": "16"}, {"size": "16"}]}}}}}, {"name": "model/depthwise_conv2d_5/depthwise/ReadVariableOp", "op": "Const", "attr": {"dtype": {"type": "DT_FLOAT"}, "value": {"tensor": {"dtype": "DT_FLOAT", "tensorShape": {"dim": [{"size": "3"}, {"size": "3"}, {"size": "16"}, {"size": "1"}]}}}}}, {"name": "model/tf.math.add_14/Add/y", "op": "Const", "attr": {"dtype": {"type": "DT_FLOAT"}, "value": {"tensor": {"dtype": "DT_FLOAT", "tensorShape": {"dim": [{"size": "16"}]}}}}}, {"name": "model/tf.math.reduce_mean_8/Mean/reduction_indices", "op": "Const", "attr": {"value": {"tensor": {"dtype": "DT_INT32", "tensorShape": {"dim": [{"size": "2"}]}}}, "dtype": {"type": "DT_INT32"}}}, {"name": "model/conv2d_12/Conv2D/ReadVariableOp", "op": "Const", "attr": {"dtype": {"type": "DT_FLOAT"}, "value": {"tensor": {"dtype": "DT_FLOAT", "tensorShape": {"dim": [{"size": "1"}, {"size": "1"}, {"size": "16"}, {"size": "1"}]}}}}}, {"name": "model/tf.math.add_15/Add/y", "op": "Const", "attr": {"dtype": {"type": "DT_FLOAT"}, "value": {"tensor": {"dtype": "DT_FLOAT", "tensorShape": {"dim": [{"size": "1"}]}}}}}, {"name": "model/conv2d_13/Conv2D/ReadVariableOp", "op": "Const", "attr": {"value": {"tensor": {"dtype": "DT_FLOAT", "tensorShape": {"dim": [{"size": "1"}, {"size": "1"}, {"size": "1"}, {"size": "16"}]}}}, "dtype": {"type": "DT_FLOAT"}}}, {"name": "model/tf.math.add_16/Add/y", "op": "Const", "attr": {"dtype": {"type": "DT_FLOAT"}, "value": {"tensor": {"dtype": "DT_FLOAT", "tensorShape": {"dim": [{"size": "16"}]}}}}}, {"name": "model/conv2d_1/Conv2D/ReadVariableOp", "op": "Const", "attr": {"dtype": {"type": "DT_FLOAT"}, "value": {"tensor": {"dtype": "DT_FLOAT", "tensorShape": {"dim": [{"size": "1"}, {"size": "1"}, {"size": "16"}, {"size": "16"}]}}}}}, {"name": "model/tf.math.add_3/Add/y", "op": "Const", "attr": {"dtype": {"type": "DT_FLOAT"}, "value": {"tensor": {"dtype": "DT_FLOAT", "tensorShape": {"dim": [{"size": "16"}]}}}}}, {"name": "model/conv2d_14/Conv2D/ReadVariableOp", "op": "Const", "attr": {"dtype": {"type": "DT_FLOAT"}, "value": {"tensor": {"dtype": "DT_FLOAT", "tensorShape": {"dim": [{"size": "1"}, {"size": "1"}, {"size": "16"}, {"size": "16"}]}}}}}, {"name": "model/depthwise_conv2d_6/depthwise/ReadVariableOp", "op": "Const", "attr": {"value": {"tensor": {"dtype": "DT_FLOAT", "tensorShape": {"dim": [{"size": "3"}, {"size": "3"}, {"size": "16"}, {"size": "1"}]}}}, "dtype": {"type": "DT_FLOAT"}}}, {"name": "model/tf.math.add_18/Add/y", "op": "Const", "attr": {"dtype": {"type": "DT_FLOAT"}, "value": {"tensor": {"dtype": "DT_FLOAT", "tensorShape": {"dim": [{"size": "16"}]}}}}}, {"name": "model/conv2d_15/Conv2D/ReadVariableOp", "op": "Const", "attr": {"value": {"tensor": {"dtype": "DT_FLOAT", "tensorShape": {"dim": [{"size": "1"}, {"size": "1"}, {"size": "16"}, {"size": "16"}]}}}, "dtype": {"type": "DT_FLOAT"}}}, {"name": "model/depthwise_conv2d_7/depthwise/ReadVariableOp", "op": "Const", "attr": {"dtype": {"type": "DT_FLOAT"}, "value": {"tensor": {"dtype": "DT_FLOAT", "tensorShape": {"dim": [{"size": "3"}, {"size": "3"}, {"size": "16"}, {"size": "1"}]}}}}}, {"name": "model/tf.math.add_19/Add/y", "op": "Const", "attr": {"dtype": {"type": "DT_FLOAT"}, "value": {"tensor": {"dtype": "DT_FLOAT", "tensorShape": {"dim": [{"size": "16"}]}}}}}, {"name": "model/conv2d_16/Conv2D/ReadVariableOp", "op": "Const", "attr": {"dtype": {"type": "DT_FLOAT"}, "value": {"tensor": {"dtype": "DT_FLOAT", "tensorShape": {"dim": [{"size": "1"}, {"size": "1"}, {"size": "16"}, {"size": "16"}]}}}}}, {"name": "model/depthwise_conv2d_8/depthwise/ReadVariableOp", "op": "Const", "attr": {"dtype": {"type": "DT_FLOAT"}, "value": {"tensor": {"dtype": "DT_FLOAT", "tensorShape": {"dim": [{"size": "3"}, {"size": "3"}, {"size": "16"}, {"size": "1"}]}}}}}, {"name": "model/tf.math.add_20/Add/y", "op": "Const", "attr": {"value": {"tensor": {"dtype": "DT_FLOAT", "tensorShape": {"dim": [{"size": "16"}]}}}, "dtype": {"type": "DT_FLOAT"}}}, {"name": "model/conv2d_17/Conv2D/ReadVariableOp", "op": "Const", "attr": {"value": {"tensor": {"dtype": "DT_FLOAT", "tensorShape": {"dim": [{"size": "1"}, {"size": "1"}, {"size": "16"}, {"size": "16"}]}}}, "dtype": {"type": "DT_FLOAT"}}}, {"name": "model/depthwise_conv2d_9/depthwise/ReadVariableOp", "op": "Const", "attr": {"dtype": {"type": "DT_FLOAT"}, "value": {"tensor": {"dtype": "DT_FLOAT", "tensorShape": {"dim": [{"size": "3"}, {"size": "3"}, {"size": "16"}, {"size": "1"}]}}}}}, {"name": "model/tf.math.add_21/Add/y", "op": "Const", "attr": {"dtype": {"type": "DT_FLOAT"}, "value": {"tensor": {"dtype": "DT_FLOAT", "tensorShape": {"dim": [{"size": "16"}]}}}}}, {"name": "model/tf.math.reduce_mean_9/Mean/reduction_indices", "op": "Const", "attr": {"value": {"tensor": {"dtype": "DT_INT32", "tensorShape": {"dim": [{"size": "2"}]}}}, "dtype": {"type": "DT_INT32"}}}, {"name": "model/conv2d_18/Conv2D/ReadVariableOp", "op": "Const", "attr": {"dtype": {"type": "DT_FLOAT"}, "value": {"tensor": {"dtype": "DT_FLOAT", "tensorShape": {"dim": [{"size": "1"}, {"size": "1"}, {"size": "16"}, {"size": "1"}]}}}}}, {"name": "model/tf.math.add_22/Add/y", "op": "Const", "attr": {"dtype": {"type": "DT_FLOAT"}, "value": {"tensor": {"dtype": "DT_FLOAT", "tensorShape": {"dim": [{"size": "1"}]}}}}}, {"name": "model/conv2d_19/Conv2D/ReadVariableOp", "op": "Const", "attr": {"value": {"tensor": {"dtype": "DT_FLOAT", "tensorShape": {"dim": [{"size": "1"}, {"size": "1"}, {"size": "1"}, {"size": "16"}]}}}, "dtype": {"type": "DT_FLOAT"}}}, {"name": "model/tf.math.add_23/Add/y", "op": "Const", "attr": {"value": {"tensor": {"dtype": "DT_FLOAT", "tensorShape": {"dim": [{"size": "16"}]}}}, "dtype": {"type": "DT_FLOAT"}}}, {"name": "model/conv2d_20/Conv2D/ReadVariableOp", "op": "Const", "attr": {"value": {"tensor": {"dtype": "DT_FLOAT", "tensorShape": {"dim": [{"size": "1"}, {"size": "1"}, {"size": "16"}, {"size": "64"}]}}}, "dtype": {"type": "DT_FLOAT"}}}, {"name": "model/tf.math.add_25/Add/y", "op": "Const", "attr": {"value": {"tensor": {"dtype": "DT_FLOAT", "tensorShape": {"dim": [{"size": "64"}]}}}, "dtype": {"type": "DT_FLOAT"}}}, {"name": "model/tf.math.reduce_mean_4/Const", "op": "Const", "attr": {"dtype": {"type": "DT_INT32"}, "value": {"tensor": {"dtype": "DT_INT32", "tensorShape": {"dim": [{"size": "4"}]}}}}}, {"name": "model/tf.math.reduce_mean_5/Const", "op": "Const", "attr": {"value": {"tensor": {"dtype": "DT_INT32", "tensorShape": {"dim": [{"size": "4"}]}}}, "dtype": {"type": "DT_INT32"}}}, {"name": "model/tf.__operators__.add_1/y", "op": "Const", "attr": {"dtype": {"type": "DT_FLOAT"}, "value": {"tensor": {"dtype": "DT_FLOAT", "tensorShape": {}}}}}, {"name": "model/tf.math.multiply_2/Mul/y", "op": "Const", "attr": {"value": {"tensor": {"dtype": "DT_FLOAT", "tensorShape": {"dim": [{"size": "1"}, {"size": "1"}, {"size": "1"}, {"size": "16"}]}}}, "dtype": {"type": "DT_FLOAT"}}}, {"name": "model/tf.math.reduce_mean/Const", "op": "Const", "attr": {"value": {"tensor": {"dtype": "DT_INT32", "tensorShape": {"dim": [{"size": "4"}]}}}, "dtype": {"type": "DT_INT32"}}}, {"name": "model/tf.math.multiply_1/Mul/y", "op": "Const", "attr": {"dtype": {"type": "DT_FLOAT"}, "value": {"tensor": {"dtype": "DT_FLOAT", "tensorShape": {"dim": [{"size": "1"}, {"size": "1"}, {"size": "1"}, {"size": "3"}]}}}}}, {"name": "model/lambda/Split/split_dim", "op": "Const", "attr": {"value": {"tensor": {"dtype": "DT_INT32", "tensorShape": {}}}, "dtype": {"type": "DT_INT32"}}}, {"name": "model/tf.concat/concat/axis", "op": "Const", "attr": {"dtype": {"type": "DT_INT32"}, "value": {"tensor": {"dtype": "DT_INT32", "tensorShape": {}}}}}, {"name": "model/tf.math.multiply/Mul/y", "op": "Const", "attr": {"value": {"tensor": {"dtype": "DT_FLOAT", "tensorShape": {"dim": [{"size": "1"}, {"size": "1"}, {"size": "1"}, {"size": "3"}]}}}, "dtype": {"type": "DT_FLOAT"}}}, {"name": "model/tf.math.add/Add/y", "op": "Const", "attr": {"dtype": {"type": "DT_FLOAT"}, "value": {"tensor": {"dtype": "DT_FLOAT", "tensorShape": {"dim": [{"size": "3"}]}}}}}, {"name": "model/tf.math.reduce_mean_1/Const", "op": "Const", "attr": {"value": {"tensor": {"dtype": "DT_INT32", "tensorShape": {"dim": [{"size": "4"}]}}}, "dtype": {"type": "DT_INT32"}}}, {"name": "model/tf.math.reduce_mean_2/Const", "op": "Const", "attr": {"dtype": {"type": "DT_INT32"}, "value": {"tensor": {"dtype": "DT_INT32", "tensorShape": {"dim": [{"size": "4"}]}}}}}, {"name": "model/tf.__operators__.add/y", "op": "Const", "attr": {"value": {"tensor": {"dtype": "DT_FLOAT", "tensorShape": {}}}, "dtype": {"type": "DT_FLOAT"}}}, {"name": "model/tf.math.add_1/Add/y", "op": "Const", "attr": {"dtype": {"type": "DT_FLOAT"}, "value": {"tensor": {"dtype": "DT_FLOAT", "tensorShape": {"dim": [{"size": "3"}]}}}}}, {"name": "model/conv2d/Conv2D/ReadVariableOp", "op": "Const", "attr": {"value": {"tensor": {"dtype": "DT_FLOAT", "tensorShape": {"dim": [{"size": "7"}, {"size": "7"}, {"size": "3"}, {"size": "16"}]}}}, "dtype": {"type": "DT_FLOAT"}}}, {"name": "model/tf.math.reduce_mean_3/Const", "op": "Const", "attr": {"dtype": {"type": "DT_INT32"}, "value": {"tensor": {"dtype": "DT_INT32", "tensorShape": {"dim": [{"size": "4"}]}}}}}, {"name": "model/tf.math.add_2/Add/y", "op": "Const", "attr": {"value": {"tensor": {"dtype": "DT_FLOAT", "tensorShape": {"dim": [{"size": "16"}]}}}, "dtype": {"type": "DT_FLOAT"}}}, {"name": "model/conv2d_21/Conv2D/ReadVariableOp", "op": "Const", "attr": {"dtype": {"type": "DT_FLOAT"}, "value": {"tensor": {"dtype": "DT_FLOAT", "tensorShape": {"dim": [{"size": "1"}, {"size": "1"}, {"size": "16"}, {"size": "64"}]}}}}}, {"name": "model/tf.math.add_26/Add/y", "op": "Const", "attr": {"dtype": {"type": "DT_FLOAT"}, "value": {"tensor": {"dtype": "DT_FLOAT", "tensorShape": {"dim": [{"size": "64"}]}}}}}, {"name": "model/conv2d_34/Conv2D/ReadVariableOp", "op": "Const", "attr": {"dtype": {"type": "DT_FLOAT"}, "value": {"tensor": {"dtype": "DT_FLOAT", "tensorShape": {"dim": [{"size": "1"}, {"size": "1"}, {"size": "64"}, {"size": "64"}]}}}}}, {"name": "model/tf.math.add_52/Add/y", "op": "Const", "attr": {"value": {"tensor": {"dtype": "DT_FLOAT", "tensorShape": {"dim": [{"size": "64"}]}}}, "dtype": {"type": "DT_FLOAT"}}}, {"name": "model/conv2d_55/Conv2D/ReadVariableOp", "op": "Const", "attr": {"value": {"tensor": {"dtype": "DT_FLOAT", "tensorShape": {"dim": [{"size": "1"}, {"size": "1"}, {"size": "64"}, {"size": "96"}]}}}, "dtype": {"type": "DT_FLOAT"}}}, {"name": "model/tf.math.add_76/Add/y", "op": "Const", "attr": {"value": {"tensor": {"dtype": "DT_FLOAT", "tensorShape": {"dim": [{"size": "96"}]}}}, "dtype": {"type": "DT_FLOAT"}}}, {"name": "model/conv2d_68/Conv2D/ReadVariableOp", "op": "Const", "attr": {"dtype": {"type": "DT_FLOAT"}, "value": {"tensor": {"dtype": "DT_FLOAT", "tensorShape": {"dim": [{"size": "1"}, {"size": "1"}, {"size": "96"}, {"size": "96"}]}}}}}, {"name": "model/tf.math.add_102/Add/y", "op": "Const", "attr": {"dtype": {"type": "DT_FLOAT"}, "value": {"tensor": {"dtype": "DT_FLOAT", "tensorShape": {"dim": [{"size": "96"}]}}}}}, {"name": "model/conv2d_89/Conv2D/ReadVariableOp", "op": "Const", "attr": {"value": {"tensor": {"dtype": "DT_FLOAT", "tensorShape": {"dim": [{"size": "1"}, {"size": "1"}, {"size": "96"}, {"size": "128"}]}}}, "dtype": {"type": "DT_FLOAT"}}}, {"name": "model/tf.math.add_126/Add/y", "op": "Const", "attr": {"dtype": {"type": "DT_FLOAT"}, "value": {"tensor": {"dtype": "DT_FLOAT", "tensorShape": {"dim": [{"size": "128"}]}}}}}, {"name": "model/conv2d_102/Conv2D/ReadVariableOp", "op": "Const", "attr": {"value": {"tensor": {"dtype": "DT_FLOAT", "tensorShape": {"dim": [{"size": "1"}, {"size": "1"}, {"size": "128"}, {"size": "128"}]}}}, "dtype": {"type": "DT_FLOAT"}}}, {"name": "model/tf.math.add_152/Add/y", "op": "Const", "attr": {"dtype": {"type": "DT_FLOAT"}, "value": {"tensor": {"dtype": "DT_FLOAT", "tensorShape": {"dim": [{"size": "128"}]}}}}}, {"name": "model/depthwise_conv2d_60/depthwise/ReadVariableOp", "op": "Const", "attr": {"dtype": {"type": "DT_FLOAT"}, "value": {"tensor": {"dtype": "DT_FLOAT", "tensorShape": {"dim": [{"size": "16"}, {"size": "8"}, {"size": "128"}, {"size": "1"}]}}}}}, {"name": "model/tf.math.add_153/Add/y", "op": "Const", "attr": {"value": {"tensor": {"dtype": "DT_FLOAT", "tensorShape": {"dim": [{"size": "128"}]}}}, "dtype": {"type": "DT_FLOAT"}}}, {"name": "model/tf.reshape_24/Reshape/shape", "op": "Const", "attr": {"value": {"tensor": {"dtype": "DT_INT64", "tensorShape": {"dim": [{"size": "2"}]}}}, "dtype": {"type": "DT_INT64"}}}, {"name": "model/tf.linalg.matmul/MatMul/b", "op": "Const", "attr": {"value": {"tensor": {"dtype": "DT_FLOAT", "tensorShape": {"dim": [{"size": "256"}, {"size": "128"}]}}}, "dtype": {"type": "DT_FLOAT"}}}, {"name": "model/tf.math.add_154/Add/y", "op": "Const", "attr": {"dtype": {"type": "DT_FLOAT"}, "value": {"tensor": {"dtype": "DT_FLOAT", "tensorShape": {"dim": [{"size": "256"}]}}}}}, {"name": "model/tf.reshape_25/Reshape/shape", "op": "Const", "attr": {"dtype": {"type": "DT_INT64"}, "value": {"tensor": {"dtype": "DT_INT64", "tensorShape": {"dim": [{"size": "3"}]}}}}}, {"name": "model/tf.math.multiply_51/Mul/y", "op": "Const", "attr": {"value": {"tensor": {"dtype": "DT_FLOAT", "tensorShape": {"dim": [{"size": "1"}, {"size": "256"}, {"size": "1"}]}}}, "dtype": {"type": "DT_FLOAT"}}}, {"name": "model/tf.math.add_155/Add/y", "op": "Const", "attr": {"dtype": {"type": "DT_FLOAT"}, "value": {"tensor": {"dtype": "DT_FLOAT", "tensorShape": {"dim": [{"size": "1"}, {"size": "256"}, {"size": "1"}]}}}}}, {"name": "model/tf.reshape_26/Reshape/shape", "op": "Const", "attr": {"value": {"tensor": {"dtype": "DT_INT64", "tensorShape": {"dim": [{"size": "2"}]}}}, "dtype": {"type": "DT_INT64"}}}, {"name": "inputs", "op": "Placeholder", "attr": {"shape": {"shape": {"dim": [{"size": "1"}, {"size": "256"}, {"size": "128"}, {"size": "3"}]}}, "dtype": {"type": "DT_FLOAT"}}}, {"name": "model/lambda/Split", "op": "Split", "input": ["model/lambda/Split/split_dim", "inputs"], "attr": {"num_split": {"i": "3"}, "T": {"type": "DT_FLOAT"}}}, {"name": "model/tf.concat/concat", "op": "ConcatV2", "input": ["model/lambda/Split:2", "model/lambda/Split:1", "model/lambda/Split", "model/tf.concat/concat/axis"], "attr": {"Tidx": {"type": "DT_INT32"}, "N": {"i": "3"}, "T": {"type": "DT_FLOAT"}}}, {"name": "model/tf.math.multiply/Mul", "op": "Mul", "input": ["model/tf.concat/concat", "model/tf.math.multiply/Mul/y"], "attr": {"T": {"type": "DT_FLOAT"}}}, {"name": "model/tf.math.add/Add", "op": "Add", "input": ["model/tf.math.multiply/Mul", "model/tf.math.add/Add/y"], "attr": {"T": {"type": "DT_FLOAT"}}}, {"name": "model/tf.math.reduce_mean/Mean", "op": "Mean", "input": ["model/tf.math.add/Add", "model/tf.math.reduce_mean/Const"], "attr": {"keep_dims": {"b": true}, "T": {"type": "DT_FLOAT"}, "Tidx": {"type": "DT_INT32"}}}, {"name": "model/tf.math.reduce_mean_1/Mean", "op": "Mean", "input": ["model/tf.math.add/Add", "model/tf.math.reduce_mean_1/Const"], "attr": {"keep_dims": {"b": true}, "T": {"type": "DT_FLOAT"}, "Tidx": {"type": "DT_INT32"}}}, {"name": "model/tf.math.subtract_1/Sub", "op": "Sub", "input": ["model/tf.math.add/Add", "model/tf.math.reduce_mean/Mean"], "attr": {"T": {"type": "DT_FLOAT"}}}, {"name": "model/tf.math.subtract/Sub", "op": "SquaredDifference", "input": ["model/tf.math.add/Add", "model/tf.math.reduce_mean_1/Mean"], "attr": {"T": {"type": "DT_FLOAT"}}}, {"name": "model/tf.math.reduce_mean_2/Mean", "op": "Mean", "input": ["model/tf.math.subtract/Sub", "model/tf.math.reduce_mean_2/Const"], "attr": {"keep_dims": {"b": true}, "Tidx": {"type": "DT_INT32"}, "T": {"type": "DT_FLOAT"}}}, {"name": "model/tf.__operators__.add/AddV2", "op": "AddV2", "input": ["model/tf.math.reduce_mean_2/Mean", "model/tf.__operators__.add/y"], "attr": {"T": {"type": "DT_FLOAT"}}}, {"name": "model/tf.math.sqrt/Sqrt", "op": "Rsqrt", "input": ["model/tf.__operators__.add/AddV2"], "attr": {"T": {"type": "DT_FLOAT"}}}, {"name": "model/tf.math.truediv/truediv", "op": "Mul", "input": ["model/tf.math.multiply_1/Mul/y", "model/tf.math.sqrt/Sqrt"], "attr": {"T": {"type": "DT_FLOAT"}}}, {"name": "model/tf.math.multiply_1/Mul", "op": "Mul", "input": ["model/tf.math.subtract_1/Sub", "model/tf.math.truediv/truediv"], "attr": {"T": {"type": "DT_FLOAT"}}}, {"name": "model/tf.math.add_1/Add", "op": "Add", "input": ["model/tf.math.multiply_1/Mul", "model/tf.math.add_1/Add/y"], "attr": {"T": {"type": "DT_FLOAT"}}}, {"name": "model/conv2d/Conv2D", "op": "Conv2D", "input": ["model/tf.math.add_1/Add", "model/conv2d/Conv2D/ReadVariableOp"], "device": "/device:CPU:0", "attr": {"data_format": {"s": "TkhXQw=="}, "explicit_paddings": {"list": {}}, "dilations": {"list": {"i": ["1", "1", "1", "1"]}}, "use_cudnn_on_gpu": {"b": true}, "strides": {"list": {"i": ["1", "2", "2", "1"]}}, "T": {"type": "DT_FLOAT"}, "padding": {"s": "U0FNRQ=="}}}, {"name": "model/tf.math.reduce_mean_4/Mean", "op": "Mean", "input": ["model/conv2d/Conv2D", "model/tf.math.reduce_mean_4/Const"], "attr": {"Tidx": {"type": "DT_INT32"}, "T": {"type": "DT_FLOAT"}, "keep_dims": {"b": true}}}, {"name": "model/tf.math.reduce_mean_3/Mean", "op": "Mean", "input": ["model/conv2d/Conv2D", "model/tf.math.reduce_mean_3/Const"], "attr": {"Tidx": {"type": "DT_INT32"}, "keep_dims": {"b": true}, "T": {"type": "DT_FLOAT"}}}, {"name": "model/tf.math.subtract_2/Sub", "op": "SquaredDifference", "input": ["model/conv2d/Conv2D", "model/tf.math.reduce_mean_4/Mean"], "attr": {"T": {"type": "DT_FLOAT"}}}, {"name": "model/tf.math.subtract_3/Sub", "op": "Sub", "input": ["model/conv2d/Conv2D", "model/tf.math.reduce_mean_3/Mean"], "attr": {"T": {"type": "DT_FLOAT"}}}, {"name": "model/tf.math.reduce_mean_5/Mean", "op": "Mean", "input": ["model/tf.math.subtract_2/Sub", "model/tf.math.reduce_mean_5/Const"], "attr": {"keep_dims": {"b": true}, "Tidx": {"type": "DT_INT32"}, "T": {"type": "DT_FLOAT"}}}, {"name": "model/tf.__operators__.add_1/AddV2", "op": "AddV2", "input": ["model/tf.math.reduce_mean_5/Mean", "model/tf.__operators__.add_1/y"], "attr": {"T": {"type": "DT_FLOAT"}}}, {"name": "model/tf.math.sqrt_1/Sqrt", "op": "Rsqrt", "input": ["model/tf.__operators__.add_1/AddV2"], "attr": {"T": {"type": "DT_FLOAT"}}}, {"name": "model/tf.math.truediv_1/truediv", "op": "Mul", "input": ["model/tf.math.sqrt_1/Sqrt", "model/tf.math.multiply_2/Mul/y"], "attr": {"T": {"type": "DT_FLOAT"}, "_grappler_ArithmeticOptimizer_MinimizeBroadcasts": {"b": true}}}, {"name": "model/tf.math.multiply_2/Mul", "op": "Mul", "input": ["model/tf.math.truediv_1/truediv", "model/tf.math.subtract_3/Sub"], "attr": {"_grappler_ArithmeticOptimizer_MinimizeBroadcasts": {"b": true}, "T": {"type": "DT_FLOAT"}}}, {"name": "model/tf.math.add_2/Add", "op": "Add", "input": ["model/tf.math.multiply_2/Mul", "model/tf.math.add_2/Add/y"], "attr": {"T": {"type": "DT_FLOAT"}}}, {"name": "model/tf.nn.max_pool2d/MaxPool2d", "op": "MaxPool", "input": ["model/tf.math.add_2/Add"], "attr": {"explicit_paddings": {"list": {}}, "data_format": {"s": "TkhXQw=="}, "padding": {"s": "U0FNRQ=="}, "T": {"type": "DT_FLOAT"}, "ksize": {"list": {"i": ["1", "3", "3", "1"]}}, "strides": {"list": {"i": ["1", "2", "2", "1"]}}}}, {"name": "model/tf.nn.relu/Relu", "op": "Relu", "input": ["model/tf.nn.max_pool2d/MaxPool2d"], "attr": {"T": {"type": "DT_FLOAT"}}}, {"name": "model/conv2d_1/Conv2D", "op": "Conv2D", "input": ["model/tf.nn.relu/Relu", "model/conv2d_1/Conv2D/ReadVariableOp"], "device": "/device:CPU:0", "attr": {"explicit_paddings": {"list": {}}, "data_format": {"s": "TkhXQw=="}, "use_cudnn_on_gpu": {"b": true}, "dilations": {"list": {"i": ["1", "1", "1", "1"]}}, "T": {"type": "DT_FLOAT"}, "padding": {"s": "VkFMSUQ="}, "strides": {"list": {"i": ["1", "1", "1", "1"]}}}}, {"name": "model/conv2d_21/Conv2D", "op": "Conv2D", "input": ["model/tf.nn.relu/Relu", "model/conv2d_21/Conv2D/ReadVariableOp"], "device": "/device:CPU:0", "attr": {"T": {"type": "DT_FLOAT"}, "data_format": {"s": "TkhXQw=="}, "padding": {"s": "VkFMSUQ="}, "dilations": {"list": {"i": ["1", "1", "1", "1"]}}, "use_cudnn_on_gpu": {"b": true}, "explicit_paddings": {"list": {}}, "strides": {"list": {"i": ["1", "1", "1", "1"]}}}}, {"name": "model/tf.math.add_3/Add", "op": "Add", "input": ["model/conv2d_1/Conv2D", "model/tf.math.add_3/Add/y"], "attr": {"T": {"type": "DT_FLOAT"}}}, {"name": "model/tf.math.add_26/Add", "op": "Add", "input": ["model/conv2d_21/Conv2D", "model/tf.math.add_26/Add/y"], "attr": {"T": {"type": "DT_FLOAT"}}}, {"name": "model/tf.nn.relu_1/Relu", "op": "Relu", "input": ["model/tf.math.add_3/Add"], "attr": {"T": {"type": "DT_FLOAT"}}}, {"name": "model/conv2d_2/Conv2D", "op": "Conv2D", "input": ["model/tf.nn.relu_1/Relu", "model/conv2d_2/Conv2D/ReadVariableOp"], "device": "/device:CPU:0", "attr": {"explicit_paddings": {"list": {}}, "T": {"type": "DT_FLOAT"}, "strides": {"list": {"i": ["1", "1", "1", "1"]}}, "use_cudnn_on_gpu": {"b": true}, "dilations": {"list": {"i": ["1", "1", "1", "1"]}}, "data_format": {"s": "TkhXQw=="}, "padding": {"s": "VkFMSUQ="}}}, {"name": "model/conv2d_5/Conv2D", "op": "Conv2D", "input": ["model/tf.nn.relu_1/Relu", "model/conv2d_5/Conv2D/ReadVariableOp"], "device": "/device:CPU:0", "attr": {"explicit_paddings": {"list": {}}, "T": {"type": "DT_FLOAT"}, "use_cudnn_on_gpu": {"b": true}, "dilations": {"list": {"i": ["1", "1", "1", "1"]}}, "strides": {"list": {"i": ["1", "1", "1", "1"]}}, "padding": {"s": "VkFMSUQ="}, "data_format": {"s": "TkhXQw=="}}}, {"name": "model/conv2d_9/Conv2D", "op": "Conv2D", "input": ["model/tf.nn.relu_1/Relu", "model/conv2d_9/Conv2D/ReadVariableOp"], "device": "/device:CPU:0", "attr": {"use_cudnn_on_gpu": {"b": true}, "strides": {"list": {"i": ["1", "1", "1", "1"]}}, "data_format": {"s": "TkhXQw=="}, "dilations": {"list": {"i": ["1", "1", "1", "1"]}}, "explicit_paddings": {"list": {}}, "padding": {"s": "VkFMSUQ="}, "T": {"type": "DT_FLOAT"}}}, {"name": "model/conv2d_14/Conv2D", "op": "Conv2D", "input": ["model/tf.nn.relu_1/Relu", "model/conv2d_14/Conv2D/ReadVariableOp"], "device": "/device:CPU:0", "attr": {"padding": {"s": "VkFMSUQ="}, "explicit_paddings": {"list": {}}, "T": {"type": "DT_FLOAT"}, "dilations": {"list": {"i": ["1", "1", "1", "1"]}}, "data_format": {"s": "TkhXQw=="}, "strides": {"list": {"i": ["1", "1", "1", "1"]}}, "use_cudnn_on_gpu": {"b": true}}}, {"name": "model/depthwise_conv2d/depthwise", "op": "DepthwiseConv2dNative", "input": ["model/conv2d_2/Conv2D", "model/depthwise_conv2d/depthwise/ReadVariableOp"], "attr": {"data_format": {"s": "TkhXQw=="}, "strides": {"list": {"i": ["1", "1", "1", "1"]}}, "padding": {"s": "U0FNRQ=="}, "explicit_paddings": {"list": {}}, "dilations": {"list": {"i": ["1", "1", "1", "1"]}}, "T": {"type": "DT_FLOAT"}}}, {"name": "model/depthwise_conv2d_1/depthwise", "op": "DepthwiseConv2dNative", "input": ["model/conv2d_5/Conv2D", "model/depthwise_conv2d_1/depthwise/ReadVariableOp"], "attr": {"strides": {"list": {"i": ["1", "1", "1", "1"]}}, "padding": {"s": "U0FNRQ=="}, "data_format": {"s": "TkhXQw=="}, "dilations": {"list": {"i": ["1", "1", "1", "1"]}}, "T": {"type": "DT_FLOAT"}, "explicit_paddings": {"list": {}}}}, {"name": "model/depthwise_conv2d_3/depthwise", "op": "DepthwiseConv2dNative", "input": ["model/conv2d_9/Conv2D", "model/depthwise_conv2d_3/depthwise/ReadVariableOp"], "attr": {"dilations": {"list": {"i": ["1", "1", "1", "1"]}}, "data_format": {"s": "TkhXQw=="}, "padding": {"s": "U0FNRQ=="}, "T": {"type": "DT_FLOAT"}, "explicit_paddings": {"list": {}}, "strides": {"list": {"i": ["1", "1", "1", "1"]}}}}, {"name": "model/depthwise_conv2d_6/depthwise", "op": "DepthwiseConv2dNative", "input": ["model/conv2d_14/Conv2D", "model/depthwise_conv2d_6/depthwise/ReadVariableOp"], "attr": {"dilations": {"list": {"i": ["1", "1", "1", "1"]}}, "explicit_paddings": {"list": {}}, "strides": {"list": {"i": ["1", "1", "1", "1"]}}, "data_format": {"s": "TkhXQw=="}, "padding": {"s": "U0FNRQ=="}, "T": {"type": "DT_FLOAT"}}}, {"name": "model/tf.math.add_4/Add", "op": "Add", "input": ["model/depthwise_conv2d/depthwise", "model/tf.math.add_4/Add/y"], "attr": {"T": {"type": "DT_FLOAT"}}}, {"name": "model/tf.math.add_7/Add", "op": "Add", "input": ["model/depthwise_conv2d_1/depthwise", "model/tf.math.add_7/Add/y"], "attr": {"T": {"type": "DT_FLOAT"}}}, {"name": "model/tf.math.add_12/Add", "op": "Add", "input": ["model/depthwise_conv2d_3/depthwise", "model/tf.math.add_12/Add/y"], "attr": {"T": {"type": "DT_FLOAT"}}}, {"name": "model/tf.math.add_18/Add", "op": "Add", "input": ["model/depthwise_conv2d_6/depthwise", "model/tf.math.add_18/Add/y"], "attr": {"T": {"type": "DT_FLOAT"}}}, {"name": "model/tf.nn.relu_2/Relu", "op": "Relu", "input": ["model/tf.math.add_4/Add"], "attr": {"T": {"type": "DT_FLOAT"}}}, {"name": "model/tf.nn.relu_4/Relu", "op": "Relu", "input": ["model/tf.math.add_7/Add"], "attr": {"T": {"type": "DT_FLOAT"}}}, {"name": "model/tf.nn.relu_7/Relu", "op": "Relu", "input": ["model/tf.math.add_12/Add"], "attr": {"T": {"type": "DT_FLOAT"}}}, {"name": "model/tf.nn.relu_11/Relu", "op": "Relu", "input": ["model/tf.math.add_18/Add"], "attr": {"T": {"type": "DT_FLOAT"}}}, {"name": "model/tf.math.reduce_mean_6/Mean", "op": "Mean", "input": ["model/tf.nn.relu_2/Relu", "model/tf.math.reduce_mean_6/Mean/reduction_indices"], "attr": {"Tidx": {"type": "DT_INT32"}, "T": {"type": "DT_FLOAT"}, "keep_dims": {"b": true}}}, {"name": "model/conv2d_6/Conv2D", "op": "Conv2D", "input": ["model/tf.nn.relu_4/Relu", "model/conv2d_6/Conv2D/ReadVariableOp"], "device": "/device:CPU:0", "attr": {"padding": {"s": "VkFMSUQ="}, "T": {"type": "DT_FLOAT"}, "strides": {"list": {"i": ["1", "1", "1", "1"]}}, "data_format": {"s": "TkhXQw=="}, "dilations": {"list": {"i": ["1", "1", "1", "1"]}}, "explicit_paddings": {"list": {}}, "use_cudnn_on_gpu": {"b": true}}}, {"name": "model/conv2d_10/Conv2D", "op": "Conv2D", "input": ["model/tf.nn.relu_7/Relu", "model/conv2d_10/Conv2D/ReadVariableOp"], "device": "/device:CPU:0", "attr": {"T": {"type": "DT_FLOAT"}, "dilations": {"list": {"i": ["1", "1", "1", "1"]}}, "padding": {"s": "VkFMSUQ="}, "data_format": {"s": "TkhXQw=="}, "use_cudnn_on_gpu": {"b": true}, "strides": {"list": {"i": ["1", "1", "1", "1"]}}, "explicit_paddings": {"list": {}}}}, {"name": "model/conv2d_15/Conv2D", "op": "Conv2D", "input": ["model/tf.nn.relu_11/Relu", "model/conv2d_15/Conv2D/ReadVariableOp"], "device": "/device:CPU:0", "attr": {"dilations": {"list": {"i": ["1", "1", "1", "1"]}}, "T": {"type": "DT_FLOAT"}, "use_cudnn_on_gpu": {"b": true}, "explicit_paddings": {"list": {}}, "data_format": {"s": "TkhXQw=="}, "strides": {"list": {"i": ["1", "1", "1", "1"]}}, "padding": {"s": "VkFMSUQ="}}}, {"name": "model/conv2d_3/Conv2D", "op": "Conv2D", "input": ["model/tf.math.reduce_mean_6/Mean", "model/conv2d_3/Conv2D/ReadVariableOp"], "device": "/device:CPU:0", "attr": {"padding": {"s": "VkFMSUQ="}, "T": {"type": "DT_FLOAT"}, "use_cudnn_on_gpu": {"b": true}, "data_format": {"s": "TkhXQw=="}, "strides": {"list": {"i": ["1", "1", "1", "1"]}}, "explicit_paddings": {"list": {}}, "dilations": {"list": {"i": ["1", "1", "1", "1"]}}}}, {"name": "model/depthwise_conv2d_2/depthwise", "op": "DepthwiseConv2dNative", "input": ["model/conv2d_6/Conv2D", "model/depthwise_conv2d_2/depthwise/ReadVariableOp"], "attr": {"T": {"type": "DT_FLOAT"}, "dilations": {"list": {"i": ["1", "1", "1", "1"]}}, "padding": {"s": "U0FNRQ=="}, "strides": {"list": {"i": ["1", "1", "1", "1"]}}, "explicit_paddings": {"list": {}}, "data_format": {"s": "TkhXQw=="}}}, {"name": "model/depthwise_conv2d_4/depthwise", "op": "DepthwiseConv2dNative", "input": ["model/conv2d_10/Conv2D", "model/depthwise_conv2d_4/depthwise/ReadVariableOp"], "attr": {"data_format": {"s": "TkhXQw=="}, "strides": {"list": {"i": ["1", "1", "1", "1"]}}, "T": {"type": "DT_FLOAT"}, "dilations": {"list": {"i": ["1", "1", "1", "1"]}}, "padding": {"s": "U0FNRQ=="}, "explicit_paddings": {"list": {}}}}, {"name": "model/depthwise_conv2d_7/depthwise", "op": "DepthwiseConv2dNative", "input": ["model/conv2d_15/Conv2D", "model/depthwise_conv2d_7/depthwise/ReadVariableOp"], "attr": {"padding": {"s": "U0FNRQ=="}, "strides": {"list": {"i": ["1", "1", "1", "1"]}}, "explicit_paddings": {"list": {}}, "data_format": {"s": "TkhXQw=="}, "T": {"type": "DT_FLOAT"}, "dilations": {"list": {"i": ["1", "1", "1", "1"]}}}}, {"name": "model/tf.math.add_5/Add", "op": "Add", "input": ["model/conv2d_3/Conv2D", "model/tf.math.add_5/Add/y"], "attr": {"T": {"type": "DT_FLOAT"}}}, {"name": "model/tf.math.add_8/Add", "op": "Add", "input": ["model/depthwise_conv2d_2/depthwise", "model/tf.math.add_8/Add/y"], "attr": {"T": {"type": "DT_FLOAT"}}}, {"name": "model/tf.math.add_13/Add", "op": "Add", "input": ["model/depthwise_conv2d_4/depthwise", "model/tf.math.add_13/Add/y"], "attr": {"T": {"type": "DT_FLOAT"}}}, {"name": "model/tf.math.add_19/Add", "op": "Add", "input": ["model/depthwise_conv2d_7/depthwise", "model/tf.math.add_19/Add/y"], "attr": {"T": {"type": "DT_FLOAT"}}}, {"name": "model/tf.nn.relu_3/Relu", "op": "Relu", "input": ["model/tf.math.add_5/Add"], "attr": {"T": {"type": "DT_FLOAT"}}}, {"name": "model/tf.nn.relu_5/Relu", "op": "Relu", "input": ["model/tf.math.add_8/Add"], "attr": {"T": {"type": "DT_FLOAT"}}}, {"name": "model/tf.nn.relu_8/Relu", "op": "Relu", "input": ["model/tf.math.add_13/Add"], "attr": {"T": {"type": "DT_FLOAT"}}}, {"name": "model/tf.nn.relu_12/Relu", "op": "Relu", "input": ["model/tf.math.add_19/Add"], "attr": {"T": {"type": "DT_FLOAT"}}}, {"name": "model/conv2d_4/Conv2D", "op": "Conv2D", "input": ["model/tf.nn.relu_3/Relu", "model/conv2d_4/Conv2D/ReadVariableOp"], "device": "/device:CPU:0", "attr": {"dilations": {"list": {"i": ["1", "1", "1", "1"]}}, "T": {"type": "DT_FLOAT"}, "padding": {"s": "VkFMSUQ="}, "explicit_paddings": {"list": {}}, "use_cudnn_on_gpu": {"b": true}, "data_format": {"s": "TkhXQw=="}, "strides": {"list": {"i": ["1", "1", "1", "1"]}}}}, {"name": "model/tf.math.reduce_mean_7/Mean", "op": "Mean", "input": ["model/tf.nn.relu_5/Relu", "model/tf.math.reduce_mean_7/Mean/reduction_indices"], "attr": {"Tidx": {"type": "DT_INT32"}, "T": {"type": "DT_FLOAT"}, "keep_dims": {"b": true}}}, {"name": "model/conv2d_11/Conv2D", "op": "Conv2D", "input": ["model/tf.nn.relu_8/Relu", "model/conv2d_11/Conv2D/ReadVariableOp"], "device": "/device:CPU:0", "attr": {"strides": {"list": {"i": ["1", "1", "1", "1"]}}, "padding": {"s": "VkFMSUQ="}, "use_cudnn_on_gpu": {"b": true}, "T": {"type": "DT_FLOAT"}, "dilations": {"list": {"i": ["1", "1", "1", "1"]}}, "explicit_paddings": {"list": {}}, "data_format": {"s": "TkhXQw=="}}}, {"name": "model/conv2d_16/Conv2D", "op": "Conv2D", "input": ["model/tf.nn.relu_12/Relu", "model/conv2d_16/Conv2D/ReadVariableOp"], "device": "/device:CPU:0", "attr": {"padding": {"s": "VkFMSUQ="}, "use_cudnn_on_gpu": {"b": true}, "explicit_paddings": {"list": {}}, "dilations": {"list": {"i": ["1", "1", "1", "1"]}}, "T": {"type": "DT_FLOAT"}, "data_format": {"s": "TkhXQw=="}, "strides": {"list": {"i": ["1", "1", "1", "1"]}}}}, {"name": "model/tf.math.add_6/Add", "op": "Add", "input": ["model/conv2d_4/Conv2D", "model/tf.math.add_6/Add/y"], "attr": {"T": {"type": "DT_FLOAT"}}}, {"name": "model/conv2d_7/Conv2D", "op": "Conv2D", "input": ["model/tf.math.reduce_mean_7/Mean", "model/conv2d_7/Conv2D/ReadVariableOp"], "device": "/device:CPU:0", "attr": {"use_cudnn_on_gpu": {"b": true}, "dilations": {"list": {"i": ["1", "1", "1", "1"]}}, "T": {"type": "DT_FLOAT"}, "explicit_paddings": {"list": {}}, "padding": {"s": "VkFMSUQ="}, "data_format": {"s": "TkhXQw=="}, "strides": {"list": {"i": ["1", "1", "1", "1"]}}}}, {"name": "model/depthwise_conv2d_5/depthwise", "op": "DepthwiseConv2dNative", "input": ["model/conv2d_11/Conv2D", "model/depthwise_conv2d_5/depthwise/ReadVariableOp"], "attr": {"T": {"type": "DT_FLOAT"}, "padding": {"s": "U0FNRQ=="}, "dilations": {"list": {"i": ["1", "1", "1", "1"]}}, "data_format": {"s": "TkhXQw=="}, "strides": {"list": {"i": ["1", "1", "1", "1"]}}, "explicit_paddings": {"list": {}}}}, {"name": "model/depthwise_conv2d_8/depthwise", "op": "DepthwiseConv2dNative", "input": ["model/conv2d_16/Conv2D", "model/depthwise_conv2d_8/depthwise/ReadVariableOp"], "attr": {"strides": {"list": {"i": ["1", "1", "1", "1"]}}, "data_format": {"s": "TkhXQw=="}, "explicit_paddings": {"list": {}}, "padding": {"s": "U0FNRQ=="}, "T": {"type": "DT_FLOAT"}, "dilations": {"list": {"i": ["1", "1", "1", "1"]}}}}, {"name": "model/tf.math.sigmoid/Sigmoid", "op": "Sigmoid", "input": ["model/tf.math.add_6/Add"], "attr": {"T": {"type": "DT_FLOAT"}}}, {"name": "model/tf.math.add_9/Add", "op": "Add", "input": ["model/conv2d_7/Conv2D", "model/tf.math.add_9/Add/y"], "attr": {"T": {"type": "DT_FLOAT"}}}, {"name": "model/tf.math.add_14/Add", "op": "Add", "input": ["model/depthwise_conv2d_5/depthwise", "model/tf.math.add_14/Add/y"], "attr": {"T": {"type": "DT_FLOAT"}}}, {"name": "model/tf.math.add_20/Add", "op": "Add", "input": ["model/depthwise_conv2d_8/depthwise", "model/tf.math.add_20/Add/y"], "attr": {"T": {"type": "DT_FLOAT"}}}, {"name": "model/tf.math.multiply_3/Mul", "op": "Mul", "input": ["model/tf.nn.relu_2/Relu", "model/tf.math.sigmoid/Sigmoid"], "attr": {"T": {"type": "DT_FLOAT"}}}, {"name": "model/tf.nn.relu_6/Relu", "op": "Relu", "input": ["model/tf.math.add_9/Add"], "attr": {"T": {"type": "DT_FLOAT"}}}, {"name": "model/tf.nn.relu_9/Relu", "op": "Relu", "input": ["model/tf.math.add_14/Add"], "attr": {"T": {"type": "DT_FLOAT"}}}, {"name": "model/tf.nn.relu_13/Relu", "op": "Relu", "input": ["model/tf.math.add_20/Add"], "attr": {"T": {"type": "DT_FLOAT"}}}, {"name": "model/conv2d_8/Conv2D", "op": "Conv2D", "input": ["model/tf.nn.relu_6/Relu", "model/conv2d_8/Conv2D/ReadVariableOp"], "device": "/device:CPU:0", "attr": {"strides": {"list": {"i": ["1", "1", "1", "1"]}}, "T": {"type": "DT_FLOAT"}, "dilations": {"list": {"i": ["1", "1", "1", "1"]}}, "use_cudnn_on_gpu": {"b": true}, "padding": {"s": "VkFMSUQ="}, "explicit_paddings": {"list": {}}, "data_format": {"s": "TkhXQw=="}}}, {"name": "model/tf.math.reduce_mean_8/Mean", "op": "Mean", "input": ["model/tf.nn.relu_9/Relu", "model/tf.math.reduce_mean_8/Mean/reduction_indices"], "attr": {"Tidx": {"type": "DT_INT32"}, "keep_dims": {"b": true}, "T": {"type": "DT_FLOAT"}}}, {"name": "model/conv2d_17/Conv2D", "op": "Conv2D", "input": ["model/tf.nn.relu_13/Relu", "model/conv2d_17/Conv2D/ReadVariableOp"], "device": "/device:CPU:0", "attr": {"T": {"type": "DT_FLOAT"}, "dilations": {"list": {"i": ["1", "1", "1", "1"]}}, "data_format": {"s": "TkhXQw=="}, "explicit_paddings": {"list": {}}, "use_cudnn_on_gpu": {"b": true}, "padding": {"s": "VkFMSUQ="}, "strides": {"list": {"i": ["1", "1", "1", "1"]}}}}, {"name": "model/tf.math.add_10/Add", "op": "Add", "input": ["model/conv2d_8/Conv2D", "model/tf.math.add_10/Add/y"], "attr": {"T": {"type": "DT_FLOAT"}}}, {"name": "model/conv2d_12/Conv2D", "op": "Conv2D", "input": ["model/tf.math.reduce_mean_8/Mean", "model/conv2d_12/Conv2D/ReadVariableOp"], "device": "/device:CPU:0", "attr": {"T": {"type": "DT_FLOAT"}, "explicit_paddings": {"list": {}}, "use_cudnn_on_gpu": {"b": true}, "padding": {"s": "VkFMSUQ="}, "data_format": {"s": "TkhXQw=="}, "dilations": {"list": {"i": ["1", "1", "1", "1"]}}, "strides": {"list": {"i": ["1", "1", "1", "1"]}}}}, {"name": "model/depthwise_conv2d_9/depthwise", "op": "DepthwiseConv2dNative", "input": ["model/conv2d_17/Conv2D", "model/depthwise_conv2d_9/depthwise/ReadVariableOp"], "attr": {"dilations": {"list": {"i": ["1", "1", "1", "1"]}}, "data_format": {"s": "TkhXQw=="}, "padding": {"s": "U0FNRQ=="}, "explicit_paddings": {"list": {}}, "T": {"type": "DT_FLOAT"}, "strides": {"list": {"i": ["1", "1", "1", "1"]}}}}, {"name": "model/tf.math.sigmoid_1/Sigmoid", "op": "Sigmoid", "input": ["model/tf.math.add_10/Add"], "attr": {"T": {"type": "DT_FLOAT"}}}, {"name": "model/tf.math.add_15/Add", "op": "Add", "input": ["model/conv2d_12/Conv2D", "model/tf.math.add_15/Add/y"], "attr": {"T": {"type": "DT_FLOAT"}}}, {"name": "model/tf.math.add_21/Add", "op": "Add", "input": ["model/depthwise_conv2d_9/depthwise", "model/tf.math.add_21/Add/y"], "attr": {"T": {"type": "DT_FLOAT"}}}, {"name": "model/tf.math.multiply_4/Mul", "op": "Mul", "input": ["model/tf.nn.relu_5/Relu", "model/tf.math.sigmoid_1/Sigmoid"], "attr": {"T": {"type": "DT_FLOAT"}}}, {"name": "model/tf.nn.relu_10/Relu", "op": "Relu", "input": ["model/tf.math.add_15/Add"], "attr": {"T": {"type": "DT_FLOAT"}}}, {"name": "model/tf.nn.relu_14/Relu", "op": "Relu", "input": ["model/tf.math.add_21/Add"], "attr": {"T": {"type": "DT_FLOAT"}}}, {"name": "model/tf.math.add_11/Add", "op": "Add", "input": ["model/tf.math.multiply_3/Mul", "model/tf.math.multiply_4/Mul"], "attr": {"T": {"type": "DT_FLOAT"}}}, {"name": "model/conv2d_13/Conv2D", "op": "Conv2D", "input": ["model/tf.nn.relu_10/Relu", "model/conv2d_13/Conv2D/ReadVariableOp"], "device": "/device:CPU:0", "attr": {"strides": {"list": {"i": ["1", "1", "1", "1"]}}, "data_format": {"s": "TkhXQw=="}, "explicit_paddings": {"list": {}}, "T": {"type": "DT_FLOAT"}, "dilations": {"list": {"i": ["1", "1", "1", "1"]}}, "padding": {"s": "VkFMSUQ="}, "use_cudnn_on_gpu": {"b": true}}}, {"name": "model/tf.math.reduce_mean_9/Mean", "op": "Mean", "input": ["model/tf.nn.relu_14/Relu", "model/tf.math.reduce_mean_9/Mean/reduction_indices"], "attr": {"Tidx": {"type": "DT_INT32"}, "keep_dims": {"b": true}, "T": {"type": "DT_FLOAT"}}}, {"name": "model/tf.math.add_16/Add", "op": "Add", "input": ["model/conv2d_13/Conv2D", "model/tf.math.add_16/Add/y"], "attr": {"T": {"type": "DT_FLOAT"}}}, {"name": "model/conv2d_18/Conv2D", "op": "Conv2D", "input": ["model/tf.math.reduce_mean_9/Mean", "model/conv2d_18/Conv2D/ReadVariableOp"], "device": "/device:CPU:0", "attr": {"padding": {"s": "VkFMSUQ="}, "explicit_paddings": {"list": {}}, "T": {"type": "DT_FLOAT"}, "strides": {"list": {"i": ["1", "1", "1", "1"]}}, "use_cudnn_on_gpu": {"b": true}, "dilations": {"list": {"i": ["1", "1", "1", "1"]}}, "data_format": {"s": "TkhXQw=="}}}, {"name": "model/tf.math.sigmoid_2/Sigmoid", "op": "Sigmoid", "input": ["model/tf.math.add_16/Add"], "attr": {"T": {"type": "DT_FLOAT"}}}, {"name": "model/tf.math.add_22/Add", "op": "Add", "input": ["model/conv2d_18/Conv2D", "model/tf.math.add_22/Add/y"], "attr": {"T": {"type": "DT_FLOAT"}}}, {"name": "model/tf.math.multiply_5/Mul", "op": "Mul", "input": ["model/tf.nn.relu_9/Relu", "model/tf.math.sigmoid_2/Sigmoid"], "attr": {"T": {"type": "DT_FLOAT"}}}, {"name": "model/tf.nn.relu_15/Relu", "op": "Relu", "input": ["model/tf.math.add_22/Add"], "attr": {"T": {"type": "DT_FLOAT"}}}, {"name": "model/tf.math.add_17/Add", "op": "Add", "input": ["model/tf.math.add_11/Add", "model/tf.math.multiply_5/Mul"], "attr": {"T": {"type": "DT_FLOAT"}}}, {"name": "model/conv2d_19/Conv2D", "op": "Conv2D", "input": ["model/tf.nn.relu_15/Relu", "model/conv2d_19/Conv2D/ReadVariableOp"], "device": "/device:CPU:0", "attr": {"dilations": {"list": {"i": ["1", "1", "1", "1"]}}, "T": {"type": "DT_FLOAT"}, "data_format": {"s": "TkhXQw=="}, "strides": {"list": {"i": ["1", "1", "1", "1"]}}, "padding": {"s": "VkFMSUQ="}, "use_cudnn_on_gpu": {"b": true}, "explicit_paddings": {"list": {}}}}, {"name": "model/tf.math.add_23/Add", "op": "Add", "input": ["model/conv2d_19/Conv2D", "model/tf.math.add_23/Add/y"], "attr": {"T": {"type": "DT_FLOAT"}}}, {"name": "model/tf.math.sigmoid_3/Sigmoid", "op": "Sigmoid", "input": ["model/tf.math.add_23/Add"], "attr": {"T": {"type": "DT_FLOAT"}}}, {"name": "model/tf.math.multiply_6/Mul", "op": "Mul", "input": ["model/tf.nn.relu_14/Relu", "model/tf.math.sigmoid_3/Sigmoid"], "attr": {"T": {"type": "DT_FLOAT"}}}, {"name": "model/tf.math.add_24/Add", "op": "Add", "input": ["model/tf.math.add_17/Add", "model/tf.math.multiply_6/Mul"], "attr": {"T": {"type": "DT_FLOAT"}}}, {"name": "model/conv2d_20/Conv2D", "op": "Conv2D", "input": ["model/tf.math.add_24/Add", "model/conv2d_20/Conv2D/ReadVariableOp"], "device": "/device:CPU:0", "attr": {"use_cudnn_on_gpu": {"b": true}, "T": {"type": "DT_FLOAT"}, "explicit_paddings": {"list": {}}, "strides": {"list": {"i": ["1", "1", "1", "1"]}}, "dilations": {"list": {"i": ["1", "1", "1", "1"]}}, "padding": {"s": "VkFMSUQ="}, "data_format": {"s": "TkhXQw=="}}}, {"name": "model/tf.math.add_25/Add", "op": "Add", "input": ["model/conv2d_20/Conv2D", "model/tf.math.add_25/Add/y"], "attr": {"T": {"type": "DT_FLOAT"}}}, {"name": "model/tf.math.add_27/Add", "op": "Add", "input": ["model/tf.math.add_25/Add", "model/tf.math.add_26/Add"], "attr": {"T": {"type": "DT_FLOAT"}}}, {"name": "model/tf.nn.relu_16/Relu", "op": "Relu", "input": ["model/tf.math.add_27/Add"], "attr": {"T": {"type": "DT_FLOAT"}}}, {"name": "model/conv2d_22/Conv2D", "op": "Conv2D", "input": ["model/tf.nn.relu_16/Relu", "model/conv2d_22/Conv2D/ReadVariableOp"], "device": "/device:CPU:0", "attr": {"T": {"type": "DT_FLOAT"}, "explicit_paddings": {"list": {}}, "data_format": {"s": "TkhXQw=="}, "strides": {"list": {"i": ["1", "1", "1", "1"]}}, "use_cudnn_on_gpu": {"b": true}, "dilations": {"list": {"i": ["1", "1", "1", "1"]}}, "padding": {"s": "VkFMSUQ="}}}, {"name": "model/tf.math.add_28/Add", "op": "Add", "input": ["model/conv2d_22/Conv2D", "model/tf.math.add_28/Add/y"], "attr": {"T": {"type": "DT_FLOAT"}}}, {"name": "model/tf.nn.relu_17/Relu", "op": "Relu", "input": ["model/tf.math.add_28/Add"], "attr": {"T": {"type": "DT_FLOAT"}}}, {"name": "model/conv2d_23/Conv2D", "op": "Conv2D", "input": ["model/tf.nn.relu_17/Relu", "model/conv2d_23/Conv2D/ReadVariableOp"], "device": "/device:CPU:0", "attr": {"dilations": {"list": {"i": ["1", "1", "1", "1"]}}, "T": {"type": "DT_FLOAT"}, "use_cudnn_on_gpu": {"b": true}, "strides": {"list": {"i": ["1", "1", "1", "1"]}}, "padding": {"s": "VkFMSUQ="}, "data_format": {"s": "TkhXQw=="}, "explicit_paddings": {"list": {}}}}, {"name": "model/conv2d_24/Conv2D", "op": "Conv2D", "input": ["model/tf.nn.relu_17/Relu", "model/conv2d_24/Conv2D/ReadVariableOp"], "device": "/device:CPU:0", "attr": {"dilations": {"list": {"i": ["1", "1", "1", "1"]}}, "padding": {"s": "VkFMSUQ="}, "explicit_paddings": {"list": {}}, "strides": {"list": {"i": ["1", "1", "1", "1"]}}, "use_cudnn_on_gpu": {"b": true}, "T": {"type": "DT_FLOAT"}, "data_format": {"s": "TkhXQw=="}}}, {"name": "model/conv2d_26/Conv2D", "op": "Conv2D", "input": ["model/tf.nn.relu_17/Relu", "model/conv2d_26/Conv2D/ReadVariableOp"], "device": "/device:CPU:0", "attr": {"dilations": {"list": {"i": ["1", "1", "1", "1"]}}, "explicit_paddings": {"list": {}}, "padding": {"s": "VkFMSUQ="}, "strides": {"list": {"i": ["1", "1", "1", "1"]}}, "data_format": {"s": "TkhXQw=="}, "use_cudnn_on_gpu": {"b": true}, "T": {"type": "DT_FLOAT"}}}, {"name": "model/conv2d_29/Conv2D", "op": "Conv2D", "input": ["model/tf.nn.relu_17/Relu", "model/conv2d_29/Conv2D/ReadVariableOp"], "device": "/device:CPU:0", "attr": {"padding": {"s": "VkFMSUQ="}, "explicit_paddings": {"list": {}}, "use_cudnn_on_gpu": {"b": true}, "T": {"type": "DT_FLOAT"}, "data_format": {"s": "TkhXQw=="}, "strides": {"list": {"i": ["1", "1", "1", "1"]}}, "dilations": {"list": {"i": ["1", "1", "1", "1"]}}}}, {"name": "model/depthwise_conv2d_10/depthwise", "op": "DepthwiseConv2dNative", "input": ["model/conv2d_23/Conv2D", "model/depthwise_conv2d_10/depthwise/ReadVariableOp"], "attr": {"padding": {"s": "U0FNRQ=="}, "dilations": {"list": {"i": ["1", "1", "1", "1"]}}, "T": {"type": "DT_FLOAT"}, "data_format": {"s": "TkhXQw=="}, "strides": {"list": {"i": ["1", "1", "1", "1"]}}, "explicit_paddings": {"list": {}}}}, {"name": "model/depthwise_conv2d_11/depthwise", "op": "DepthwiseConv2dNative", "input": ["model/conv2d_24/Conv2D", "model/depthwise_conv2d_11/depthwise/ReadVariableOp"], "attr": {"strides": {"list": {"i": ["1", "1", "1", "1"]}}, "T": {"type": "DT_FLOAT"}, "data_format": {"s": "TkhXQw=="}, "dilations": {"list": {"i": ["1", "1", "1", "1"]}}, "explicit_paddings": {"list": {}}, "padding": {"s": "U0FNRQ=="}}}, {"name": "model/depthwise_conv2d_13/depthwise", "op": "DepthwiseConv2dNative", "input": ["model/conv2d_26/Conv2D", "model/depthwise_conv2d_13/depthwise/ReadVariableOp"], "attr": {"data_format": {"s": "TkhXQw=="}, "padding": {"s": "U0FNRQ=="}, "dilations": {"list": {"i": ["1", "1", "1", "1"]}}, "T": {"type": "DT_FLOAT"}, "strides": {"list": {"i": ["1", "1", "1", "1"]}}, "explicit_paddings": {"list": {}}}}, {"name": "model/depthwise_conv2d_16/depthwise", "op": "DepthwiseConv2dNative", "input": ["model/conv2d_29/Conv2D", "model/depthwise_conv2d_16/depthwise/ReadVariableOp"], "attr": {"T": {"type": "DT_FLOAT"}, "explicit_paddings": {"list": {}}, "dilations": {"list": {"i": ["1", "1", "1", "1"]}}, "strides": {"list": {"i": ["1", "1", "1", "1"]}}, "padding": {"s": "U0FNRQ=="}, "data_format": {"s": "TkhXQw=="}}}, {"name": "model/tf.math.add_29/Add", "op": "Add", "input": ["model/depthwise_conv2d_10/depthwise", "model/tf.math.add_29/Add/y"], "attr": {"T": {"type": "DT_FLOAT"}}}, {"name": "model/tf.math.add_32/Add", "op": "Add", "input": ["model/depthwise_conv2d_11/depthwise", "model/tf.math.add_32/Add/y"], "attr": {"T": {"type": "DT_FLOAT"}}}, {"name": "model/tf.math.add_37/Add", "op": "Add", "input": ["model/depthwise_conv2d_13/depthwise", "model/tf.math.add_37/Add/y"], "attr": {"T": {"type": "DT_FLOAT"}}}, {"name": "model/tf.math.add_43/Add", "op": "Add", "input": ["model/depthwise_conv2d_16/depthwise", "model/tf.math.add_43/Add/y"], "attr": {"T": {"type": "DT_FLOAT"}}}, {"name": "model/tf.nn.relu_18/Relu", "op": "Relu", "input": ["model/tf.math.add_29/Add"], "attr": {"T": {"type": "DT_FLOAT"}}}, {"name": "model/tf.nn.relu_19/Relu", "op": "Relu", "input": ["model/tf.math.add_32/Add"], "attr": {"T": {"type": "DT_FLOAT"}}}, {"name": "model/tf.nn.relu_21/Relu", "op": "Relu", "input": ["model/tf.math.add_37/Add"], "attr": {"T": {"type": "DT_FLOAT"}}}, {"name": "model/tf.nn.relu_24/Relu", "op": "Relu", "input": ["model/tf.math.add_43/Add"], "attr": {"T": {"type": "DT_FLOAT"}}}, {"name": "model/tf.math.sigmoid_4/Sigmoid", "op": "Const", "input": ["^model/tf.nn.relu_18/Relu"], "attr": {"dtype": {"type": "DT_FLOAT"}, "value": {"tensor": {"dtype": "DT_FLOAT", "tensorShape": {"dim": [{"size": "1"}, {"size": "1"}, {"size": "1"}, {"size": "16"}]}}}}}, {"name": "model/conv2d_25/Conv2D", "op": "Conv2D", "input": ["model/tf.nn.relu_19/Relu", "model/conv2d_25/Conv2D/ReadVariableOp"], "device": "/device:CPU:0", "attr": {"data_format": {"s": "TkhXQw=="}, "strides": {"list": {"i": ["1", "1", "1", "1"]}}, "dilations": {"list": {"i": ["1", "1", "1", "1"]}}, "T": {"type": "DT_FLOAT"}, "padding": {"s": "VkFMSUQ="}, "explicit_paddings": {"list": {}}, "use_cudnn_on_gpu": {"b": true}}}, {"name": "model/conv2d_27/Conv2D", "op": "Conv2D", "input": ["model/tf.nn.relu_21/Relu", "model/conv2d_27/Conv2D/ReadVariableOp"], "device": "/device:CPU:0", "attr": {"padding": {"s": "VkFMSUQ="}, "strides": {"list": {"i": ["1", "1", "1", "1"]}}, "data_format": {"s": "TkhXQw=="}, "use_cudnn_on_gpu": {"b": true}, "explicit_paddings": {"list": {}}, "T": {"type": "DT_FLOAT"}, "dilations": {"list": {"i": ["1", "1", "1", "1"]}}}}, {"name": "model/conv2d_30/Conv2D", "op": "Conv2D", "input": ["model/tf.nn.relu_24/Relu", "model/conv2d_30/Conv2D/ReadVariableOp"], "device": "/device:CPU:0", "attr": {"T": {"type": "DT_FLOAT"}, "explicit_paddings": {"list": {}}, "padding": {"s": "VkFMSUQ="}, "dilations": {"list": {"i": ["1", "1", "1", "1"]}}, "data_format": {"s": "TkhXQw=="}, "use_cudnn_on_gpu": {"b": true}, "strides": {"list": {"i": ["1", "1", "1", "1"]}}}}, {"name": "model/tf.math.multiply_9/Mul", "op": "Mul", "input": ["model/tf.nn.relu_18/Relu", "model/tf.math.sigmoid_4/Sigmoid"], "attr": {"T": {"type": "DT_FLOAT"}}}, {"name": "model/depthwise_conv2d_12/depthwise", "op": "DepthwiseConv2dNative", "input": ["model/conv2d_25/Conv2D", "model/depthwise_conv2d_12/depthwise/ReadVariableOp"], "attr": {"dilations": {"list": {"i": ["1", "1", "1", "1"]}}, "data_format": {"s": "TkhXQw=="}, "padding": {"s": "U0FNRQ=="}, "T": {"type": "DT_FLOAT"}, "explicit_paddings": {"list": {}}, "strides": {"list": {"i": ["1", "1", "1", "1"]}}}}, {"name": "model/depthwise_conv2d_14/depthwise", "op": "DepthwiseConv2dNative", "input": ["model/conv2d_27/Conv2D", "model/depthwise_conv2d_14/depthwise/ReadVariableOp"], "attr": {"padding": {"s": "U0FNRQ=="}, "strides": {"list": {"i": ["1", "1", "1", "1"]}}, "dilations": {"list": {"i": ["1", "1", "1", "1"]}}, "explicit_paddings": {"list": {}}, "T": {"type": "DT_FLOAT"}, "data_format": {"s": "TkhXQw=="}}}, {"name": "model/depthwise_conv2d_17/depthwise", "op": "DepthwiseConv2dNative", "input": ["model/conv2d_30/Conv2D", "model/depthwise_conv2d_17/depthwise/ReadVariableOp"], "attr": {"padding": {"s": "U0FNRQ=="}, "dilations": {"list": {"i": ["1", "1", "1", "1"]}}, "data_format": {"s": "TkhXQw=="}, "explicit_paddings": {"list": {}}, "T": {"type": "DT_FLOAT"}, "strides": {"list": {"i": ["1", "1", "1", "1"]}}}}, {"name": "model/tf.math.add_33/Add", "op": "Add", "input": ["model/depthwise_conv2d_12/depthwise", "model/tf.math.add_33/Add/y"], "attr": {"T": {"type": "DT_FLOAT"}}}, {"name": "model/tf.math.add_38/Add", "op": "Add", "input": ["model/depthwise_conv2d_14/depthwise", "model/tf.math.add_38/Add/y"], "attr": {"T": {"type": "DT_FLOAT"}}}, {"name": "model/tf.math.add_44/Add", "op": "Add", "input": ["model/depthwise_conv2d_17/depthwise", "model/tf.math.add_44/Add/y"], "attr": {"T": {"type": "DT_FLOAT"}}}, {"name": "model/tf.nn.relu_20/Relu", "op": "Relu", "input": ["model/tf.math.add_33/Add"], "attr": {"T": {"type": "DT_FLOAT"}}}, {"name": "model/tf.nn.relu_22/Relu", "op": "Relu", "input": ["model/tf.math.add_38/Add"], "attr": {"T": {"type": "DT_FLOAT"}}}, {"name": "model/tf.nn.relu_25/Relu", "op": "Relu", "input": ["model/tf.math.add_44/Add"], "attr": {"T": {"type": "DT_FLOAT"}}}, {"name": "model/tf.math.sigmoid_5/Sigmoid", "op": "Const", "input": ["^model/tf.nn.relu_20/Relu"], "attr": {"value": {"tensor": {"dtype": "DT_FLOAT", "tensorShape": {"dim": [{"size": "1"}, {"size": "1"}, {"size": "1"}, {"size": "16"}]}}}, "dtype": {"type": "DT_FLOAT"}}}, {"name": "model/conv2d_28/Conv2D", "op": "Conv2D", "input": ["model/tf.nn.relu_22/Relu", "model/conv2d_28/Conv2D/ReadVariableOp"], "device": "/device:CPU:0", "attr": {"strides": {"list": {"i": ["1", "1", "1", "1"]}}, "padding": {"s": "VkFMSUQ="}, "data_format": {"s": "TkhXQw=="}, "use_cudnn_on_gpu": {"b": true}, "explicit_paddings": {"list": {}}, "T": {"type": "DT_FLOAT"}, "dilations": {"list": {"i": ["1", "1", "1", "1"]}}}}, {"name": "model/conv2d_31/Conv2D", "op": "Conv2D", "input": ["model/tf.nn.relu_25/Relu", "model/conv2d_31/Conv2D/ReadVariableOp"], "device": "/device:CPU:0", "attr": {"data_format": {"s": "TkhXQw=="}, "dilations": {"list": {"i": ["1", "1", "1", "1"]}}, "use_cudnn_on_gpu": {"b": true}, "strides": {"list": {"i": ["1", "1", "1", "1"]}}, "T": {"type": "DT_FLOAT"}, "padding": {"s": "VkFMSUQ="}, "explicit_paddings": {"list": {}}}}, {"name": "model/tf.math.multiply_12/Mul", "op": "Mul", "input": ["model/tf.nn.relu_20/Relu", "model/tf.math.sigmoid_5/Sigmoid"], "attr": {"T": {"type": "DT_FLOAT"}}}, {"name": "model/depthwise_conv2d_15/depthwise", "op": "DepthwiseConv2dNative", "input": ["model/conv2d_28/Conv2D", "model/depthwise_conv2d_15/depthwise/ReadVariableOp"], "attr": {"padding": {"s": "U0FNRQ=="}, "dilations": {"list": {"i": ["1", "1", "1", "1"]}}, "data_format": {"s": "TkhXQw=="}, "strides": {"list": {"i": ["1", "1", "1", "1"]}}, "T": {"type": "DT_FLOAT"}, "explicit_paddings": {"list": {}}}}, {"name": "model/depthwise_conv2d_18/depthwise", "op": "DepthwiseConv2dNative", "input": ["model/conv2d_31/Conv2D", "model/depthwise_conv2d_18/depthwise/ReadVariableOp"], "attr": {"dilations": {"list": {"i": ["1", "1", "1", "1"]}}, "T": {"type": "DT_FLOAT"}, "data_format": {"s": "TkhXQw=="}, "strides": {"list": {"i": ["1", "1", "1", "1"]}}, "explicit_paddings": {"list": {}}, "padding": {"s": "U0FNRQ=="}}}, {"name": "model/tf.math.add_36/Add", "op": "Add", "input": ["model/tf.math.multiply_9/Mul", "model/tf.math.multiply_12/Mul"], "attr": {"T": {"type": "DT_FLOAT"}}}, {"name": "model/tf.math.add_39/Add", "op": "Add", "input": ["model/depthwise_conv2d_15/depthwise", "model/tf.math.add_39/Add/y"], "attr": {"T": {"type": "DT_FLOAT"}}}, {"name": "model/tf.math.add_45/Add", "op": "Add", "input": ["model/depthwise_conv2d_18/depthwise", "model/tf.math.add_45/Add/y"], "attr": {"T": {"type": "DT_FLOAT"}}}, {"name": "model/tf.nn.relu_23/Relu", "op": "Relu", "input": ["model/tf.math.add_39/Add"], "attr": {"T": {"type": "DT_FLOAT"}}}, {"name": "model/tf.nn.relu_26/Relu", "op": "Relu", "input": ["model/tf.math.add_45/Add"], "attr": {"T": {"type": "DT_FLOAT"}}}, {"name": "model/tf.math.sigmoid_6/Sigmoid", "op": "Const", "input": ["^model/tf.nn.relu_23/Relu"], "attr": {"value": {"tensor": {"dtype": "DT_FLOAT", "tensorShape": {"dim": [{"size": "1"}, {"size": "1"}, {"size": "1"}, {"size": "16"}]}}}, "dtype": {"type": "DT_FLOAT"}}}, {"name": "model/conv2d_32/Conv2D", "op": "Conv2D", "input": ["model/tf.nn.relu_26/Relu", "model/conv2d_32/Conv2D/ReadVariableOp"], "device": "/device:CPU:0", "attr": {"T": {"type": "DT_FLOAT"}, "padding": {"s": "VkFMSUQ="}, "use_cudnn_on_gpu": {"b": true}, "strides": {"list": {"i": ["1", "1", "1", "1"]}}, "data_format": {"s": "TkhXQw=="}, "dilations": {"list": {"i": ["1", "1", "1", "1"]}}, "explicit_paddings": {"list": {}}}}, {"name": "model/tf.math.multiply_15/Mul", "op": "Mul", "input": ["model/tf.nn.relu_23/Relu", "model/tf.math.sigmoid_6/Sigmoid"], "attr": {"T": {"type": "DT_FLOAT"}}}, {"name": "model/depthwise_conv2d_19/depthwise", "op": "DepthwiseConv2dNative", "input": ["model/conv2d_32/Conv2D", "model/depthwise_conv2d_19/depthwise/ReadVariableOp"], "attr": {"padding": {"s": "U0FNRQ=="}, "dilations": {"list": {"i": ["1", "1", "1", "1"]}}, "strides": {"list": {"i": ["1", "1", "1", "1"]}}, "T": {"type": "DT_FLOAT"}, "explicit_paddings": {"list": {}}, "data_format": {"s": "TkhXQw=="}}}, {"name": "model/tf.math.add_42/Add", "op": "Add", "input": ["model/tf.math.add_36/Add", "model/tf.math.multiply_15/Mul"], "attr": {"T": {"type": "DT_FLOAT"}}}, {"name": "model/tf.math.add_46/Add", "op": "Add", "input": ["model/depthwise_conv2d_19/depthwise", "model/tf.math.add_46/Add/y"], "attr": {"T": {"type": "DT_FLOAT"}}}, {"name": "model/tf.nn.relu_27/Relu", "op": "Relu", "input": ["model/tf.math.add_46/Add"], "attr": {"T": {"type": "DT_FLOAT"}}}, {"name": "model/tf.math.sigmoid_7/Sigmoid", "op": "Const", "input": ["^model/tf.nn.relu_27/Relu"], "attr": {"dtype": {"type": "DT_FLOAT"}, "value": {"tensor": {"dtype": "DT_FLOAT", "tensorShape": {"dim": [{"size": "1"}, {"size": "1"}, {"size": "1"}, {"size": "16"}]}}}}}, {"name": "model/tf.math.multiply_18/Mul", "op": "Mul", "input": ["model/tf.nn.relu_27/Relu", "model/tf.math.sigmoid_7/Sigmoid"], "attr": {"T": {"type": "DT_FLOAT"}}}, {"name": "model/tf.math.add_49/Add", "op": "Add", "input": ["model/tf.math.add_42/Add", "model/tf.math.multiply_18/Mul"], "attr": {"T": {"type": "DT_FLOAT"}}}, {"name": "model/conv2d_33/Conv2D", "op": "Conv2D", "input": ["model/tf.math.add_49/Add", "model/conv2d_33/Conv2D/ReadVariableOp"], "device": "/device:CPU:0", "attr": {"T": {"type": "DT_FLOAT"}, "data_format": {"s": "TkhXQw=="}, "explicit_paddings": {"list": {}}, "dilations": {"list": {"i": ["1", "1", "1", "1"]}}, "strides": {"list": {"i": ["1", "1", "1", "1"]}}, "use_cudnn_on_gpu": {"b": true}, "padding": {"s": "VkFMSUQ="}}}, {"name": "model/tf.math.add_50/Add", "op": "Add", "input": ["model/conv2d_33/Conv2D", "model/tf.math.add_50/Add/y"], "attr": {"T": {"type": "DT_FLOAT"}}}, {"name": "model/tf.math.add_51/Add", "op": "Add", "input": ["model/tf.math.add_50/Add", "model/tf.nn.relu_16/Relu"], "attr": {"T": {"type": "DT_FLOAT"}}}, {"name": "model/tf.nn.relu_28/Relu", "op": "Relu", "input": ["model/tf.math.add_51/Add"], "attr": {"T": {"type": "DT_FLOAT"}}}, {"name": "model/conv2d_34/Conv2D", "op": "Conv2D", "input": ["model/tf.nn.relu_28/Relu", "model/conv2d_34/Conv2D/ReadVariableOp"], "device": "/device:CPU:0", "attr": {"dilations": {"list": {"i": ["1", "1", "1", "1"]}}, "explicit_paddings": {"list": {}}, "strides": {"list": {"i": ["1", "1", "1", "1"]}}, "use_cudnn_on_gpu": {"b": true}, "T": {"type": "DT_FLOAT"}, "data_format": {"s": "TkhXQw=="}, "padding": {"s": "VkFMSUQ="}}}, {"name": "model/tf.math.add_52/Add", "op": "Add", "input": ["model/conv2d_34/Conv2D", "model/tf.math.add_52/Add/y"], "attr": {"T": {"type": "DT_FLOAT"}}}, {"name": "model/tf.nn.relu_29/Relu", "op": "Relu", "input": ["model/tf.math.add_52/Add"], "attr": {"T": {"type": "DT_FLOAT"}}}, {"name": "model/average_pooling2d/AvgPool", "op": "AvgPool", "input": ["model/tf.nn.relu_29/Relu"], "attr": {"T": {"type": "DT_FLOAT"}, "strides": {"list": {"i": ["1", "2", "2", "1"]}}, "data_format": {"s": "TkhXQw=="}, "ksize": {"list": {"i": ["1", "2", "2", "1"]}}, "padding": {"s": "VkFMSUQ="}}}, {"name": "model/conv2d_35/Conv2D", "op": "Conv2D", "input": ["model/average_pooling2d/AvgPool", "model/conv2d_35/Conv2D/ReadVariableOp"], "device": "/device:CPU:0", "attr": {"strides": {"list": {"i": ["1", "1", "1", "1"]}}, "dilations": {"list": {"i": ["1", "1", "1", "1"]}}, "data_format": {"s": "TkhXQw=="}, "T": {"type": "DT_FLOAT"}, "use_cudnn_on_gpu": {"b": true}, "padding": {"s": "VkFMSUQ="}, "explicit_paddings": {"list": {}}}}, {"name": "model/conv2d_55/Conv2D", "op": "Conv2D", "input": ["model/average_pooling2d/AvgPool", "model/conv2d_55/Conv2D/ReadVariableOp"], "device": "/device:CPU:0", "attr": {"strides": {"list": {"i": ["1", "1", "1", "1"]}}, "padding": {"s": "VkFMSUQ="}, "explicit_paddings": {"list": {}}, "T": {"type": "DT_FLOAT"}, "use_cudnn_on_gpu": {"b": true}, "data_format": {"s": "TkhXQw=="}, "dilations": {"list": {"i": ["1", "1", "1", "1"]}}}}, {"name": "model/tf.math.add_53/Add", "op": "Add", "input": ["model/conv2d_35/Conv2D", "model/tf.math.add_53/Add/y"], "attr": {"T": {"type": "DT_FLOAT"}}}, {"name": "model/tf.math.add_76/Add", "op": "Add", "input": ["model/conv2d_55/Conv2D", "model/tf.math.add_76/Add/y"], "attr": {"T": {"type": "DT_FLOAT"}}}, {"name": "model/tf.nn.relu_30/Relu", "op": "Relu", "input": ["model/tf.math.add_53/Add"], "attr": {"T": {"type": "DT_FLOAT"}}}, {"name": "model/conv2d_36/Conv2D", "op": "Conv2D", "input": ["model/tf.nn.relu_30/Relu", "model/conv2d_36/Conv2D/ReadVariableOp"], "device": "/device:CPU:0", "attr": {"data_format": {"s": "TkhXQw=="}, "dilations": {"list": {"i": ["1", "1", "1", "1"]}}, "T": {"type": "DT_FLOAT"}, "padding": {"s": "VkFMSUQ="}, "strides": {"list": {"i": ["1", "1", "1", "1"]}}, "explicit_paddings": {"list": {}}, "use_cudnn_on_gpu": {"b": true}}}, {"name": "model/conv2d_39/Conv2D", "op": "Conv2D", "input": ["model/tf.nn.relu_30/Relu", "model/conv2d_39/Conv2D/ReadVariableOp"], "device": "/device:CPU:0", "attr": {"padding": {"s": "VkFMSUQ="}, "T": {"type": "DT_FLOAT"}, "dilations": {"list": {"i": ["1", "1", "1", "1"]}}, "data_format": {"s": "TkhXQw=="}, "use_cudnn_on_gpu": {"b": true}, "strides": {"list": {"i": ["1", "1", "1", "1"]}}, "explicit_paddings": {"list": {}}}}, {"name": "model/conv2d_43/Conv2D", "op": "Conv2D", "input": ["model/tf.nn.relu_30/Relu", "model/conv2d_43/Conv2D/ReadVariableOp"], "device": "/device:CPU:0", "attr": {"padding": {"s": "VkFMSUQ="}, "use_cudnn_on_gpu": {"b": true}, "explicit_paddings": {"list": {}}, "strides": {"list": {"i": ["1", "1", "1", "1"]}}, "T": {"type": "DT_FLOAT"}, "data_format": {"s": "TkhXQw=="}, "dilations": {"list": {"i": ["1", "1", "1", "1"]}}}}, {"name": "model/conv2d_48/Conv2D", "op": "Conv2D", "input": ["model/tf.nn.relu_30/Relu", "model/conv2d_48/Conv2D/ReadVariableOp"], "device": "/device:CPU:0", "attr": {"dilations": {"list": {"i": ["1", "1", "1", "1"]}}, "strides": {"list": {"i": ["1", "1", "1", "1"]}}, "padding": {"s": "VkFMSUQ="}, "use_cudnn_on_gpu": {"b": true}, "T": {"type": "DT_FLOAT"}, "data_format": {"s": "TkhXQw=="}, "explicit_paddings": {"list": {}}}}, {"name": "model/depthwise_conv2d_20/depthwise", "op": "DepthwiseConv2dNative", "input": ["model/conv2d_36/Conv2D", "model/depthwise_conv2d_20/depthwise/ReadVariableOp"], "attr": {"data_format": {"s": "TkhXQw=="}, "strides": {"list": {"i": ["1", "1", "1", "1"]}}, "T": {"type": "DT_FLOAT"}, "padding": {"s": "U0FNRQ=="}, "explicit_paddings": {"list": {}}, "dilations": {"list": {"i": ["1", "1", "1", "1"]}}}}, {"name": "model/depthwise_conv2d_21/depthwise", "op": "DepthwiseConv2dNative", "input": ["model/conv2d_39/Conv2D", "model/depthwise_conv2d_21/depthwise/ReadVariableOp"], "attr": {"T": {"type": "DT_FLOAT"}, "dilations": {"list": {"i": ["1", "1", "1", "1"]}}, "explicit_paddings": {"list": {}}, "padding": {"s": "U0FNRQ=="}, "strides": {"list": {"i": ["1", "1", "1", "1"]}}, "data_format": {"s": "TkhXQw=="}}}, {"name": "model/depthwise_conv2d_23/depthwise", "op": "DepthwiseConv2dNative", "input": ["model/conv2d_43/Conv2D", "model/depthwise_conv2d_23/depthwise/ReadVariableOp"], "attr": {"T": {"type": "DT_FLOAT"}, "data_format": {"s": "TkhXQw=="}, "dilations": {"list": {"i": ["1", "1", "1", "1"]}}, "padding": {"s": "U0FNRQ=="}, "strides": {"list": {"i": ["1", "1", "1", "1"]}}, "explicit_paddings": {"list": {}}}}, {"name": "model/depthwise_conv2d_26/depthwise", "op": "DepthwiseConv2dNative", "input": ["model/conv2d_48/Conv2D", "model/depthwise_conv2d_26/depthwise/ReadVariableOp"], "attr": {"T": {"type": "DT_FLOAT"}, "explicit_paddings": {"list": {}}, "data_format": {"s": "TkhXQw=="}, "strides": {"list": {"i": ["1", "1", "1", "1"]}}, "dilations": {"list": {"i": ["1", "1", "1", "1"]}}, "padding": {"s": "U0FNRQ=="}}}, {"name": "model/tf.math.add_54/Add", "op": "Add", "input": ["model/depthwise_conv2d_20/depthwise", "model/tf.math.add_54/Add/y"], "attr": {"T": {"type": "DT_FLOAT"}}}, {"name": "model/tf.math.add_57/Add", "op": "Add", "input": ["model/depthwise_conv2d_21/depthwise", "model/tf.math.add_57/Add/y"], "attr": {"T": {"type": "DT_FLOAT"}}}, {"name": "model/tf.math.add_62/Add", "op": "Add", "input": ["model/depthwise_conv2d_23/depthwise", "model/tf.math.add_62/Add/y"], "attr": {"T": {"type": "DT_FLOAT"}}}, {"name": "model/tf.math.add_68/Add", "op": "Add", "input": ["model/depthwise_conv2d_26/depthwise", "model/tf.math.add_68/Add/y"], "attr": {"T": {"type": "DT_FLOAT"}}}, {"name": "model/tf.nn.relu_31/Relu", "op": "Relu", "input": ["model/tf.math.add_54/Add"], "attr": {"T": {"type": "DT_FLOAT"}}}, {"name": "model/tf.nn.relu_33/Relu", "op": "Relu", "input": ["model/tf.math.add_57/Add"], "attr": {"T": {"type": "DT_FLOAT"}}}, {"name": "model/tf.nn.relu_36/Relu", "op": "Relu", "input": ["model/tf.math.add_62/Add"], "attr": {"T": {"type": "DT_FLOAT"}}}, {"name": "model/tf.nn.relu_40/Relu", "op": "Relu", "input": ["model/tf.math.add_68/Add"], "attr": {"T": {"type": "DT_FLOAT"}}}, {"name": "model/tf.math.reduce_mean_26/Mean", "op": "Mean", "input": ["model/tf.nn.relu_31/Relu", "model/tf.math.reduce_mean_26/Mean/reduction_indices"], "attr": {"Tidx": {"type": "DT_INT32"}, "T": {"type": "DT_FLOAT"}, "keep_dims": {"b": true}}}, {"name": "model/conv2d_40/Conv2D", "op": "Conv2D", "input": ["model/tf.nn.relu_33/Relu", "model/conv2d_40/Conv2D/ReadVariableOp"], "device": "/device:CPU:0", "attr": {"T": {"type": "DT_FLOAT"}, "strides": {"list": {"i": ["1", "1", "1", "1"]}}, "data_format": {"s": "TkhXQw=="}, "padding": {"s": "VkFMSUQ="}, "explicit_paddings": {"list": {}}, "use_cudnn_on_gpu": {"b": true}, "dilations": {"list": {"i": ["1", "1", "1", "1"]}}}}, {"name": "model/conv2d_44/Conv2D", "op": "Conv2D", "input": ["model/tf.nn.relu_36/Relu", "model/conv2d_44/Conv2D/ReadVariableOp"], "device": "/device:CPU:0", "attr": {"T": {"type": "DT_FLOAT"}, "strides": {"list": {"i": ["1", "1", "1", "1"]}}, "explicit_paddings": {"list": {}}, "dilations": {"list": {"i": ["1", "1", "1", "1"]}}, "padding": {"s": "VkFMSUQ="}, "use_cudnn_on_gpu": {"b": true}, "data_format": {"s": "TkhXQw=="}}}, {"name": "model/conv2d_49/Conv2D", "op": "Conv2D", "input": ["model/tf.nn.relu_40/Relu", "model/conv2d_49/Conv2D/ReadVariableOp"], "device": "/device:CPU:0", "attr": {"strides": {"list": {"i": ["1", "1", "1", "1"]}}, "padding": {"s": "VkFMSUQ="}, "data_format": {"s": "TkhXQw=="}, "use_cudnn_on_gpu": {"b": true}, "dilations": {"list": {"i": ["1", "1", "1", "1"]}}, "explicit_paddings": {"list": {}}, "T": {"type": "DT_FLOAT"}}}, {"name": "model/conv2d_37/Conv2D", "op": "Conv2D", "input": ["model/tf.math.reduce_mean_26/Mean", "model/conv2d_37/Conv2D/ReadVariableOp"], "device": "/device:CPU:0", "attr": {"data_format": {"s": "TkhXQw=="}, "explicit_paddings": {"list": {}}, "T": {"type": "DT_FLOAT"}, "dilations": {"list": {"i": ["1", "1", "1", "1"]}}, "padding": {"s": "VkFMSUQ="}, "use_cudnn_on_gpu": {"b": true}, "strides": {"list": {"i": ["1", "1", "1", "1"]}}}}, {"name": "model/depthwise_conv2d_22/depthwise", "op": "DepthwiseConv2dNative", "input": ["model/conv2d_40/Conv2D", "model/depthwise_conv2d_22/depthwise/ReadVariableOp"], "attr": {"T": {"type": "DT_FLOAT"}, "explicit_paddings": {"list": {}}, "padding": {"s": "U0FNRQ=="}, "strides": {"list": {"i": ["1", "1", "1", "1"]}}, "dilations": {"list": {"i": ["1", "1", "1", "1"]}}, "data_format": {"s": "TkhXQw=="}}}, {"name": "model/depthwise_conv2d_24/depthwise", "op": "DepthwiseConv2dNative", "input": ["model/conv2d_44/Conv2D", "model/depthwise_conv2d_24/depthwise/ReadVariableOp"], "attr": {"strides": {"list": {"i": ["1", "1", "1", "1"]}}, "data_format": {"s": "TkhXQw=="}, "T": {"type": "DT_FLOAT"}, "padding": {"s": "U0FNRQ=="}, "explicit_paddings": {"list": {}}, "dilations": {"list": {"i": ["1", "1", "1", "1"]}}}}, {"name": "model/depthwise_conv2d_27/depthwise", "op": "DepthwiseConv2dNative", "input": ["model/conv2d_49/Conv2D", "model/depthwise_conv2d_27/depthwise/ReadVariableOp"], "attr": {"data_format": {"s": "TkhXQw=="}, "T": {"type": "DT_FLOAT"}, "strides": {"list": {"i": ["1", "1", "1", "1"]}}, "padding": {"s": "U0FNRQ=="}, "explicit_paddings": {"list": {}}, "dilations": {"list": {"i": ["1", "1", "1", "1"]}}}}, {"name": "model/tf.math.add_55/Add", "op": "Add", "input": ["model/conv2d_37/Conv2D", "model/tf.math.add_55/Add/y"], "attr": {"T": {"type": "DT_FLOAT"}}}, {"name": "model/tf.math.add_58/Add", "op": "Add", "input": ["model/depthwise_conv2d_22/depthwise", "model/tf.math.add_58/Add/y"], "attr": {"T": {"type": "DT_FLOAT"}}}, {"name": "model/tf.math.add_63/Add", "op": "Add", "input": ["model/depthwise_conv2d_24/depthwise", "model/tf.math.add_63/Add/y"], "attr": {"T": {"type": "DT_FLOAT"}}}, {"name": "model/tf.math.add_69/Add", "op": "Add", "input": ["model/depthwise_conv2d_27/depthwise", "model/tf.math.add_69/Add/y"], "attr": {"T": {"type": "DT_FLOAT"}}}, {"name": "model/tf.nn.relu_32/Relu", "op": "Relu", "input": ["model/tf.math.add_55/Add"], "attr": {"T": {"type": "DT_FLOAT"}}}, {"name": "model/tf.nn.relu_34/Relu", "op": "Relu", "input": ["model/tf.math.add_58/Add"], "attr": {"T": {"type": "DT_FLOAT"}}}, {"name": "model/tf.nn.relu_37/Relu", "op": "Relu", "input": ["model/tf.math.add_63/Add"], "attr": {"T": {"type": "DT_FLOAT"}}}, {"name": "model/tf.nn.relu_41/Relu", "op": "Relu", "input": ["model/tf.math.add_69/Add"], "attr": {"T": {"type": "DT_FLOAT"}}}, {"name": "model/conv2d_38/Conv2D", "op": "Conv2D", "input": ["model/tf.nn.relu_32/Relu", "model/conv2d_38/Conv2D/ReadVariableOp"], "device": "/device:CPU:0", "attr": {"padding": {"s": "VkFMSUQ="}, "T": {"type": "DT_FLOAT"}, "use_cudnn_on_gpu": {"b": true}, "explicit_paddings": {"list": {}}, "strides": {"list": {"i": ["1", "1", "1", "1"]}}, "data_format": {"s": "TkhXQw=="}, "dilations": {"list": {"i": ["1", "1", "1", "1"]}}}}, {"name": "model/tf.math.reduce_mean_27/Mean", "op": "Mean", "input": ["model/tf.nn.relu_34/Relu", "model/tf.math.reduce_mean_27/Mean/reduction_indices"], "attr": {"keep_dims": {"b": true}, "Tidx": {"type": "DT_INT32"}, "T": {"type": "DT_FLOAT"}}}, {"name": "model/conv2d_45/Conv2D", "op": "Conv2D", "input": ["model/tf.nn.relu_37/Relu", "model/conv2d_45/Conv2D/ReadVariableOp"], "device": "/device:CPU:0", "attr": {"strides": {"list": {"i": ["1", "1", "1", "1"]}}, "data_format": {"s": "TkhXQw=="}, "dilations": {"list": {"i": ["1", "1", "1", "1"]}}, "explicit_paddings": {"list": {}}, "T": {"type": "DT_FLOAT"}, "use_cudnn_on_gpu": {"b": true}, "padding": {"s": "VkFMSUQ="}}}, {"name": "model/conv2d_50/Conv2D", "op": "Conv2D", "input": ["model/tf.nn.relu_41/Relu", "model/conv2d_50/Conv2D/ReadVariableOp"], "device": "/device:CPU:0", "attr": {"data_format": {"s": "TkhXQw=="}, "explicit_paddings": {"list": {}}, "T": {"type": "DT_FLOAT"}, "strides": {"list": {"i": ["1", "1", "1", "1"]}}, "dilations": {"list": {"i": ["1", "1", "1", "1"]}}, "use_cudnn_on_gpu": {"b": true}, "padding": {"s": "VkFMSUQ="}}}, {"name": "model/tf.math.add_56/Add", "op": "Add", "input": ["model/conv2d_38/Conv2D", "model/tf.math.add_56/Add/y"], "attr": {"T": {"type": "DT_FLOAT"}}}, {"name": "model/conv2d_41/Conv2D", "op": "Conv2D", "input": ["model/tf.math.reduce_mean_27/Mean", "model/conv2d_41/Conv2D/ReadVariableOp"], "device": "/device:CPU:0", "attr": {"dilations": {"list": {"i": ["1", "1", "1", "1"]}}, "explicit_paddings": {"list": {}}, "data_format": {"s": "TkhXQw=="}, "use_cudnn_on_gpu": {"b": true}, "T": {"type": "DT_FLOAT"}, "padding": {"s": "VkFMSUQ="}, "strides": {"list": {"i": ["1", "1", "1", "1"]}}}}, {"name": "model/depthwise_conv2d_25/depthwise", "op": "DepthwiseConv2dNative", "input": ["model/conv2d_45/Conv2D", "model/depthwise_conv2d_25/depthwise/ReadVariableOp"], "attr": {"padding": {"s": "U0FNRQ=="}, "strides": {"list": {"i": ["1", "1", "1", "1"]}}, "data_format": {"s": "TkhXQw=="}, "explicit_paddings": {"list": {}}, "dilations": {"list": {"i": ["1", "1", "1", "1"]}}, "T": {"type": "DT_FLOAT"}}}, {"name": "model/depthwise_conv2d_28/depthwise", "op": "DepthwiseConv2dNative", "input": ["model/conv2d_50/Conv2D", "model/depthwise_conv2d_28/depthwise/ReadVariableOp"], "attr": {"padding": {"s": "U0FNRQ=="}, "explicit_paddings": {"list": {}}, "strides": {"list": {"i": ["1", "1", "1", "1"]}}, "dilations": {"list": {"i": ["1", "1", "1", "1"]}}, "data_format": {"s": "TkhXQw=="}, "T": {"type": "DT_FLOAT"}}}, {"name": "model/tf.math.sigmoid_8/Sigmoid", "op": "Sigmoid", "input": ["model/tf.math.add_56/Add"], "attr": {"T": {"type": "DT_FLOAT"}}}, {"name": "model/tf.math.add_59/Add", "op": "Add", "input": ["model/conv2d_41/Conv2D", "model/tf.math.add_59/Add/y"], "attr": {"T": {"type": "DT_FLOAT"}}}, {"name": "model/tf.math.add_64/Add", "op": "Add", "input": ["model/depthwise_conv2d_25/depthwise", "model/tf.math.add_64/Add/y"], "attr": {"T": {"type": "DT_FLOAT"}}}, {"name": "model/tf.math.add_70/Add", "op": "Add", "input": ["model/depthwise_conv2d_28/depthwise", "model/tf.math.add_70/Add/y"], "attr": {"T": {"type": "DT_FLOAT"}}}, {"name": "model/tf.math.multiply_19/Mul", "op": "Mul", "input": ["model/tf.nn.relu_31/Relu", "model/tf.math.sigmoid_8/Sigmoid"], "attr": {"T": {"type": "DT_FLOAT"}}}, {"name": "model/tf.nn.relu_35/Relu", "op": "Relu", "input": ["model/tf.math.add_59/Add"], "attr": {"T": {"type": "DT_FLOAT"}}}, {"name": "model/tf.nn.relu_38/Relu", "op": "Relu", "input": ["model/tf.math.add_64/Add"], "attr": {"T": {"type": "DT_FLOAT"}}}, {"name": "model/tf.nn.relu_42/Relu", "op": "Relu", "input": ["model/tf.math.add_70/Add"], "attr": {"T": {"type": "DT_FLOAT"}}}, {"name": "model/conv2d_42/Conv2D", "op": "Conv2D", "input": ["model/tf.nn.relu_35/Relu", "model/conv2d_42/Conv2D/ReadVariableOp"], "device": "/device:CPU:0", "attr": {"data_format": {"s": "TkhXQw=="}, "dilations": {"list": {"i": ["1", "1", "1", "1"]}}, "explicit_paddings": {"list": {}}, "strides": {"list": {"i": ["1", "1", "1", "1"]}}, "padding": {"s": "VkFMSUQ="}, "use_cudnn_on_gpu": {"b": true}, "T": {"type": "DT_FLOAT"}}}, {"name": "model/tf.math.reduce_mean_28/Mean", "op": "Mean", "input": ["model/tf.nn.relu_38/Relu", "model/tf.math.reduce_mean_28/Mean/reduction_indices"], "attr": {"Tidx": {"type": "DT_INT32"}, "keep_dims": {"b": true}, "T": {"type": "DT_FLOAT"}}}, {"name": "model/conv2d_51/Conv2D", "op": "Conv2D", "input": ["model/tf.nn.relu_42/Relu", "model/conv2d_51/Conv2D/ReadVariableOp"], "device": "/device:CPU:0", "attr": {"use_cudnn_on_gpu": {"b": true}, "strides": {"list": {"i": ["1", "1", "1", "1"]}}, "data_format": {"s": "TkhXQw=="}, "padding": {"s": "VkFMSUQ="}, "dilations": {"list": {"i": ["1", "1", "1", "1"]}}, "T": {"type": "DT_FLOAT"}, "explicit_paddings": {"list": {}}}}, {"name": "model/tf.math.add_60/Add", "op": "Add", "input": ["model/conv2d_42/Conv2D", "model/tf.math.add_60/Add/y"], "attr": {"T": {"type": "DT_FLOAT"}}}, {"name": "model/conv2d_46/Conv2D", "op": "Conv2D", "input": ["model/tf.math.reduce_mean_28/Mean", "model/conv2d_46/Conv2D/ReadVariableOp"], "device": "/device:CPU:0", "attr": {"dilations": {"list": {"i": ["1", "1", "1", "1"]}}, "padding": {"s": "VkFMSUQ="}, "strides": {"list": {"i": ["1", "1", "1", "1"]}}, "T": {"type": "DT_FLOAT"}, "use_cudnn_on_gpu": {"b": true}, "explicit_paddings": {"list": {}}, "data_format": {"s": "TkhXQw=="}}}, {"name": "model/depthwise_conv2d_29/depthwise", "op": "DepthwiseConv2dNative", "input": ["model/conv2d_51/Conv2D", "model/depthwise_conv2d_29/depthwise/ReadVariableOp"], "attr": {"strides": {"list": {"i": ["1", "1", "1", "1"]}}, "T": {"type": "DT_FLOAT"}, "data_format": {"s": "TkhXQw=="}, "padding": {"s": "U0FNRQ=="}, "explicit_paddings": {"list": {}}, "dilations": {"list": {"i": ["1", "1", "1", "1"]}}}}, {"name": "model/tf.math.sigmoid_9/Sigmoid", "op": "Sigmoid", "input": ["model/tf.math.add_60/Add"], "attr": {"T": {"type": "DT_FLOAT"}}}, {"name": "model/tf.math.add_65/Add", "op": "Add", "input": ["model/conv2d_46/Conv2D", "model/tf.math.add_65/Add/y"], "attr": {"T": {"type": "DT_FLOAT"}}}, {"name": "model/tf.math.add_71/Add", "op": "Add", "input": ["model/depthwise_conv2d_29/depthwise", "model/tf.math.add_71/Add/y"], "attr": {"T": {"type": "DT_FLOAT"}}}, {"name": "model/tf.math.multiply_20/Mul", "op": "Mul", "input": ["model/tf.nn.relu_34/Relu", "model/tf.math.sigmoid_9/Sigmoid"], "attr": {"T": {"type": "DT_FLOAT"}}}, {"name": "model/tf.nn.relu_39/Relu", "op": "Relu", "input": ["model/tf.math.add_65/Add"], "attr": {"T": {"type": "DT_FLOAT"}}}, {"name": "model/tf.nn.relu_43/Relu", "op": "Relu", "input": ["model/tf.math.add_71/Add"], "attr": {"T": {"type": "DT_FLOAT"}}}, {"name": "model/tf.math.add_61/Add", "op": "Add", "input": ["model/tf.math.multiply_19/Mul", "model/tf.math.multiply_20/Mul"], "attr": {"T": {"type": "DT_FLOAT"}}}, {"name": "model/conv2d_47/Conv2D", "op": "Conv2D", "input": ["model/tf.nn.relu_39/Relu", "model/conv2d_47/Conv2D/ReadVariableOp"], "device": "/device:CPU:0", "attr": {"data_format": {"s": "TkhXQw=="}, "padding": {"s": "VkFMSUQ="}, "dilations": {"list": {"i": ["1", "1", "1", "1"]}}, "strides": {"list": {"i": ["1", "1", "1", "1"]}}, "T": {"type": "DT_FLOAT"}, "explicit_paddings": {"list": {}}, "use_cudnn_on_gpu": {"b": true}}}, {"name": "model/tf.math.reduce_mean_29/Mean", "op": "Mean", "input": ["model/tf.nn.relu_43/Relu", "model/tf.math.reduce_mean_29/Mean/reduction_indices"], "attr": {"T": {"type": "DT_FLOAT"}, "Tidx": {"type": "DT_INT32"}, "keep_dims": {"b": true}}}, {"name": "model/tf.math.add_66/Add", "op": "Add", "input": ["model/conv2d_47/Conv2D", "model/tf.math.add_66/Add/y"], "attr": {"T": {"type": "DT_FLOAT"}}}, {"name": "model/conv2d_52/Conv2D", "op": "Conv2D", "input": ["model/tf.math.reduce_mean_29/Mean", "model/conv2d_52/Conv2D/ReadVariableOp"], "device": "/device:CPU:0", "attr": {"dilations": {"list": {"i": ["1", "1", "1", "1"]}}, "strides": {"list": {"i": ["1", "1", "1", "1"]}}, "T": {"type": "DT_FLOAT"}, "use_cudnn_on_gpu": {"b": true}, "padding": {"s": "VkFMSUQ="}, "explicit_paddings": {"list": {}}, "data_format": {"s": "TkhXQw=="}}}, {"name": "model/tf.math.sigmoid_10/Sigmoid", "op": "Sigmoid", "input": ["model/tf.math.add_66/Add"], "attr": {"T": {"type": "DT_FLOAT"}}}, {"name": "model/tf.math.add_72/Add", "op": "Add", "input": ["model/conv2d_52/Conv2D", "model/tf.math.add_72/Add/y"], "attr": {"T": {"type": "DT_FLOAT"}}}, {"name": "model/tf.math.multiply_21/Mul", "op": "Mul", "input": ["model/tf.nn.relu_38/Relu", "model/tf.math.sigmoid_10/Sigmoid"], "attr": {"T": {"type": "DT_FLOAT"}}}, {"name": "model/tf.nn.relu_44/Relu", "op": "Relu", "input": ["model/tf.math.add_72/Add"], "attr": {"T": {"type": "DT_FLOAT"}}}, {"name": "model/tf.math.add_67/Add", "op": "Add", "input": ["model/tf.math.add_61/Add", "model/tf.math.multiply_21/Mul"], "attr": {"T": {"type": "DT_FLOAT"}}}, {"name": "model/conv2d_53/Conv2D", "op": "Conv2D", "input": ["model/tf.nn.relu_44/Relu", "model/conv2d_53/Conv2D/ReadVariableOp"], "device": "/device:CPU:0", "attr": {"T": {"type": "DT_FLOAT"}, "strides": {"list": {"i": ["1", "1", "1", "1"]}}, "explicit_paddings": {"list": {}}, "data_format": {"s": "TkhXQw=="}, "padding": {"s": "VkFMSUQ="}, "use_cudnn_on_gpu": {"b": true}, "dilations": {"list": {"i": ["1", "1", "1", "1"]}}}}, {"name": "model/tf.math.add_73/Add", "op": "Add", "input": ["model/conv2d_53/Conv2D", "model/tf.math.add_73/Add/y"], "attr": {"T": {"type": "DT_FLOAT"}}}, {"name": "model/tf.math.sigmoid_11/Sigmoid", "op": "Sigmoid", "input": ["model/tf.math.add_73/Add"], "attr": {"T": {"type": "DT_FLOAT"}}}, {"name": "model/tf.math.multiply_22/Mul", "op": "Mul", "input": ["model/tf.nn.relu_43/Relu", "model/tf.math.sigmoid_11/Sigmoid"], "attr": {"T": {"type": "DT_FLOAT"}}}, {"name": "model/tf.math.add_74/Add", "op": "Add", "input": ["model/tf.math.add_67/Add", "model/tf.math.multiply_22/Mul"], "attr": {"T": {"type": "DT_FLOAT"}}}, {"name": "model/conv2d_54/Conv2D", "op": "Conv2D", "input": ["model/tf.math.add_74/Add", "model/conv2d_54/Conv2D/ReadVariableOp"], "device": "/device:CPU:0", "attr": {"padding": {"s": "VkFMSUQ="}, "strides": {"list": {"i": ["1", "1", "1", "1"]}}, "T": {"type": "DT_FLOAT"}, "use_cudnn_on_gpu": {"b": true}, "data_format": {"s": "TkhXQw=="}, "dilations": {"list": {"i": ["1", "1", "1", "1"]}}, "explicit_paddings": {"list": {}}}}, {"name": "model/tf.math.add_75/Add", "op": "Add", "input": ["model/conv2d_54/Conv2D", "model/tf.math.add_75/Add/y"], "attr": {"T": {"type": "DT_FLOAT"}}}, {"name": "model/tf.math.add_77/Add", "op": "Add", "input": ["model/tf.math.add_75/Add", "model/tf.math.add_76/Add"], "attr": {"T": {"type": "DT_FLOAT"}}}, {"name": "model/tf.nn.relu_45/Relu", "op": "Relu", "input": ["model/tf.math.add_77/Add"], "attr": {"T": {"type": "DT_FLOAT"}}}, {"name": "model/conv2d_56/Conv2D", "op": "Conv2D", "input": ["model/tf.nn.relu_45/Relu", "model/conv2d_56/Conv2D/ReadVariableOp"], "device": "/device:CPU:0", "attr": {"T": {"type": "DT_FLOAT"}, "explicit_paddings": {"list": {}}, "strides": {"list": {"i": ["1", "1", "1", "1"]}}, "dilations": {"list": {"i": ["1", "1", "1", "1"]}}, "padding": {"s": "VkFMSUQ="}, "use_cudnn_on_gpu": {"b": true}, "data_format": {"s": "TkhXQw=="}}}, {"name": "model/tf.math.add_78/Add", "op": "Add", "input": ["model/conv2d_56/Conv2D", "model/tf.math.add_78/Add/y"], "attr": {"T": {"type": "DT_FLOAT"}}}, {"name": "model/tf.nn.relu_46/Relu", "op": "Relu", "input": ["model/tf.math.add_78/Add"], "attr": {"T": {"type": "DT_FLOAT"}}}, {"name": "model/conv2d_57/Conv2D", "op": "Conv2D", "input": ["model/tf.nn.relu_46/Relu", "model/conv2d_57/Conv2D/ReadVariableOp"], "device": "/device:CPU:0", "attr": {"explicit_paddings": {"list": {}}, "padding": {"s": "VkFMSUQ="}, "use_cudnn_on_gpu": {"b": true}, "dilations": {"list": {"i": ["1", "1", "1", "1"]}}, "strides": {"list": {"i": ["1", "1", "1", "1"]}}, "data_format": {"s": "TkhXQw=="}, "T": {"type": "DT_FLOAT"}}}, {"name": "model/conv2d_58/Conv2D", "op": "Conv2D", "input": ["model/tf.nn.relu_46/Relu", "model/conv2d_58/Conv2D/ReadVariableOp"], "device": "/device:CPU:0", "attr": {"T": {"type": "DT_FLOAT"}, "explicit_paddings": {"list": {}}, "data_format": {"s": "TkhXQw=="}, "strides": {"list": {"i": ["1", "1", "1", "1"]}}, "dilations": {"list": {"i": ["1", "1", "1", "1"]}}, "use_cudnn_on_gpu": {"b": true}, "padding": {"s": "VkFMSUQ="}}}, {"name": "model/conv2d_60/Conv2D", "op": "Conv2D", "input": ["model/tf.nn.relu_46/Relu", "model/conv2d_60/Conv2D/ReadVariableOp"], "device": "/device:CPU:0", "attr": {"T": {"type": "DT_FLOAT"}, "padding": {"s": "VkFMSUQ="}, "strides": {"list": {"i": ["1", "1", "1", "1"]}}, "use_cudnn_on_gpu": {"b": true}, "explicit_paddings": {"list": {}}, "data_format": {"s": "TkhXQw=="}, "dilations": {"list": {"i": ["1", "1", "1", "1"]}}}}, {"name": "model/conv2d_63/Conv2D", "op": "Conv2D", "input": ["model/tf.nn.relu_46/Relu", "model/conv2d_63/Conv2D/ReadVariableOp"], "device": "/device:CPU:0", "attr": {"T": {"type": "DT_FLOAT"}, "dilations": {"list": {"i": ["1", "1", "1", "1"]}}, "use_cudnn_on_gpu": {"b": true}, "data_format": {"s": "TkhXQw=="}, "explicit_paddings": {"list": {}}, "padding": {"s": "VkFMSUQ="}, "strides": {"list": {"i": ["1", "1", "1", "1"]}}}}, {"name": "model/depthwise_conv2d_30/depthwise", "op": "DepthwiseConv2dNative", "input": ["model/conv2d_57/Conv2D", "model/depthwise_conv2d_30/depthwise/ReadVariableOp"], "attr": {"padding": {"s": "U0FNRQ=="}, "dilations": {"list": {"i": ["1", "1", "1", "1"]}}, "explicit_paddings": {"list": {}}, "strides": {"list": {"i": ["1", "1", "1", "1"]}}, "T": {"type": "DT_FLOAT"}, "data_format": {"s": "TkhXQw=="}}}, {"name": "model/depthwise_conv2d_31/depthwise", "op": "DepthwiseConv2dNative", "input": ["model/conv2d_58/Conv2D", "model/depthwise_conv2d_31/depthwise/ReadVariableOp"], "attr": {"strides": {"list": {"i": ["1", "1", "1", "1"]}}, "dilations": {"list": {"i": ["1", "1", "1", "1"]}}, "T": {"type": "DT_FLOAT"}, "data_format": {"s": "TkhXQw=="}, "explicit_paddings": {"list": {}}, "padding": {"s": "U0FNRQ=="}}}, {"name": "model/depthwise_conv2d_33/depthwise", "op": "DepthwiseConv2dNative", "input": ["model/conv2d_60/Conv2D", "model/depthwise_conv2d_33/depthwise/ReadVariableOp"], "attr": {"dilations": {"list": {"i": ["1", "1", "1", "1"]}}, "T": {"type": "DT_FLOAT"}, "strides": {"list": {"i": ["1", "1", "1", "1"]}}, "data_format": {"s": "TkhXQw=="}, "explicit_paddings": {"list": {}}, "padding": {"s": "U0FNRQ=="}}}, {"name": "model/depthwise_conv2d_36/depthwise", "op": "DepthwiseConv2dNative", "input": ["model/conv2d_63/Conv2D", "model/depthwise_conv2d_36/depthwise/ReadVariableOp"], "attr": {"padding": {"s": "U0FNRQ=="}, "explicit_paddings": {"list": {}}, "dilations": {"list": {"i": ["1", "1", "1", "1"]}}, "strides": {"list": {"i": ["1", "1", "1", "1"]}}, "T": {"type": "DT_FLOAT"}, "data_format": {"s": "TkhXQw=="}}}, {"name": "model/tf.math.add_79/Add", "op": "Add", "input": ["model/depthwise_conv2d_30/depthwise", "model/tf.math.add_79/Add/y"], "attr": {"T": {"type": "DT_FLOAT"}}}, {"name": "model/tf.math.add_82/Add", "op": "Add", "input": ["model/depthwise_conv2d_31/depthwise", "model/tf.math.add_82/Add/y"], "attr": {"T": {"type": "DT_FLOAT"}}}, {"name": "model/tf.math.add_87/Add", "op": "Add", "input": ["model/depthwise_conv2d_33/depthwise", "model/tf.math.add_87/Add/y"], "attr": {"T": {"type": "DT_FLOAT"}}}, {"name": "model/tf.math.add_93/Add", "op": "Add", "input": ["model/depthwise_conv2d_36/depthwise", "model/tf.math.add_93/Add/y"], "attr": {"T": {"type": "DT_FLOAT"}}}, {"name": "model/tf.nn.relu_47/Relu", "op": "Relu", "input": ["model/tf.math.add_79/Add"], "attr": {"T": {"type": "DT_FLOAT"}}}, {"name": "model/tf.nn.relu_48/Relu", "op": "Relu", "input": ["model/tf.math.add_82/Add"], "attr": {"T": {"type": "DT_FLOAT"}}}, {"name": "model/tf.nn.relu_50/Relu", "op": "Relu", "input": ["model/tf.math.add_87/Add"], "attr": {"T": {"type": "DT_FLOAT"}}}, {"name": "model/tf.nn.relu_53/Relu", "op": "Relu", "input": ["model/tf.math.add_93/Add"], "attr": {"T": {"type": "DT_FLOAT"}}}, {"name": "model/tf.math.reduce_mean_30/Mean", "op": "Mean", "input": ["model/tf.nn.relu_47/Relu", "model/tf.math.reduce_mean_30/Mean/reduction_indices"], "attr": {"keep_dims": {"b": true}, "Tidx": {"type": "DT_INT32"}, "T": {"type": "DT_FLOAT"}}}, {"name": "model/conv…
erators__.add_10/y"], "attr": {"T": {"type": "DT_FLOAT"}}}, {"name": "model/tf.reshape_18/Reshape", "op": "Reshape", "input": ["model/tf.math.reduce_mean_54/Mean", "model/tf.reshape_18/Reshape/shape"], "attr": {"T": {"type": "DT_FLOAT"}, "Tshape": {"type": "DT_INT32"}}}, {"name": "model/depthwise_conv2d_55/depthwise", "op": "DepthwiseConv2dNative", "input": ["model/conv2d_96/Conv2D", "model/depthwise_conv2d_55/depthwise/ReadVariableOp"], "attr": {"T": {"type": "DT_FLOAT"}, "explicit_paddings": {"list": {}}, "dilations": {"list": {"i": ["1", "1", "1", "1"]}}, "data_format": {"s": "TkhXQw=="}, "padding": {"s": "U0FNRQ=="}, "strides": {"list": {"i": ["1", "1", "1", "1"]}}}}, {"name": "model/depthwise_conv2d_58/depthwise", "op": "DepthwiseConv2dNative", "input": ["model/conv2d_99/Conv2D", "model/depthwise_conv2d_58/depthwise/ReadVariableOp"], "attr": {"strides": {"list": {"i": ["1", "1", "1", "1"]}}, "padding": {"s": "U0FNRQ=="}, "data_format": {"s": "TkhXQw=="}, "explicit_paddings": {"list": {}}, "dilations": {"list": {"i": ["1", "1", "1", "1"]}}, "T": {"type": "DT_FLOAT"}}}, {"name": "model/tf.math.sqrt_10/Sqrt", "op": "Rsqrt", "input": ["model/tf.__operators__.add_10/AddV2"], "attr": {"T": {"type": "DT_FLOAT"}}}, {"name": "model/tf.math.reduce_mean_55/Mean", "op": "Mean", "input": ["model/tf.reshape_18/Reshape", "model/tf.math.reduce_mean_55/Const"], "attr": {"Tidx": {"type": "DT_INT32"}, "T": {"type": "DT_FLOAT"}, "keep_dims": {"b": true}}}, {"name": "model/tf.math.reduce_mean_56/Mean", "op": "Mean", "input": ["model/tf.reshape_18/Reshape", "model/tf.math.reduce_mean_56/Const"], "attr": {"T": {"type": "DT_FLOAT"}, "keep_dims": {"b": true}, "Tidx": {"type": "DT_INT32"}}}, {"name": "model/tf.math.add_139/Add", "op": "Add", "input": ["model/depthwise_conv2d_55/depthwise", "model/tf.math.add_139/Add/y"], "attr": {"T": {"type": "DT_FLOAT"}}}, {"name": "model/tf.math.add_145/Add", "op": "Add", "input": ["model/depthwise_conv2d_58/depthwise", "model/tf.math.add_145/Add/y"], "attr": {"T": {"type": "DT_FLOAT"}}}, {"name": "model/tf.math.truediv_10/truediv", "op": "Mul", "input": ["model/tf.math.subtract_21/Sub", "model/tf.math.sqrt_10/Sqrt"], "attr": {"T": {"type": "DT_FLOAT"}}}, {"name": "model/tf.math.subtract_23/Sub", "op": "Sub", "input": ["model/tf.reshape_18/Reshape", "model/tf.math.reduce_mean_55/Mean"], "attr": {"T": {"type": "DT_FLOAT"}}}, {"name": "model/tf.math.subtract_22/Sub", "op": "SquaredDifference", "input": ["model/tf.reshape_18/Reshape", "model/tf.math.reduce_mean_56/Mean"], "attr": {"T": {"type": "DT_FLOAT"}}}, {"name": "model/tf.nn.relu_81/Relu", "op": "Relu", "input": ["model/tf.math.add_139/Add"], "attr": {"T": {"type": "DT_FLOAT"}}}, {"name": "model/tf.nn.relu_84/Relu", "op": "Relu", "input": ["model/tf.math.add_145/Add"], "attr": {"T": {"type": "DT_FLOAT"}}}, {"name": "model/tf.reshape_17/Reshape", "op": "Reshape", "input": ["model/tf.math.truediv_10/truediv", "model/tf.reshape_17/Reshape/shape"], "attr": {"Tshape": {"type": "DT_INT64"}, "T": {"type": "DT_FLOAT"}}}, {"name": "model/tf.math.reduce_mean_57/Mean", "op": "Mean", "input": ["model/tf.math.subtract_22/Sub", "model/tf.math.reduce_mean_57/Const"], "attr": {"Tidx": {"type": "DT_INT32"}, "keep_dims": {"b": true}, "T": {"type": "DT_FLOAT"}}}, {"name": "model/tf.math.reduce_mean_58/Mean", "op": "Mean", "input": ["model/tf.nn.relu_81/Relu", "model/tf.math.reduce_mean_58/Mean/reduction_indices"], "attr": {"keep_dims": {"b": true}, "T": {"type": "DT_FLOAT"}, "Tidx": {"type": "DT_INT32"}}}, {"name": "model/conv2d_100/Conv2D", "op": "Conv2D", "input": ["model/tf.nn.relu_84/Relu", "model/conv2d_100/Conv2D/ReadVariableOp"], "device": "/device:CPU:0", "attr": {"explicit_paddings": {"list": {}}, "T": {"type": "DT_FLOAT"}, "padding": {"s": "VkFMSUQ="}, "strides": {"list": {"i": ["1", "1", "1", "1"]}}, "dilations": {"list": {"i": ["1", "1", "1", "1"]}}, "data_format": {"s": "TkhXQw=="}, "use_cudnn_on_gpu": {"b": true}}}, {"name": "model/tf.math.multiply_40/Mul", "op": "Mul", "input": ["model/tf.reshape_17/Reshape", "model/tf.math.multiply_40/Mul/y"], "attr": {"T": {"type": "DT_FLOAT"}}}, {"name": "model/tf.__operators__.add_11/AddV2", "op": "AddV2", "input": ["model/tf.math.reduce_mean_57/Mean", "model/tf.__operators__.add_11/y"], "attr": {"T": {"type": "DT_FLOAT"}}}, {"name": "model/tf.reshape_20/Reshape", "op": "Reshape", "input": ["model/tf.math.reduce_mean_58/Mean", "model/tf.reshape_20/Reshape/shape"], "attr": {"T": {"type": "DT_FLOAT"}, "Tshape": {"type": "DT_INT32"}}}, {"name": "model/depthwise_conv2d_59/depthwise", "op": "DepthwiseConv2dNative", "input": ["model/conv2d_100/Conv2D", "model/depthwise_conv2d_59/depthwise/ReadVariableOp"], "attr": {"strides": {"list": {"i": ["1", "1", "1", "1"]}}, "padding": {"s": "U0FNRQ=="}, "T": {"type": "DT_FLOAT"}, "data_format": {"s": "TkhXQw=="}, "dilations": {"list": {"i": ["1", "1", "1", "1"]}}, "explicit_paddings": {"list": {}}}}, {"name": "model/tf.math.add_131/Add", "op": "Add", "input": ["model/tf.math.multiply_40/Mul", "model/tf.math.add_131/Add/y"], "attr": {"T": {"type": "DT_FLOAT"}}}, {"name": "model/tf.math.sqrt_11/Sqrt", "op": "Rsqrt", "input": ["model/tf.__operators__.add_11/AddV2"], "attr": {"T": {"type": "DT_FLOAT"}}}, {"name": "model/tf.math.reduce_mean_59/Mean", "op": "Mean", "input": ["model/tf.reshape_20/Reshape", "model/tf.math.reduce_mean_59/Const"], "attr": {"keep_dims": {"b": true}, "Tidx": {"type": "DT_INT32"}, "T": {"type": "DT_FLOAT"}}}, {"name": "model/tf.math.reduce_mean_60/Mean", "op": "Mean", "input": ["model/tf.reshape_20/Reshape", "model/tf.math.reduce_mean_60/Const"], "attr": {"keep_dims": {"b": true}, "Tidx": {"type": "DT_INT32"}, "T": {"type": "DT_FLOAT"}}}, {"name": "model/tf.math.add_146/Add", "op": "Add", "input": ["model/depthwise_conv2d_59/depthwise", "model/tf.math.add_146/Add/y"], "attr": {"T": {"type": "DT_FLOAT"}}}, {"name": "model/tf.math.sigmoid_20/Sigmoid", "op": "Sigmoid", "input": ["model/tf.math.add_131/Add"], "attr": {"T": {"type": "DT_FLOAT"}}}, {"name": "model/tf.math.truediv_11/truediv", "op": "Mul", "input": ["model/tf.math.subtract_23/Sub", "model/tf.math.sqrt_11/Sqrt"], "attr": {"T": {"type": "DT_FLOAT"}}}, {"name": "model/tf.math.subtract_25/Sub", "op": "Sub", "input": ["model/tf.reshape_20/Reshape", "model/tf.math.reduce_mean_59/Mean"], "attr": {"T": {"type": "DT_FLOAT"}}}, {"name": "model/tf.math.subtract_24/Sub", "op": "SquaredDifference", "input": ["model/tf.reshape_20/Reshape", "model/tf.math.reduce_mean_60/Mean"], "attr": {"T": {"type": "DT_FLOAT"}}}, {"name": "model/tf.nn.relu_85/Relu", "op": "Relu", "input": ["model/tf.math.add_146/Add"], "attr": {"T": {"type": "DT_FLOAT"}}}, {"name": "model/tf.math.multiply_41/Mul", "op": "Mul", "input": ["model/tf.nn.relu_76/Relu", "model/tf.math.sigmoid_20/Sigmoid"], "attr": {"T": {"type": "DT_FLOAT"}}}, {"name": "model/tf.reshape_19/Reshape", "op": "Reshape", "input": ["model/tf.math.truediv_11/truediv", "model/tf.reshape_19/Reshape/shape"], "attr": {"Tshape": {"type": "DT_INT64"}, "T": {"type": "DT_FLOAT"}}}, {"name": "model/tf.math.reduce_mean_61/Mean", "op": "Mean", "input": ["model/tf.math.subtract_24/Sub", "model/tf.math.reduce_mean_61/Const"], "attr": {"Tidx": {"type": "DT_INT32"}, "keep_dims": {"b": true}, "T": {"type": "DT_FLOAT"}}}, {"name": "model/tf.math.reduce_mean_62/Mean", "op": "Mean", "input": ["model/tf.nn.relu_85/Relu", "model/tf.math.reduce_mean_62/Mean/reduction_indices"], "attr": {"Tidx": {"type": "DT_INT32"}, "T": {"type": "DT_FLOAT"}, "keep_dims": {"b": true}}}, {"name": "model/tf.math.multiply_43/Mul", "op": "Mul", "input": ["model/tf.reshape_19/Reshape", "model/tf.math.multiply_43/Mul/y"], "attr": {"T": {"type": "DT_FLOAT"}}}, {"name": "model/tf.__operators__.add_12/AddV2", "op": "AddV2", "input": ["model/tf.math.reduce_mean_61/Mean", "model/tf.__operators__.add_12/y"], "attr": {"T": {"type": "DT_FLOAT"}}}, {"name": "model/tf.reshape_22/Reshape", "op": "Reshape", "input": ["model/tf.math.reduce_mean_62/Mean", "model/tf.reshape_22/Reshape/shape"], "attr": {"T": {"type": "DT_FLOAT"}, "Tshape": {"type": "DT_INT32"}}}, {"name": "model/tf.math.add_135/Add", "op": "Add", "input": ["model/tf.math.multiply_43/Mul", "model/tf.math.add_135/Add/y"], "attr": {"T": {"type": "DT_FLOAT"}}}, {"name": "model/tf.math.sqrt_12/Sqrt", "op": "Rsqrt", "input": ["model/tf.__operators__.add_12/AddV2"], "attr": {"T": {"type": "DT_FLOAT"}}}, {"name": "model/tf.math.reduce_mean_63/Mean", "op": "Mean", "input": ["model/tf.reshape_22/Reshape", "model/tf.math.reduce_mean_63/Const"], "attr": {"T": {"type": "DT_FLOAT"}, "keep_dims": {"b": true}, "Tidx": {"type": "DT_INT32"}}}, {"name": "model/tf.math.reduce_mean_64/Mean", "op": "Mean", "input": ["model/tf.reshape_22/Reshape", "model/tf.math.reduce_mean_64/Const"], "attr": {"keep_dims": {"b": true}, "Tidx": {"type": "DT_INT32"}, "T": {"type": "DT_FLOAT"}}}, {"name": "model/tf.math.sigmoid_21/Sigmoid", "op": "Sigmoid", "input": ["model/tf.math.add_135/Add"], "attr": {"T": {"type": "DT_FLOAT"}}}, {"name": "model/tf.math.truediv_12/truediv", "op": "Mul", "input": ["model/tf.math.subtract_25/Sub", "model/tf.math.sqrt_12/Sqrt"], "attr": {"T": {"type": "DT_FLOAT"}}}, {"name": "model/tf.math.subtract_27/Sub", "op": "Sub", "input": ["model/tf.reshape_22/Reshape", "model/tf.math.reduce_mean_63/Mean"], "attr": {"T": {"type": "DT_FLOAT"}}}, {"name": "model/tf.math.subtract_26/Sub", "op": "SquaredDifference", "input": ["model/tf.reshape_22/Reshape", "model/tf.math.reduce_mean_64/Mean"], "attr": {"T": {"type": "DT_FLOAT"}}}, {"name": "model/tf.math.multiply_44/Mul", "op": "Mul", "input": ["model/tf.nn.relu_78/Relu", "model/tf.math.sigmoid_21/Sigmoid"], "attr": {"T": {"type": "DT_FLOAT"}}}, {"name": "model/tf.reshape_21/Reshape", "op": "Reshape", "input": ["model/tf.math.truediv_12/truediv", "model/tf.reshape_21/Reshape/shape"], "attr": {"T": {"type": "DT_FLOAT"}, "Tshape": {"type": "DT_INT64"}}}, {"name": "model/tf.math.reduce_mean_65/Mean", "op": "Mean", "input": ["model/tf.math.subtract_26/Sub", "model/tf.math.reduce_mean_65/Const"], "attr": {"keep_dims": {"b": true}, "T": {"type": "DT_FLOAT"}, "Tidx": {"type": "DT_INT32"}}}, {"name": "model/tf.math.add_136/Add", "op": "Add", "input": ["model/tf.math.multiply_41/Mul", "model/tf.math.multiply_44/Mul"], "attr": {"T": {"type": "DT_FLOAT"}}}, {"name": "model/tf.math.multiply_46/Mul", "op": "Mul", "input": ["model/tf.reshape_21/Reshape", "model/tf.math.multiply_46/Mul/y"], "attr": {"T": {"type": "DT_FLOAT"}}}, {"name": "model/tf.__operators__.add_13/AddV2", "op": "AddV2", "input": ["model/tf.math.reduce_mean_65/Mean", "model/tf.__operators__.add_13/y"], "attr": {"T": {"type": "DT_FLOAT"}}}, {"name": "model/tf.math.add_141/Add", "op": "Add", "input": ["model/tf.math.multiply_46/Mul", "model/tf.math.add_141/Add/y"], "attr": {"T": {"type": "DT_FLOAT"}}}, {"name": "model/tf.math.sqrt_13/Sqrt", "op": "Rsqrt", "input": ["model/tf.__operators__.add_13/AddV2"], "attr": {"T": {"type": "DT_FLOAT"}}}, {"name": "model/tf.math.sigmoid_22/Sigmoid", "op": "Sigmoid", "input": ["model/tf.math.add_141/Add"], "attr": {"T": {"type": "DT_FLOAT"}}}, {"name": "model/tf.math.truediv_13/truediv", "op": "Mul", "input": ["model/tf.math.subtract_27/Sub", "model/tf.math.sqrt_13/Sqrt"], "attr": {"T": {"type": "DT_FLOAT"}}}, {"name": "model/tf.math.multiply_47/Mul", "op": "Mul", "input": ["model/tf.nn.relu_81/Relu", "model/tf.math.sigmoid_22/Sigmoid"], "attr": {"T": {"type": "DT_FLOAT"}}}, {"name": "model/tf.reshape_23/Reshape", "op": "Reshape", "input": ["model/tf.math.truediv_13/truediv", "model/tf.reshape_23/Reshape/shape"], "attr": {"T": {"type": "DT_FLOAT"}, "Tshape": {"type": "DT_INT64"}}}, {"name": "model/tf.math.add_142/Add", "op": "Add", "input": ["model/tf.math.add_136/Add", "model/tf.math.multiply_47/Mul"], "attr": {"T": {"type": "DT_FLOAT"}}}, {"name": "model/tf.math.multiply_49/Mul", "op": "Mul", "input": ["model/tf.reshape_23/Reshape", "model/tf.math.multiply_49/Mul/y"], "attr": {"T": {"type": "DT_FLOAT"}}}, {"name": "model/tf.math.add_148/Add", "op": "Add", "input": ["model/tf.math.multiply_49/Mul", "model/tf.math.add_148/Add/y"], "attr": {"T": {"type": "DT_FLOAT"}}}, {"name": "model/tf.math.sigmoid_23/Sigmoid", "op": "Sigmoid", "input": ["model/tf.math.add_148/Add"], "attr": {"T": {"type": "DT_FLOAT"}}}, {"name": "model/tf.math.multiply_50/Mul", "op": "Mul", "input": ["model/tf.nn.relu_85/Relu", "model/tf.math.sigmoid_23/Sigmoid"], "attr": {"T": {"type": "DT_FLOAT"}}}, {"name": "model/tf.math.add_149/Add", "op": "Add", "input": ["model/tf.math.add_142/Add", "model/tf.math.multiply_50/Mul"], "attr": {"T": {"type": "DT_FLOAT"}}}, {"name": "model/conv2d_101/Conv2D", "op": "Conv2D", "input": ["model/tf.math.add_149/Add", "model/conv2d_101/Conv2D/ReadVariableOp"], "device": "/device:CPU:0", "attr": {"strides": {"list": {"i": ["1", "1", "1", "1"]}}, "use_cudnn_on_gpu": {"b": true}, "dilations": {"list": {"i": ["1", "1", "1", "1"]}}, "explicit_paddings": {"list": {}}, "data_format": {"s": "TkhXQw=="}, "padding": {"s": "VkFMSUQ="}, "T": {"type": "DT_FLOAT"}}}, {"name": "model/tf.math.add_150/Add", "op": "Add", "input": ["model/conv2d_101/Conv2D", "model/tf.math.add_150/Add/y"], "attr": {"T": {"type": "DT_FLOAT"}}}, {"name": "model/tf.math.add_151/Add", "op": "Add", "input": ["model/tf.math.add_150/Add", "model/tf.nn.relu_74/Relu"], "attr": {"T": {"type": "DT_FLOAT"}}}, {"name": "model/tf.nn.relu_86/Relu", "op": "Relu", "input": ["model/tf.math.add_151/Add"], "attr": {"T": {"type": "DT_FLOAT"}}}, {"name": "model/conv2d_102/Conv2D", "op": "Conv2D", "input": ["model/tf.nn.relu_86/Relu", "model/conv2d_102/Conv2D/ReadVariableOp"], "device": "/device:CPU:0", "attr": {"explicit_paddings": {"list": {}}, "dilations": {"list": {"i": ["1", "1", "1", "1"]}}, "use_cudnn_on_gpu": {"b": true}, "data_format": {"s": "TkhXQw=="}, "T": {"type": "DT_FLOAT"}, "strides": {"list": {"i": ["1", "1", "1", "1"]}}, "padding": {"s": "VkFMSUQ="}}}, {"name": "model/tf.math.add_152/Add", "op": "Add", "input": ["model/conv2d_102/Conv2D", "model/tf.math.add_152/Add/y"], "attr": {"T": {"type": "DT_FLOAT"}}}, {"name": "model/tf.nn.relu_87/Relu", "op": "Relu", "input": ["model/tf.math.add_152/Add"], "attr": {"T": {"type": "DT_FLOAT"}}}, {"name": "model/depthwise_conv2d_60/depthwise", "op": "DepthwiseConv2dNative", "input": ["model/tf.nn.relu_87/Relu", "model/depthwise_conv2d_60/depthwise/ReadVariableOp"], "attr": {"strides": {"list": {"i": ["1", "1", "1", "1"]}}, "dilations": {"list": {"i": ["1", "1", "1", "1"]}}, "T": {"type": "DT_FLOAT"}, "padding": {"s": "VkFMSUQ="}, "data_format": {"s": "TkhXQw=="}, "explicit_paddings": {"list": {}}}}, {"name": "model/tf.math.add_153/Add", "op": "Add", "input": ["model/depthwise_conv2d_60/depthwise", "model/tf.math.add_153/Add/y"], "attr": {"T": {"type": "DT_FLOAT"}}}, {"name": "model/tf.reshape_24/Reshape", "op": "Reshape", "input": ["model/tf.math.add_153/Add", "model/tf.reshape_24/Reshape/shape"], "attr": {"Tshape": {"type": "DT_INT64"}, "T": {"type": "DT_FLOAT"}}}, {"name": "model/tf.linalg.matmul/MatMul", "op": "MatMul", "input": ["model/tf.reshape_24/Reshape", "model/tf.linalg.matmul/MatMul/b"], "device": "/device:CPU:0", "attr": {"T": {"type": "DT_FLOAT"}, "transpose_a": {"b": false}, "transpose_b": {"b": true}}}, {"name": "model/tf.math.add_154/Add", "op": "Add", "input": ["model/tf.linalg.matmul/MatMul", "model/tf.math.add_154/Add/y"], "attr": {"T": {"type": "DT_FLOAT"}}}, {"name": "model/tf.reshape_25/Reshape", "op": "Reshape", "input": ["model/tf.math.add_154/Add", "model/tf.reshape_25/Reshape/shape"], "attr": {"Tshape": {"type": "DT_INT64"}, "T": {"type": "DT_FLOAT"}}}, {"name": "model/tf.math.multiply_51/Mul", "op": "Mul", "input": ["model/tf.reshape_25/Reshape", "model/tf.math.multiply_51/Mul/y"], "attr": {"T": {"type": "DT_FLOAT"}}}, {"name": "model/tf.math.add_155/Add", "op": "Add", "input": ["model/tf.math.multiply_51/Mul", "model/tf.math.add_155/Add/y"], "attr": {"T": {"type": "DT_FLOAT"}}}, {"name": "model/p_re_lu/Relu", "op": "Prelu", "input": ["model/tf.math.add_155/Add", "model/p_re_lu/Neg"]}, {"name": "model/tf.reshape_26/Reshape", "op": "Reshape", "input": ["model/p_re_lu/Relu", "model/tf.reshape_26/Reshape/shape"], "attr": {"Tshape": {"type": "DT_INT64"}, "T": {"type": "DT_FLOAT"}}}, {"name": "Identity", "op": "Identity", "input": ["model/tf.reshape_26/Reshape"], "attr": {"T": {"type": "DT_FLOAT"}}}], "library": {}, "versions": {"producer": 561}}, "weightsManifest": [{"paths": ["group1-shard1of1.bin"], "weights": [{"name": "model/p_re_lu/Neg", "shape": [1, 1], "dtype": "float32"}, {"name": "model/tf.math.reduce_mean_51/Const", "shape": [3], "dtype": "int32"}, {"name": "model/conv2d_91/Conv2D/ReadVariableOp", "shape": [1, 1, 32, 32], "dtype": "float32"}, {"name": "model/depthwise_conv2d_50/depthwise/ReadVariableOp", "shape": [3, 3, 32, 1], "dtype": "float32"}, {"name": "model/tf.math.add_129/Add/y", "shape": [32], "dtype": "float32"}, {"name": "model/tf.math.reduce_mean_50/Mean/reduction_indices", "shape": [2], "dtype": "int32"}, {"name": "model/tf.reshape_16/Reshape/shape", "shape": [3], "dtype": "int32"}, {"name": "model/tf.math.reduce_mean_52/Const", "shape": [3], "dtype": "int32"}, {"name": "model/tf.math.reduce_mean_53/Const", "shape": [3], "dtype": "int32"}, {"name": "model/tf.__operators__.add_10/y", "shape": [], "dtype": "float32"}, {"name": "model/tf.reshape_17/Reshape/shape", "shape": [4], "dtype": "int32"}, {"name": "model/tf.math.multiply_40/Mul/y", "shape": [1, 1, 1, 32], "dtype": "float32"}, {"name": "model/tf.math.add_131/Add/y", "shape": [32], "dtype": "float32"}, {"name": "model/tf.math.reduce_mean_55/Const", "shape": [3], "dtype": "int32"}, {"name": "model/conv2d_92/Conv2D/ReadVariableOp", "shape": [1, 1, 32, 32], "dtype": "float32"}, {"name": "model/depthwise_conv2d_51/depthwise/ReadVariableOp", "shape": [3, 3, 32, 1], "dtype": "float32"}, {"name": "model/tf.math.add_132/Add/y", "shape": [32], "dtype": "float32"}, {"name": "model/conv2d_93/Conv2D/ReadVariableOp", "shape": [1, 1, 32, 32], "dtype": "float32"}, {"name": "model/depthwise_conv2d_52/depthwise/ReadVariableOp", "shape": [3, 3, 32, 1], "dtype": "float32"}, {"name": "model/tf.math.add_133/Add/y", "shape": [32], "dtype": "float32"}, {"name": "model/tf.math.reduce_mean_54/Mean/reduction_indices", "shape": [2], "dtype": "int32"}, {"name": "model/tf.reshape_18/Reshape/shape", "shape": [3], "dtype": "int32"}, {"name": "model/tf.math.reduce_mean_56/Const", "shape": [3], "dtype": "int32"}, {"name": "model/tf.math.reduce_mean_57/Const", "shape": [3], "dtype": "int32"}, {"name": "model/tf.__operators__.add_11/y", "shape": [], "dtype": "float32"}, {"name": "model/tf.reshape_19/Reshape/shape", "shape": [4], "dtype": "int32"}, {"name": "model/tf.math.multiply_43/Mul/y", "shape": [1, 1, 1, 32], "dtype": "float32"}, {"name": "model/tf.math.add_135/Add/y", "shape": [32], "dtype": "float32"}, {"name": "model/tf.math.reduce_mean_59/Const", "shape": [3], "dtype": "int32"}, {"name": "model/conv2d_94/Conv2D/ReadVariableOp", "shape": [1, 1, 32, 32], "dtype": "float32"}, {"name": "model/depthwise_conv2d_53/depthwise/ReadVariableOp", "shape": [3, 3, 32, 1], "dtype": "float32"}, {"name": "model/tf.math.add_137/Add/y", "shape": [32], "dtype": "float32"}, {"name": "model/conv2d_95/Conv2D/ReadVariableOp", "shape": [1, 1, 32, 32], "dtype": "float32"}, {"name": "model/depthwise_conv2d_54/depthwise/ReadVariableOp", "shape": [3, 3, 32, 1], "dtype": "float32"}, {"name": "model/tf.math.add_138/Add/y", "shape": [32], "dtype": "float32"}, {"name": "model/conv2d_96/Conv2D/ReadVariableOp", "shape": [1, 1, 32, 32], "dtype": "float32"}, {"name": "model/depthwise_conv2d_55/depthwise/ReadVariableOp", "shape": [3, 3, 32, 1], "dtype": "float32"}, {"name": "model/tf.math.add_139/Add/y", "shape": [32], "dtype": "float32"}, {"name": "model/tf.math.reduce_mean_58/Mean/reduction_indices", "shape": [2], "dtype": "int32"}, {"name": "model/tf.reshape_20/Reshape/shape", "shape": [3], "dtype": "int32"}, {"name": "model/tf.math.reduce_mean_60/Const", "shape": [3], "dtype": "int32"}, {"name": "model/tf.math.reduce_mean_61/Const", "shape": [3], "dtype": "int32"}, {"name": "model/tf.__operators__.add_12/y", "shape": [], "dtype": "float32"}, {"name": "model/tf.reshape_21/Reshape/shape", "shape": [4], "dtype": "int32"}, {"name": "model/tf.math.multiply_46/Mul/y", "shape": [1, 1, 1, 32], "dtype": "float32"}, {"name": "model/tf.math.add_141/Add/y", "shape": [32], "dtype": "float32"}, {"name": "model/tf.math.reduce_mean_63/Const", "shape": [3], "dtype": "int32"}, {"name": "model/conv2d_90/Conv2D/ReadVariableOp", "shape": [1, 1, 128, 32], "dtype": "float32"}, {"name": "model/tf.math.add_128/Add/y", "shape": [32], "dtype": "float32"}, {"name": "model/conv2d_97/Conv2D/ReadVariableOp", "shape": [1, 1, 32, 32], "dtype": "float32"}, {"name": "model/depthwise_conv2d_56/depthwise/ReadVariableOp", "shape": [3, 3, 32, 1], "dtype": "float32"}, {"name": "model/tf.math.add_143/Add/y", "shape": [32], "dtype": "float32"}, {"name": "model/conv2d_98/Conv2D/ReadVariableOp", "shape": [1, 1, 32, 32], "dtype": "float32"}, {"name": "model/depthwise_conv2d_57/depthwise/ReadVariableOp", "shape": [3, 3, 32, 1], "dtype": "float32"}, {"name": "model/tf.math.add_144/Add/y", "shape": [32], "dtype": "float32"}, {"name": "model/conv2d_99/Conv2D/ReadVariableOp", "shape": [1, 1, 32, 32], "dtype": "float32"}, {"name": "model/depthwise_conv2d_58/depthwise/ReadVariableOp", "shape": [3, 3, 32, 1], "dtype": "float32"}, {"name": "model/tf.math.add_145/Add/y", "shape": [32], "dtype": "float32"}, {"name": "model/conv2d_100/Conv2D/ReadVariableOp", "shape": [1, 1, 32, 32], "dtype": "float32"}, {"name": "model/depthwise_conv2d_59/depthwise/ReadVariableOp", "shape": [3, 3, 32, 1], "dtype": "float32"}, {"name": "model/tf.math.add_146/Add/y", "shape": [32], "dtype": "float32"}, {"name": "model/tf.math.reduce_mean_62/Mean/reduction_indices", "shape": [2], "dtype": "int32"}, {"name": "model/tf.reshape_22/Reshape/shape", "shape": [3], "dtype": "int32"}, {"name": "model/tf.math.reduce_mean_64/Const", "shape": [3], "dtype": "int32"}, {"name": "model/tf.math.reduce_mean_65/Const", "shape": [3], "dtype": "int32"}, {"name": "model/tf.__operators__.add_13/y", "shape": [], "dtype": "float32"}, {"name": "model/tf.reshape_23/Reshape/shape", "shape": [4], "dtype": "int32"}, {"name": "model/tf.math.multiply_49/Mul/y", "shape": [1, 1, 1, 32], "dtype": "float32"}, {"name": "model/tf.math.add_148/Add/y", "shape": [32], "dtype": "float32"}, {"name": "model/conv2d_101/Conv2D/ReadVariableOp", "shape": [1, 1, 32, 128], "dtype": "float32"}, {"name": "model/tf.math.add_150/Add/y", "shape": [128], "dtype": "float32"}, {"name": "model/conv2d_70/Conv2D/ReadVariableOp", "shape": [1, 1, 32, 32], "dtype": "float32"}, {"name": "model/depthwise_conv2d_40/depthwise/ReadVariableOp", "shape": [3, 3, 32, 1], "dtype": "float32"}, {"name": "model/tf.math.add_104/Add/y", "shape": [32], "dtype": "float32"}, {"name": "model/tf.math.reduce_mean_46/Mean/reduction_indices", "shape": [2], "dtype": "int32"}, {"name": "model/conv2d_71/Conv2D/ReadVariableOp", "shape": [1, 1, 32, 2], "dtype": "float32"}, {"name": "model/tf.math.add_105/Add/y", "shape": [2], "dtype": "float32"}, {"name": "model/conv2d_72/Conv2D/ReadVariableOp", "shape": [1, 1, 2, 32], "dtype": "float32"}, {"name": "model/tf.math.add_106/Add/y", "shape": [32], "dtype": "float32"}, {"name": "model/conv2d_73/Conv2D/ReadVariableOp", "shape": [1, 1, 32, 32], "dtype": "float32"}, {"name": "model/depthwise_conv2d_41/depthwise/ReadVariableOp", "shape": [3, 3, 32, 1], "dtype": "float32"}, {"name": "model/tf.math.add_107/Add/y", "shape": [32], "dtype": "float32"}, {"name": "model/conv2d_74/Conv2D/ReadVariableOp", "shape": [1, 1, 32, 32], "dtype": "float32"}, {"name": "model/depthwise_conv2d_42/depthwise/ReadVariableOp", "shape": [3, 3, 32, 1], "dtype": "float32"}, {"name": "model/tf.math.add_108/Add/y", "shape": [32], "dtype": "float32"}, {"name": "model/tf.math.reduce_mean_47/Mean/reduction_indices", "shape": [2], "dtype": "int32"}, {"name": "model/conv2d_75/Conv2D/ReadVariableOp", "shape": [1, 1, 32, 2], "dtype": "float32"}, {"name": "model/tf.math.add_109/Add/y", "shape": [2], "dtype": "float32"}, {"name": "model/conv2d_76/Conv2D/ReadVariableOp", "shape": [1, 1, 2, 32], "dtype": "float32"}, {"name": "model/tf.math.add_110/Add/y", "shape": [32], "dtype": "float32"}, {"name": "model/conv2d_77/Conv2D/ReadVariableOp", "shape": [1, 1, 32, 32], "dtype": "float32"}, {"name": "model/depthwise_conv2d_43/depthwise/ReadVariableOp", "shape": [3, 3, 32, 1], "dtype": "float32"}, {"name": "model/tf.math.add_112/Add/y", "shape": [32], "dtype": "float32"}, {"name": "model/conv2d_78/Conv2D/ReadVariableOp", "shape": [1, 1, 32, 32], "dtype": "float32"}, {"name": "model/depthwise_conv2d_44/depthwise/ReadVariableOp", "shape": [3, 3, 32, 1], "dtype": "float32"}, {"name": "model/tf.math.add_113/Add/y", "shape": [32], "dtype": "float32"}, {"name": "model/conv2d_79/Conv2D/ReadVariableOp", "shape": [1, 1, 32, 32], "dtype": "float32"}, {"name": "model/depthwise_conv2d_45/depthwise/ReadVariableOp", "shape": [3, 3, 32, 1], "dtype": "float32"}, {"name": "model/tf.math.add_114/Add/y", "shape": [32], "dtype": "float32"}, {"name": "model/tf.math.reduce_mean_48/Mean/reduction_indices", "shape": [2], "dtype": "int32"}, {"name": "model/conv2d_80/Conv2D/ReadVariableOp", "shape": [1, 1, 32, 2], "dtype": "float32"}, {"name": "model/tf.math.add_115/Add/y", "shape": [2], "dtype": "float32"}, {"name": "model/conv2d_81/Conv2D/ReadVariableOp", "shape": [1, 1, 2, 32], "dtype": "float32"}, {"name": "model/tf.math.add_116/Add/y", "shape": [32], "dtype": "float32"}, {"name": "model/conv2d_69/Conv2D/ReadVariableOp", "shape": [1, 1, 96, 32], "dtype": "float32"}, {"name": "model/tf.math.add_103/Add/y", "shape": [32], "dtype": "float32"}, {"name": "model/conv2d_82/Conv2D/ReadVariableOp", "shape": [1, 1, 32, 32], "dtype": "float32"}, {"name": "model/depthwise_conv2d_46/depthwise/ReadVariableOp", "shape": [3, 3, 32, 1], "dtype": "float32"}, {"name": "model/tf.math.add_118/Add/y", "shape": [32], "dtype": "float32"}, {"name": "model/conv2d_83/Conv2D/ReadVariableOp", "shape": [1, 1, 32, 32], "dtype": "float32"}, {"name": "model/depthwise_conv2d_47/depthwise/ReadVariableOp", "shape": [3, 3, 32, 1], "dtype": "float32"}, {"name": "model/tf.math.add_119/Add/y", "shape": [32], "dtype": "float32"}, {"name": "model/conv2d_84/Conv2D/ReadVariableOp", "shape": [1, 1, 32, 32], "dtype": "float32"}, {"name": "model/depthwise_conv2d_48/depthwise/ReadVariableOp", "shape": [3, 3, 32, 1], "dtype": "float32"}, {"name": "model/tf.math.add_120/Add/y", "shape": [32], "dtype": "float32"}, {"name": "model/conv2d_85/Conv2D/ReadVariableOp", "shape": [1, 1, 32, 32], "dtype": "float32"}, {"name": "model/depthwise_conv2d_49/depthwise/ReadVariableOp", "shape": [3, 3, 32, 1], "dtype": "float32"}, {"name": "model/tf.math.add_121/Add/y", "shape": [32], "dtype": "float32"}, {"name": "model/tf.math.reduce_mean_49/Mean/reduction_indices", "shape": [2], "dtype": "int32"}, {"name": "model/conv2d_86/Conv2D/ReadVariableOp", "shape": [1, 1, 32, 2], "dtype": "float32"}, {"name": "model/tf.math.add_122/Add/y", "shape": [2], "dtype": "float32"}, {"name": "model/conv2d_87/Conv2D/ReadVariableOp", "shape": [1, 1, 2, 32], "dtype": "float32"}, {"name": "model/tf.math.add_123/Add/y", "shape": [32], "dtype": "float32"}, {"name": "model/conv2d_88/Conv2D/ReadVariableOp", "shape": [1, 1, 32, 128], "dtype": "float32"}, {"name": "model/tf.math.add_125/Add/y", "shape": [128], "dtype": "float32"}, {"name": "model/tf.math.reduce_mean_31/Const", "shape": [3], "dtype": "int32"}, {"name": "model/conv2d_57/Conv2D/ReadVariableOp", "shape": [1, 1, 24, 24], "dtype": "float32"}, {"name": "model/depthwise_conv2d_30/depthwise/ReadVariableOp", "shape": [3, 3, 24, 1], "dtype": "float32"}, {"name": "model/tf.math.add_79/Add/y", "shape": [24], "dtype": "float32"}, {"name": "model/tf.math.reduce_mean_30/Mean/reduction_indices", "shape": [2], "dtype": "int32"}, {"name": "model/tf.reshape_8/Reshape/shape", "shape": [3], "dtype": "int32"}, {"name": "model/tf.math.reduce_mean_32/Const", "shape": [3], "dtype": "int32"}, {"name": "model/tf.math.reduce_mean_33/Const", "shape": [3], "dtype": "int32"}, {"name": "model/tf.__operators__.add_6/y", "shape": [], "dtype": "float32"}, {"name": "model/tf.reshape_9/Reshape/shape", "shape": [4], "dtype": "int32"}, {"name": "model/tf.math.multiply_24/Mul/y", "shape": [1, 1, 1, 24], "dtype": "float32"}, {"name": "model/tf.math.add_81/Add/y", "shape": [24], "dtype": "float32"}, {"name": "model/tf.math.reduce_mean_35/Const", "shape": [3], "dtype": "int32"}, {"name": "model/conv2d_58/Conv2D/ReadVariableOp", "shape": [1, 1, 24, 24], "dtype": "float32"}, {"name": "model/depthwise_conv2d_31/depthwise/ReadVariableOp", "shape": [3, 3, 24, 1], "dtype": "float32"}, {"name": "model/tf.math.add_82/Add/y", "shape": [24], "dtype": "float32"}, {"name": "model/conv2d_59/Conv2D/ReadVariableOp", "shape": [1, 1, 24, 24], "dtype": "float32"}, {"name": "model/depthwise_conv2d_32/depthwise/ReadVariableOp", "shape": [3, 3, 24, 1], "dtype": "float32"}, {"name": "model/tf.math.add_83/Add/y", "shape": [24], "dtype": "float32"}, {"name": "model/tf.math.reduce_mean_34/Mean/reduction_indices", "shape": [2], "dtype": "int32"}, {"name": "model/tf.reshape_10/Reshape/shape", "shape": [3], "dtype": "int32"}, {"name": "model/tf.math.reduce_mean_36/Const", "shape": [3], "dtype": "int32"}, {"name": "model/tf.math.reduce_mean_37/Const", "shape": [3], "dtype": "int32"}, {"name": "model/tf.__operators__.add_7/y", "shape": [], "dtype": "float32"}, {"name": "model/tf.reshape_11/Reshape/shape", "shape": [4], "dtype": "int32"}, {"name": "model/tf.math.multiply_27/Mul/y", "shape": [1, 1, 1, 24], "dtype": "float32"}, {"name": "model/tf.math.add_85/Add/y", "shape": [24], "dtype": "float32"}, {"name": "model/tf.math.reduce_mean_39/Const", "shape": [3], "dtype": "int32"}, {"name": "model/conv2d_60/Conv2D/ReadVariableOp", "shape": [1, 1, 24, 24], "dtype": "float32"}, {"name": "model/depthwise_conv2d_33/depthwise/ReadVariableOp", "shape": [3, 3, 24, 1], "dtype": "float32"}, {"name": "model/tf.math.add_87/Add/y", "shape": [24], "dtype": "float32"}, {"name": "model/conv2d_61/Conv2D/ReadVariableOp", "shape": [1, 1, 24, 24], "dtype": "float32"}, {"name": "model/depthwise_conv2d_34/depthwise/ReadVariableOp", "shape": [3, 3, 24, 1], "dtype": "float32"}, {"name": "model/tf.math.add_88/Add/y", "shape": [24], "dtype": "float32"}, {"name": "model/conv2d_62/Conv2D/ReadVariableOp", "shape": [1, 1, 24, 24], "dtype": "float32"}, {"name": "model/depthwise_conv2d_35/depthwise/ReadVariableOp", "shape": [3, 3, 24, 1], "dtype": "float32"}, {"name": "model/tf.math.add_89/Add/y", "shape": [24], "dtype": "float32"}, {"name": "model/tf.math.reduce_mean_38/Mean/reduction_indices", "shape": [2], "dtype": "int32"}, {"name": "model/tf.reshape_12/Reshape/shape", "shape": [3], "dtype": "int32"}, {"name": "model/tf.math.reduce_mean_40/Const", "shape": [3], "dtype": "int32"}, {"name": "model/tf.math.reduce_mean_41/Const", "shape": [3], "dtype": "int32"}, {"name": "model/tf.__operators__.add_8/y", "shape": [], "dtype": "float32"}, {"name": "model/tf.reshape_13/Reshape/shape", "shape": [4], "dtype": "int32"}, {"name": "model/tf.math.multiply_30/Mul/y", "shape": [1, 1, 1, 24], "dtype": "float32"}, {"name": "model/tf.math.add_91/Add/y", "shape": [24], "dtype": "float32"}, {"name": "model/tf.math.reduce_mean_43/Const", "shape": [3], "dtype": "int32"}, {"name": "model/conv2d_56/Conv2D/ReadVariableOp", "shape": [1, 1, 96, 24], "dtype": "float32"}, {"name": "model/tf.math.add_78/Add/y", "shape": [24], "dtype": "float32"}, {"name": "model/conv2d_63/Conv2D/ReadVariableOp", "shape": [1, 1, 24, 24], "dtype": "float32"}, {"name": "model/depthwise_conv2d_36/depthwise/ReadVariableOp", "shape": [3, 3, 24, 1], "dtype": "float32"}, {"name": "model/tf.math.add_93/Add/y", "shape": [24], "dtype": "float32"}, {"name": "model/conv2d_64/Conv2D/ReadVariableOp", "shape": [1, 1, 24, 24], "dtype": "float32"}, {"name": "model/depthwise_conv2d_37/depthwise/ReadVariableOp", "shape": [3, 3, 24, 1], "dtype": "float32"}, {"name": "model/tf.math.add_94/Add/y", "shape": [24], "dtype": "float32"}, {"name": "model/conv2d_65/Conv2D/ReadVariableOp", "shape": [1, 1, 24, 24], "dtype": "float32"}, {"name": "model/depthwise_conv2d_38/depthwise/ReadVariableOp", "shape": [3, 3, 24, 1], "dtype": "float32"}, {"name": "model/tf.math.add_95/Add/y", "shape": [24], "dtype": "float32"}, {"name": "model/conv2d_66/Conv2D/ReadVariableOp", "shape": [1, 1, 24, 24], "dtype": "float32"}, {"name": "model/depthwise_conv2d_39/depthwise/ReadVariableOp", "shape": [3, 3, 24, 1], "dtype": "float32"}, {"name": "model/tf.math.add_96/Add/y", "shape": [24], "dtype": "float32"}, {"name": "model/tf.math.reduce_mean_42/Mean/reduction_indices", "shape": [2], "dtype": "int32"}, {"name": "model/tf.reshape_14/Reshape/shape", "shape": [3], "dtype": "int32"}, {"name": "model/tf.math.reduce_mean_44/Const", "shape": [3], "dtype": "int32"}, {"name": "model/tf.math.reduce_mean_45/Const", "shape": [3], "dtype": "int32"}, {"name": "model/tf.__operators__.add_9/y", "shape": [], "dtype": "float32"}, {"name": "model/tf.reshape_15/Reshape/shape", "shape": [4], "dtype": "int32"}, {"name": "model/tf.math.multiply_33/Mul/y", "shape": [1, 1, 1, 24], "dtype": "float32"}, {"name": "model/tf.math.add_98/Add/y", "shape": [24], "dtype": "float32"}, {"name": "model/conv2d_67/Conv2D/ReadVariableOp", "shape": [1, 1, 24, 96], "dtype": "float32"}, {"name": "model/tf.math.add_100/Add/y", "shape": [96], "dtype": "float32"}, {"name": "model/conv2d_36/Conv2D/ReadVariableOp", "shape": [1, 1, 24, 24], "dtype": "float32"}, {"name": "model/depthwise_conv2d_20/depthwise/ReadVariableOp", "shape": [3, 3, 24, 1], "dtype": "float32"}, {"name": "model/tf.math.add_54/Add/y", "shape": [24], "dtype": "float32"}, {"name": "model/tf.math.reduce_mean_26/Mean/reduction_indices", "shape": [2], "dtype": "int32"}, {"name": "model/conv2d_37/Conv2D/ReadVariableOp", "shape": [1, 1, 24, 1], "dtype": "float32"}, {"name": "model/tf.math.add_55/Add/y", "shape": [1], "dtype": "float32"}, {"name": "model/conv2d_38/Conv2D/ReadVariableOp", "shape": [1, 1, 1, 24], "dtype": "float32"}, {"name": "model/tf.math.add_56/Add/y", "shape": [24], "dtype": "float32"}, {"name": "model/conv2d_39/Conv2D/ReadVariableOp", "shape": [1, 1, 24, 24], "dtype": "float32"}, {"name": "model/depthwise_conv2d_21/depthwise/ReadVariableOp", "shape": [3, 3, 24, 1], "dtype": "float32"}, {"name": "model/tf.math.add_57/Add/y", "shape": [24], "dtype": "float32"}, {"name": "model/conv2d_40/Conv2D/ReadVariableOp", "shape": [1, 1, 24, 24], "dtype": "float32"}, {"name": "model/depthwise_conv2d_22/depthwise/ReadVariableOp", "shape": [3, 3, 24, 1], "dtype": "float32"}, {"name": "model/tf.math.add_58/Add/y", "shape": [24], "dtype": "float32"}, {"name": "model/tf.math.reduce_mean_27/Mean/reduction_indices", "shape": [2], "dtype": "int32"}, {"name": "model/conv2d_41/Conv2D/ReadVariableOp", "shape": [1, 1, 24, 1], "dtype": "float32"}, {"name": "model/tf.math.add_59/Add/y", "shape": [1], "dtype": "float32"}, {"name": "model/conv2d_42/Conv2D/ReadVariableOp", "shape": [1, 1, 1, 24], "dtype": "float32"}, {"name": "model/tf.math.add_60/Add/y", "shape": [24], "dtype": "float32"}, {"name": "model/conv2d_43/Conv2D/ReadVariableOp", "shape": [1, 1, 24, 24], "dtype": "float32"}, {"name": "model/depthwise_conv2d_23/depthwise/ReadVariableOp", "shape": [3, 3, 24, 1], "dtype": "float32"}, {"name": "model/tf.math.add_62/Add/y", "shape": [24], "dtype": "float32"}, {"name": "model/conv2d_44/Conv2D/ReadVariableOp", "shape": [1, 1, 24, 24], "dtype": "float32"}, {"name": "model/depthwise_conv2d_24/depthwise/ReadVariableOp", "shape": [3, 3, 24, 1], "dtype": "float32"}, {"name": "model/tf.math.add_63/Add/y", "shape": [24], "dtype": "float32"}, {"name": "model/conv2d_45/Conv2D/ReadVariableOp", "shape": [1, 1, 24, 24], "dtype": "float32"}, {"name": "model/depthwise_conv2d_25/depthwise/ReadVariableOp", "shape": [3, 3, 24, 1], "dtype": "float32"}, {"name": "model/tf.math.add_64/Add/y", "shape": [24], "dtype": "float32"}, {"name": "model/tf.math.reduce_mean_28/Mean/reduction_indices", "shape": [2], "dtype": "int32"}, {"name": "model/conv2d_46/Conv2D/ReadVariableOp", "shape": [1, 1, 24, 1], "dtype": "float32"}, {"name": "model/tf.math.add_65/Add/y", "shape": [1], "dtype": "float32"}, {"name": "model/conv2d_47/Conv2D/ReadVariableOp", "shape": [1, 1, 1, 24], "dtype": "float32"}, {"name": "model/tf.math.add_66/Add/y", "shape": [24], "dtype": "float32"}, {"name": "model/conv2d_35/Conv2D/ReadVariableOp", "shape": [1, 1, 64, 24], "dtype": "float32"}, {"name": "model/tf.math.add_53/Add/y", "shape": [24], "dtype": "float32"}, {"name": "model/conv2d_48/Conv2D/ReadVariableOp", "shape": [1, 1, 24, 24], "dtype": "float32"}, {"name": "model/depthwise_conv2d_26/depthwise/ReadVariableOp", "shape": [3, 3, 24, 1], "dtype": "float32"}, {"name": "model/tf.math.add_68/Add/y", "shape": [24], "dtype": "float32"}, {"name": "model/conv2d_49/Conv2D/ReadVariableOp", "shape": [1, 1, 24, 24], "dtype": "float32"}, {"name": "model/depthwise_conv2d_27/depthwise/ReadVariableOp", "shape": [3, 3, 24, 1], "dtype": "float32"}, {"name": "model/tf.math.add_69/Add/y", "shape": [24], "dtype": "float32"}, {"name": "model/conv2d_50/Conv2D/ReadVariableOp", "shape": [1, 1, 24, 24], "dtype": "float32"}, {"name": "model/depthwise_conv2d_28/depthwise/ReadVariableOp", "shape": [3, 3, 24, 1], "dtype": "float32"}, {"name": "model/tf.math.add_70/Add/y", "shape": [24], "dtype": "float32"}, {"name": "model/conv2d_51/Conv2D/ReadVariableOp", "shape": [1, 1, 24, 24], "dtype": "float32"}, {"name": "model/depthwise_conv2d_29/depthwise/ReadVariableOp", "shape": [3, 3, 24, 1], "dtype": "float32"}, {"name": "model/tf.math.add_71/Add/y", "shape": [24], "dtype": "float32"}, {"name": "model/tf.math.reduce_mean_29/Mean/reduction_indices", "shape": [2], "dtype": "int32"}, {"name": "model/conv2d_52/Conv2D/ReadVariableOp", "shape": [1, 1, 24, 1], "dtype": "float32"}, {"name": "model/tf.math.add_72/Add/y", "shape": [1], "dtype": "float32"}, {"name": "model/conv2d_53/Conv2D/ReadVariableOp", "shape": [1, 1, 1, 24], "dtype": "float32"}, {"name": "model/tf.math.add_73/Add/y", "shape": [24], "dtype": "float32"}, {"name": "model/conv2d_54/Conv2D/ReadVariableOp", "shape": [1, 1, 24, 96], "dtype": "float32"}, {"name": "model/tf.math.add_75/Add/y", "shape": [96], "dtype": "float32"}, {"name": "model/conv2d_23/Conv2D/ReadVariableOp", "shape": [1, 1, 16, 16], "dtype": "float32"}, {"name": "model/depthwise_conv2d_10/depthwise/ReadVariableOp", "shape": [3, 3, 16, 1], "dtype": "float32"}, {"name": "model/tf.math.add_29/Add/y", "shape": [16], "dtype": "float32"}, {"name": "model/conv2d_24/Conv2D/ReadVariableOp", "shape": [1, 1, 16, 16], "dtype": "float32"}, {"name": "model/depthwise_conv2d_11/depthwise/ReadVariableOp", "shape": [3, 3, 16, 1], "dtype": "float32"}, {"name": "model/tf.math.add_32/Add/y", "shape": [16], "dtype": "float32"}, {"name": "model/conv2d_25/Conv2D/ReadVariableOp", "shape": [1, 1, 16, 16], "dtype": "float32"}, {"name": "model/depthwise_conv2d_12/depthwise/ReadVariableOp", "shape": [3, 3, 16, 1], "dtype": "float32"}, {"name": "model/tf.math.add_33/Add/y", "shape": [16], "dtype": "float32"}, {"name": "model/conv2d_26/Conv2D/ReadVariableOp", "shape": [1, 1, 16, 16], "dtype": "float32"}, {"name": "model/depthwise_conv2d_13/depthwise/ReadVariableOp", "shape": [3, 3, 16, 1], "dtype": "float32"}, {"name": "model/tf.math.add_37/Add/y", "shape": [16], "dtype": "float32"}, {"name": "model/conv2d_27/Conv2D/ReadVariableOp", "shape": [1, 1, 16, 16], "dtype": "float32"}, {"name": "model/depthwise_conv2d_14/depthwise/ReadVariableOp", "shape": [3, 3, 16, 1], "dtype": "float32"}, {"name": "model/tf.math.add_38/Add/y", "shape": [16], "dtype": "float32"}, {"name": "model/conv2d_28/Conv2D/ReadVariableOp", "shape": [1, 1, 16, 16], "dtype": "float32"}, {"name": "model/depthwise_conv2d_15/depthwise/ReadVariableOp", "shape": [3, 3, 16, 1], "dtype": "float32"}, {"name": "model/tf.math.add_39/Add/y", "shape": [16], "dtype": "float32"}, {"name": "model/conv2d_22/Conv2D/ReadVariableOp", "shape": [1, 1, 64, 16], "dtype": "float32"}, {"name": "model/tf.math.add_28/Add/y", "shape": [16], "dtype": "float32"}, {"name": "model/conv2d_29/Conv2D/ReadVariableOp", "shape": [1, 1, 16, 16], "dtype": "float32"}, {"name": "model/depthwise_conv2d_16/depthwise/ReadVariableOp", "shape": [3, 3, 16, 1], "dtype": "float32"}, {"name": "model/tf.math.add_43/Add/y", "shape": [16], "dtype": "float32"}, {"name": "model/conv2d_30/Conv2D/ReadVariableOp", "shape": [1, 1, 16, 16], "dtype": "float32"}, {"name": "model/depthwise_conv2d_17/depthwise/ReadVariableOp", "shape": [3, 3, 16, 1], "dtype": "float32"}, {"name": "model/tf.math.add_44/Add/y", "shape": [16], "dtype": "float32"}, {"name": "model/conv2d_31/Conv2D/ReadVariableOp", "shape": [1, 1, 16, 16], "dtype": "float32"}, {"name": "model/depthwise_conv2d_18/depthwise/ReadVariableOp", "shape": [3, 3, 16, 1], "dtype": "float32"}, {"name": "model/tf.math.add_45/Add/y", "shape": [16], "dtype": "float32"}, {"name": "model/conv2d_32/Conv2D/ReadVariableOp", "shape": [1, 1, 16, 16], "dtype": "float32"}, {"name": "model/depthwise_conv2d_19/depthwise/ReadVariableOp", "shape": [3, 3, 16, 1], "dtype": "float32"}, {"name": "model/tf.math.add_46/Add/y", "shape": [16], "dtype": "float32"}, {"name": "model/conv2d_33/Conv2D/ReadVariableOp", "shape": [1, 1, 16, 64], "dtype": "float32"}, {"name": "model/tf.math.add_50/Add/y", "shape": [64], "dtype": "float32"}, {"name": "model/conv2d_2/Conv2D/ReadVariableOp", "shape": [1, 1, 16, 16], "dtype": "float32"}, {"name": "model/depthwise_conv2d/depthwise/ReadVariableOp", "shape": [3, 3, 16, 1], "dtype": "float32"}, {"name": "model/tf.math.add_4/Add/y", "shape": [16], "dtype": "float32"}, {"name": "model/tf.math.reduce_mean_6/Mean/reduction_indices", "shape": [2], "dtype": "int32"}, {"name": "model/conv2d_3/Conv2D/ReadVariableOp", "shape": [1, 1, 16, 1], "dtype": "float32"}, {"name": "model/tf.math.add_5/Add/y", "shape": [1], "dtype": "float32"}, {"name": "model/conv2d_4/Conv2D/ReadVariableOp", "shape": [1, 1, 1, 16], "dtype": "float32"}, {"name": "model/tf.math.add_6/Add/y", "shape": [16], "dtype": "float32"}, {"name": "model/conv2d_5/Conv2D/ReadVariableOp", "shape": [1, 1, 16, 16], "dtype": "float32"}, {"name": "model/depthwise_conv2d_1/depthwise/ReadVariableOp", "shape": [3, 3, 16, 1], "dtype": "float32"}, {"name": "model/tf.math.add_7/Add/y", "shape": [16], "dtype": "float32"}, {"name": "model/conv2d_6/Conv2D/ReadVariableOp", "shape": [1, 1, 16, 16], "dtype": "float32"}, {"name": "model/depthwise_conv2d_2/depthwise/ReadVariableOp", "shape": [3, 3, 16, 1], "dtype": "float32"}, {"name": "model/tf.math.add_8/Add/y", "shape": [16], "dtype": "float32"}, {"name": "model/tf.math.reduce_mean_7/Mean/reduction_indices", "shape": [2], "dtype": "int32"}, {"name": "model/conv2d_7/Conv2D/ReadVariableOp", "shape": [1, 1, 16, 1], "dtype": "float32"}, {"name": "model/tf.math.add_9/Add/y", "shape": [1], "dtype": "float32"}, {"name": "model/conv2d_8/Conv2D/ReadVariableOp", "shape": [1, 1, 1, 16], "dtype": "float32"}, {"name": "model/tf.math.add_10/Add/y", "shape": [16], "dtype": "float32"}, {"name": "model/conv2d_9/Conv2D/ReadVariableOp", "shape": [1, 1, 16, 16], "dtype": "float32"}, {"name": "model/depthwise_conv2d_3/depthwise/ReadVariableOp", "shape": [3, 3, 16, 1], "dtype": "float32"}, {"name": "model/tf.math.add_12/Add/y", "shape": [16], "dtype": "float32"}, {"name": "model/conv2d_10/Conv2D/ReadVariableOp", "shape": [1, 1, 16, 16], "dtype": "float32"}, {"name": "model/depthwise_conv2d_4/depthwise/ReadVariableOp", "shape": [3, 3, 16, 1], "dtype": "float32"}, {"name": "model/tf.math.add_13/Add/y", "shape": [16], "dtype": "float32"}, {"name": "model/conv2d_11/Conv2D/ReadVariableOp", "shape": [1, 1, 16, 16], "dtype": "float32"}, {"name": "model/depthwise_conv2d_5/depthwise/ReadVariableOp", "shape": [3, 3, 16, 1], "dtype": "float32"}, {"name": "model/tf.math.add_14/Add/y", "shape": [16], "dtype": "float32"}, {"name": "model/tf.math.reduce_mean_8/Mean/reduction_indices", "shape": [2], "dtype": "int32"}, {"name": "model/conv2d_12/Conv2D/ReadVariableOp", "shape": [1, 1, 16, 1], "dtype": "float32"}, {"name": "model/tf.math.add_15/Add/y", "shape": [1], "dtype": "float32"}, {"name": "model/conv2d_13/Conv2D/ReadVariableOp", "shape": [1, 1, 1, 16], "dtype": "float32"}, {"name": "model/tf.math.add_16/Add/y", "shape": [16], "dtype": "float32"}, {"name": "model/conv2d_1/Conv2D/ReadVariableOp", "shape": [1, 1, 16, 16], "dtype": "float32"}, {"name": "model/tf.math.add_3/Add/y", "shape": [16], "dtype": "float32"}, {"name": "model/conv2d_14/Conv2D/ReadVariableOp", "shape": [1, 1, 16, 16], "dtype": "float32"}, {"name": "model/depthwise_conv2d_6/depthwise/ReadVariableOp", "shape": [3, 3, 16, 1], "dtype": "float32"}, {"name": "model/tf.math.add_18/Add/y", "shape": [16], "dtype": "float32"}, {"name": "model/conv2d_15/Conv2D/ReadVariableOp", "shape": [1, 1, 16, 16], "dtype": "float32"}, {"name": "model/depthwise_conv2d_7/depthwise/ReadVariableOp", "shape": [3, 3, 16, 1], "dtype": "float32"}, {"name": "model/tf.math.add_19/Add/y", "shape": [16], "dtype": "float32"}, {"name": "model/conv2d_16/Conv2D/ReadVariableOp", "shape": [1, 1, 16, 16], "dtype": "float32"}, {"name": "model/depthwise_conv2d_8/depthwise/ReadVariableOp", "shape": [3, 3, 16, 1], "dtype": "float32"}, {"name": "model/tf.math.add_20/Add/y", "shape": [16], "dtype": "float32"}, {"name": "model/conv2d_17/Conv2D/ReadVariableOp", "shape": [1, 1, 16, 16], "dtype": "float32"}, {"name": "model/depthwise_conv2d_9/depthwise/ReadVariableOp", "shape": [3, 3, 16, 1], "dtype": "float32"}, {"name": "model/tf.math.add_21/Add/y", "shape": [16], "dtype": "float32"}, {"name": "model/tf.math.reduce_mean_9/Mean/reduction_indices", "shape": [2], "dtype": "int32"}, {"name": "model/conv2d_18/Conv2D/ReadVariableOp", "shape": [1, 1, 16, 1], "dtype": "float32"}, {"name": "model/tf.math.add_22/Add/y", "shape": [1], "dtype": "float32"}, {"name": "model/conv2d_19/Conv2D/ReadVariableOp", "shape": [1, 1, 1, 16], "dtype": "float32"}, {"name": "model/tf.math.add_23/Add/y", "shape": [16], "dtype": "float32"}, {"name": "model/conv2d_20/Conv2D/ReadVariableOp", "shape": [1, 1, 16, 64], "dtype": "float32"}, {"name": "model/tf.math.add_25/Add/y", "shape": [64], "dtype": "float32"}, {"name": "model/tf.math.reduce_mean_4/Const", "shape": [4], "dtype": "int32"}, {"name": "model/tf.math.reduce_mean_5/Const", "shape": [4], "dtype": "int32"}, {"name": "model/tf.__operators__.add_1/y", "shape": [], "dtype": "float32"}, {"name": "model/tf.math.multiply_2/Mul/y", "shape": [1, 1, 1, 16], "dtype": "float32"}, {"name": "model/tf.math.reduce_mean/Const", "shape": [4], "dtype": "int32"}, {"name": "model/tf.math.multiply_1/Mul/y", "shape": [1, 1, 1, 3], "dtype": "float32"}, {"name": "model/lambda/Split/split_dim", "shape": [], "dtype": "int32"}, {"name": "model/tf.concat/concat/axis", "shape": [], "dtype": "int32"}, {"name": "model/tf.math.multiply/Mul/y", "shape": [1, 1, 1, 3], "dtype": "float32"}, {"name": "model/tf.math.add/Add/y", "shape": [3], "dtype": "float32"}, {"name": "model/tf.math.reduce_mean_1/Const", "shape": [4], "dtype": "int32"}, {"name": "model/tf.math.reduce_mean_2/Const", "shape": [4], "dtype": "int32"}, {"name": "model/tf.__operators__.add/y", "shape": [], "dtype": "float32"}, {"name": "model/tf.math.add_1/Add/y", "shape": [3], "dtype": "float32"}, {"name": "model/conv2d/Conv2D/ReadVariableOp", "shape": [7, 7, 3, 16], "dtype": "float32"}, {"name": "model/tf.math.reduce_mean_3/Const", "shape": [4], "dtype": "int32"}, {"name": "model/tf.math.add_2/Add/y", "shape": [16], "dtype": "float32"}, {"name": "model/conv2d_21/Conv2D/ReadVariableOp", "shape": [1, 1, 16, 64], "dtype": "float32"}, {"name": "model/tf.math.add_26/Add/y", "shape": [64], "dtype": "float32"}, {"name": "model/conv2d_34/Conv2D/ReadVariableOp", "shape": [1, 1, 64, 64], "dtype": "float32"}, {"name": "model/tf.math.add_52/Add/y", "shape": [64], "dtype": "float32"}, {"name": "model/conv2d_55/Conv2D/ReadVariableOp", "shape": [1, 1, 64, 96], "dtype": "float32"}, {"name": "model/tf.math.add_76/Add/y", "shape": [96], "dtype": "float32"}, {"name": "model/conv2d_68/Conv2D/ReadVariableOp", "shape": [1, 1, 96, 96], "dtype": "float32"}, {"name": "model/tf.math.add_102/Add/y", "shape": [96], "dtype": "float32"}, {"name": "model/conv2d_89/Conv2D/ReadVariableOp", "shape": [1, 1, 96, 128], "dtype": "float32"}, {"name": "model/tf.math.add_126/Add/y", "shape": [128], "dtype": "float32"}, {"name": "model/conv2d_102/Conv2D/ReadVariableOp", "shape": [1, 1, 128, 128], "dtype": "float32"}, {"name": "model/tf.math.add_152/Add/y", "shape": [128], "dtype": "float32"}, {"name": "model/depthwise_conv2d_60/depthwise/ReadVariableOp", "shape": [16, 8, 128, 1], "dtype": "float32"}, {"name": "model/tf.math.add_153/Add/y", "shape": [128], "dtype": "float32"}, {"name": "model/tf.reshape_24/Reshape/shape", "shape": [2], "dtype": "int32"}, {"name": "model/tf.linalg.matmul/MatMul/b", "shape": [256, 128], "dtype": "float32"}, {"name": "model/tf.math.add_154/Add/y", "shape": [256], "dtype": "float32"}, {"name": "model/tf.reshape_25/Reshape/shape", "shape": [3], "dtype": "int32"}, {"name": "model/tf.math.multiply_51/Mul/y", "shape": [1, 256, 1], "dtype": "float32"}, {"name": "model/tf.math.add_155/Add/y", "shape": [1, 256, 1], "dtype": "float32"}, {"name": "model/tf.reshape_26/Reshape/shape", "shape": [2], "dtype": "int32"}, {"name": "model/tf.math.sigmoid_4/Sigmoid", "shape": [1, 1, 1, 16], "dtype": "float32"}, {"name": "model/tf.math.sigmoid_5/Sigmoid", "shape": [1, 1, 1, 16], "dtype": "float32"}, {"name": "model/tf.math.sigmoid_6/Sigmoid", "shape": [1, 1, 1, 16], "dtype": "float32"}, {"name": "model/tf.math.sigmoid_7/Sigmoid", "shape": [1, 1, 1, 16], "dtype": "float32"}]}]}