{"format": "graph-model", "generatedBy": "2.11.0", "convertedBy": "TensorFlow.js Converter v4.1.0", "signature": {"inputs": {"input": {"name": "input:0", "dtype": "DT_FLOAT", "tensorShape": {"dim": [{"size": "-1"}, {"size": "256"}, {"size": "128"}, {"size": "3"}]}}}, "outputs": {"tf.math.add_69": {"name": "Identity:0", "dtype": "DT_FLOAT", "tensorShape": {"dim": [{"size": "-1"}, {"size": "1"}, {"size": "1"}, {"size": "768"}]}}}}, "modelTopology": {"node": [{"name": "PartitionedCall/model/tf.math.reduce_mean/Mean/reduction_indices", "op": "Const", "attr": {"dtype": {"type": "DT_INT32"}, "value": {"tensor": {"dtype": "DT_INT32", "tensorShape": {"dim": [{"size": "2"}]}}}}}, {"name": "PartitionedCall/model/tf.math.add_67/Add/y", "op": "Const", "attr": {"value": {"tensor": {"dtype": "DT_FLOAT", "tensorShape": {"dim": [{"size": "2048"}]}}}, "dtype": {"type": "DT_FLOAT"}}}, {"name": "PartitionedCall/model/tf.nn.convolution_50/convolution_internal/filters", "op": "Const", "attr": {"dtype": {"type": "DT_FLOAT"}, "value": {"tensor": {"dtype": "DT_FLOAT", "tensorShape": {"dim": [{"size": "1"}, {"size": "1"}, {"size": "2048"}, {"size": "512"}]}}}}}, {"name": "PartitionedCall/model/tf.math.add_65/Add/y", "op": "Const", "attr": {"dtype": {"type": "DT_FLOAT"}, "value": {"tensor": {"dtype": "DT_FLOAT", "tensorShape": {"dim": [{"size": "512"}]}}}}}, {"name": "PartitionedCall/model/tf.nn.convolution_51/convolution_internal/filters", "op": "Const", "attr": {"dtype": {"type": "DT_FLOAT"}, "value": {"tensor": {"dtype": "DT_FLOAT", "tensorShape": {"dim": [{"size": "3"}, {"size": "3"}, {"size": "512"}, {"size": "512"}]}}}}}, {"name": "PartitionedCall/model/tf.math.add_66/Add/y", "op": "Const", "attr": {"dtype": {"type": "DT_FLOAT"}, "value": {"tensor": {"dtype": "DT_FLOAT", "tensorShape": {"dim": [{"size": "512"}]}}}}}, {"name": "PartitionedCall/model/tf.nn.convolution_52/convolution_internal/filters", "op": "Const", "attr": {"value": {"tensor": {"dtype": "DT_FLOAT", "tensorShape": {"dim": [{"size": "1"}, {"size": "1"}, {"size": "512"}, {"size": "2048"}]}}}, "dtype": {"type": "DT_FLOAT"}}}, {"name": "PartitionedCall/model/tf.math.add_63/Add/y", "op": "Const", "attr": {"dtype": {"type": "DT_FLOAT"}, "value": {"tensor": {"dtype": "DT_FLOAT", "tensorShape": {"dim": [{"size": "2048"}]}}}}}, {"name": "PartitionedCall/model/tf.nn.convolution_47/convolution_internal/filters", "op": "Const", "attr": {"value": {"tensor": {"dtype": "DT_FLOAT", "tensorShape": {"dim": [{"size": "1"}, {"size": "1"}, {"size": "2048"}, {"size": "512"}]}}}, "dtype": {"type": "DT_FLOAT"}}}, {"name": "PartitionedCall/model/tf.math.add_61/Add/y", "op": "Const", "attr": {"value": {"tensor": {"dtype": "DT_FLOAT", "tensorShape": {"dim": [{"size": "512"}]}}}, "dtype": {"type": "DT_FLOAT"}}}, {"name": "PartitionedCall/model/tf.nn.convolution_48/convolution_internal/filters", "op": "Const", "attr": {"dtype": {"type": "DT_FLOAT"}, "value": {"tensor": {"dtype": "DT_FLOAT", "tensorShape": {"dim": [{"size": "3"}, {"size": "3"}, {"size": "512"}, {"size": "512"}]}}}}}, {"name": "PartitionedCall/model/tf.math.add_62/Add/y", "op": "Const", "attr": {"dtype": {"type": "DT_FLOAT"}, "value": {"tensor": {"dtype": "DT_FLOAT", "tensorShape": {"dim": [{"size": "512"}]}}}}}, {"name": "PartitionedCall/model/tf.nn.convolution_49/convolution_internal/filters", "op": "Const", "attr": {"dtype": {"type": "DT_FLOAT"}, "value": {"tensor": {"dtype": "DT_FLOAT", "tensorShape": {"dim": [{"size": "1"}, {"size": "1"}, {"size": "512"}, {"size": "2048"}]}}}}}, {"name": "PartitionedCall/model/tf.math.add_60/ArithmeticOptimizer/AddOpsRewrite_Leaf_0_Add", "op": "Const", "attr": {"value": {"tensor": {"dtype": "DT_FLOAT", "tensorShape": {"dim": [{"size": "2048"}]}}}, "dtype": {"type": "DT_FLOAT"}}}, {"name": "PartitionedCall/model/tf.nn.convolution_43/convolution_internal/filters", "op": "Const", "attr": {"dtype": {"type": "DT_FLOAT"}, "value": {"tensor": {"dtype": "DT_FLOAT", "tensorShape": {"dim": [{"size": "1"}, {"size": "1"}, {"size": "1024"}, {"size": "512"}]}}}}}, {"name": "PartitionedCall/model/tf.math.add_56/Add/y", "op": "Const", "attr": {"dtype": {"type": "DT_FLOAT"}, "value": {"tensor": {"dtype": "DT_FLOAT", "tensorShape": {"dim": [{"size": "512"}]}}}}}, {"name": "PartitionedCall/model/tf.nn.convolution_45/convolution_internal/filters", "op": "Const", "attr": {"dtype": {"type": "DT_FLOAT"}, "value": {"tensor": {"dtype": "DT_FLOAT", "tensorShape": {"dim": [{"size": "3"}, {"size": "3"}, {"size": "512"}, {"size": "512"}]}}}}}, {"name": "PartitionedCall/model/tf.math.add_58/Add/y", "op": "Const", "attr": {"value": {"tensor": {"dtype": "DT_FLOAT", "tensorShape": {"dim": [{"size": "512"}]}}}, "dtype": {"type": "DT_FLOAT"}}}, {"name": "PartitionedCall/model/tf.nn.convolution_46/convolution_internal/filters", "op": "Const", "attr": {"value": {"tensor": {"dtype": "DT_FLOAT", "tensorShape": {"dim": [{"size": "1"}, {"size": "1"}, {"size": "512"}, {"size": "2048"}]}}}, "dtype": {"type": "DT_FLOAT"}}}, {"name": "PartitionedCall/model/tf.math.add_54/Add/y", "op": "Const", "attr": {"value": {"tensor": {"dtype": "DT_FLOAT", "tensorShape": {"dim": [{"size": "1024"}]}}}, "dtype": {"type": "DT_FLOAT"}}}, {"name": "PartitionedCall/model/tf.nn.convolution_40/convolution_internal/filters", "op": "Const", "attr": {"value": {"tensor": {"dtype": "DT_FLOAT", "tensorShape": {"dim": [{"size": "1"}, {"size": "1"}, {"size": "1024"}, {"size": "256"}]}}}, "dtype": {"type": "DT_FLOAT"}}}, {"name": "PartitionedCall/model/tf.math.add_52/Add/y", "op": "Const", "attr": {"value": {"tensor": {"dtype": "DT_FLOAT", "tensorShape": {"dim": [{"size": "256"}]}}}, "dtype": {"type": "DT_FLOAT"}}}, {"name": "PartitionedCall/model/tf.nn.convolution_41/convolution_internal/filters", "op": "Const", "attr": {"value": {"tensor": {"dtype": "DT_FLOAT", "tensorShape": {"dim": [{"size": "3"}, {"size": "3"}, {"size": "256"}, {"size": "256"}]}}}, "dtype": {"type": "DT_FLOAT"}}}, {"name": "PartitionedCall/model/tf.math.add_53/Add/y", "op": "Const", "attr": {"dtype": {"type": "DT_FLOAT"}, "value": {"tensor": {"dtype": "DT_FLOAT", "tensorShape": {"dim": [{"size": "256"}]}}}}}, {"name": "PartitionedCall/model/tf.nn.convolution_42/convolution_internal/filters", "op": "Const", "attr": {"dtype": {"type": "DT_FLOAT"}, "value": {"tensor": {"dtype": "DT_FLOAT", "tensorShape": {"dim": [{"size": "1"}, {"size": "1"}, {"size": "256"}, {"size": "1024"}]}}}}}, {"name": "PartitionedCall/model/tf.math.add_50/Add/y", "op": "Const", "attr": {"dtype": {"type": "DT_FLOAT"}, "value": {"tensor": {"dtype": "DT_FLOAT", "tensorShape": {"dim": [{"size": "1024"}]}}}}}, {"name": "PartitionedCall/model/tf.nn.convolution_37/convolution_internal/filters", "op": "Const", "attr": {"value": {"tensor": {"dtype": "DT_FLOAT", "tensorShape": {"dim": [{"size": "1"}, {"size": "1"}, {"size": "1024"}, {"size": "256"}]}}}, "dtype": {"type": "DT_FLOAT"}}}, {"name": "PartitionedCall/model/tf.math.add_48/Add/y", "op": "Const", "attr": {"dtype": {"type": "DT_FLOAT"}, "value": {"tensor": {"dtype": "DT_FLOAT", "tensorShape": {"dim": [{"size": "256"}]}}}}}, {"name": "PartitionedCall/model/tf.nn.convolution_38/convolution_internal/filters", "op": "Const", "attr": {"value": {"tensor": {"dtype": "DT_FLOAT", "tensorShape": {"dim": [{"size": "3"}, {"size": "3"}, {"size": "256"}, {"size": "256"}]}}}, "dtype": {"type": "DT_FLOAT"}}}, {"name": "PartitionedCall/model/tf.math.add_49/Add/y", "op": "Const", "attr": {"value": {"tensor": {"dtype": "DT_FLOAT", "tensorShape": {"dim": [{"size": "256"}]}}}, "dtype": {"type": "DT_FLOAT"}}}, {"name": "PartitionedCall/model/tf.nn.convolution_39/convolution_internal/filters", "op": "Const", "attr": {"value": {"tensor": {"dtype": "DT_FLOAT", "tensorShape": {"dim": [{"size": "1"}, {"size": "1"}, {"size": "256"}, {"size": "1024"}]}}}, "dtype": {"type": "DT_FLOAT"}}}, {"name": "PartitionedCall/model/tf.math.add_46/Add/y", "op": "Const", "attr": {"value": {"tensor": {"dtype": "DT_FLOAT", "tensorShape": {"dim": [{"size": "1024"}]}}}, "dtype": {"type": "DT_FLOAT"}}}, {"name": "PartitionedCall/model/tf.nn.convolution_34/convolution_internal/filters", "op": "Const", "attr": {"value": {"tensor": {"dtype": "DT_FLOAT", "tensorShape": {"dim": [{"size": "1"}, {"size": "1"}, {"size": "1024"}, {"size": "256"}]}}}, "dtype": {"type": "DT_FLOAT"}}}, {"name": "PartitionedCall/model/tf.math.add_44/Add/y", "op": "Const", "attr": {"dtype": {"type": "DT_FLOAT"}, "value": {"tensor": {"dtype": "DT_FLOAT", "tensorShape": {"dim": [{"size": "256"}]}}}}}, {"name": "PartitionedCall/model/tf.nn.convolution_35/convolution_internal/filters", "op": "Const", "attr": {"dtype": {"type": "DT_FLOAT"}, "value": {"tensor": {"dtype": "DT_FLOAT", "tensorShape": {"dim": [{"size": "3"}, {"size": "3"}, {"size": "256"}, {"size": "256"}]}}}}}, {"name": "PartitionedCall/model/tf.math.add_45/Add/y", "op": "Const", "attr": {"value": {"tensor": {"dtype": "DT_FLOAT", "tensorShape": {"dim": [{"size": "256"}]}}}, "dtype": {"type": "DT_FLOAT"}}}, {"name": "PartitionedCall/model/tf.nn.convolution_36/convolution_internal/filters", "op": "Const", "attr": {"value": {"tensor": {"dtype": "DT_FLOAT", "tensorShape": {"dim": [{"size": "1"}, {"size": "1"}, {"size": "256"}, {"size": "1024"}]}}}, "dtype": {"type": "DT_FLOAT"}}}, {"name": "PartitionedCall/model/tf.math.add_42/Add/y", "op": "Const", "attr": {"dtype": {"type": "DT_FLOAT"}, "value": {"tensor": {"dtype": "DT_FLOAT", "tensorShape": {"dim": [{"size": "1024"}]}}}}}, {"name": "PartitionedCall/model/tf.nn.convolution_31/convolution_internal/filters", "op": "Const", "attr": {"value": {"tensor": {"dtype": "DT_FLOAT", "tensorShape": {"dim": [{"size": "1"}, {"size": "1"}, {"size": "1024"}, {"size": "256"}]}}}, "dtype": {"type": "DT_FLOAT"}}}, {"name": "PartitionedCall/model/tf.math.add_40/Add/y", "op": "Const", "attr": {"value": {"tensor": {"dtype": "DT_FLOAT", "tensorShape": {"dim": [{"size": "256"}]}}}, "dtype": {"type": "DT_FLOAT"}}}, {"name": "PartitionedCall/model/tf.nn.convolution_32/convolution_internal/filters", "op": "Const", "attr": {"dtype": {"type": "DT_FLOAT"}, "value": {"tensor": {"dtype": "DT_FLOAT", "tensorShape": {"dim": [{"size": "3"}, {"size": "3"}, {"size": "256"}, {"size": "256"}]}}}}}, {"name": "PartitionedCall/model/tf.math.add_41/Add/y", "op": "Const", "attr": {"dtype": {"type": "DT_FLOAT"}, "value": {"tensor": {"dtype": "DT_FLOAT", "tensorShape": {"dim": [{"size": "256"}]}}}}}, {"name": "PartitionedCall/model/tf.nn.convolution_33/convolution_internal/filters", "op": "Const", "attr": {"dtype": {"type": "DT_FLOAT"}, "value": {"tensor": {"dtype": "DT_FLOAT", "tensorShape": {"dim": [{"size": "1"}, {"size": "1"}, {"size": "256"}, {"size": "1024"}]}}}}}, {"name": "PartitionedCall/model/tf.math.add_38/Add/y", "op": "Const", "attr": {"value": {"tensor": {"dtype": "DT_FLOAT", "tensorShape": {"dim": [{"size": "1024"}]}}}, "dtype": {"type": "DT_FLOAT"}}}, {"name": "PartitionedCall/model/tf.nn.convolution_28/convolution_internal/filters", "op": "Const", "attr": {"dtype": {"type": "DT_FLOAT"}, "value": {"tensor": {"dtype": "DT_FLOAT", "tensorShape": {"dim": [{"size": "1"}, {"size": "1"}, {"size": "1024"}, {"size": "256"}]}}}}}, {"name": "PartitionedCall/model/tf.math.add_36/Add/y", "op": "Const", "attr": {"dtype": {"type": "DT_FLOAT"}, "value": {"tensor": {"dtype": "DT_FLOAT", "tensorShape": {"dim": [{"size": "256"}]}}}}}, {"name": "PartitionedCall/model/tf.nn.convolution_29/convolution_internal/filters", "op": "Const", "attr": {"value": {"tensor": {"dtype": "DT_FLOAT", "tensorShape": {"dim": [{"size": "3"}, {"size": "3"}, {"size": "256"}, {"size": "256"}]}}}, "dtype": {"type": "DT_FLOAT"}}}, {"name": "PartitionedCall/model/tf.math.add_37/Add/y", "op": "Const", "attr": {"dtype": {"type": "DT_FLOAT"}, "value": {"tensor": {"dtype": "DT_FLOAT", "tensorShape": {"dim": [{"size": "256"}]}}}}}, {"name": "PartitionedCall/model/tf.nn.convolution_30/convolution_internal/filters", "op": "Const", "attr": {"dtype": {"type": "DT_FLOAT"}, "value": {"tensor": {"dtype": "DT_FLOAT", "tensorShape": {"dim": [{"size": "1"}, {"size": "1"}, {"size": "256"}, {"size": "1024"}]}}}}}, {"name": "PartitionedCall/model/tf.nn.convolution_24/convolution_internal/filters", "op": "Const", "attr": {"dtype": {"type": "DT_FLOAT"}, "value": {"tensor": {"dtype": "DT_FLOAT", "tensorShape": {"dim": [{"size": "1"}, {"size": "1"}, {"size": "512"}, {"size": "256"}]}}}}}, {"name": "PartitionedCall/model/tf.math.add_31/Add/y", "op": "Const", "attr": {"value": {"tensor": {"dtype": "DT_FLOAT", "tensorShape": {"dim": [{"size": "256"}]}}}, "dtype": {"type": "DT_FLOAT"}}}, {"name": "unknown_5", "op": "Const", "attr": {"value": {"tensor": {"dtype": "DT_INT32", "tensorShape": {"dim": [{"size": "4"}, {"size": "2"}]}}}, "dtype": {"type": "DT_INT32"}}}, {"name": "PartitionedCall/model/tf.nn.convolution_26/convolution_internal/filters", "op": "Const", "attr": {"dtype": {"type": "DT_FLOAT"}, "value": {"tensor": {"dtype": "DT_FLOAT", "tensorShape": {"dim": [{"size": "3"}, {"size": "3"}, {"size": "256"}, {"size": "256"}]}}}}}, {"name": "PartitionedCall/model/tf.math.add_33/Add/y", "op": "Const", "attr": {"dtype": {"type": "DT_FLOAT"}, "value": {"tensor": {"dtype": "DT_FLOAT", "tensorShape": {"dim": [{"size": "256"}]}}}}}, {"name": "PartitionedCall/model/tf.nn.convolution_27/convolution_internal/filters", "op": "Const", "attr": {"value": {"tensor": {"dtype": "DT_FLOAT", "tensorShape": {"dim": [{"size": "1"}, {"size": "1"}, {"size": "256"}, {"size": "1024"}]}}}, "dtype": {"type": "DT_FLOAT"}}}, {"name": "PartitionedCall/model/tf.math.add_34/Add/y", "op": "Const", "attr": {"dtype": {"type": "DT_FLOAT"}, "value": {"tensor": {"dtype": "DT_FLOAT", "tensorShape": {"dim": [{"size": "1024"}]}}}}}, {"name": "PartitionedCall/model/tf.math.add_29/Add/y", "op": "Const", "attr": {"value": {"tensor": {"dtype": "DT_FLOAT", "tensorShape": {"dim": [{"size": "512"}]}}}, "dtype": {"type": "DT_FLOAT"}}}, {"name": "PartitionedCall/model/tf.nn.convolution_21/convolution_internal/filters", "op": "Const", "attr": {"value": {"tensor": {"dtype": "DT_FLOAT", "tensorShape": {"dim": [{"size": "1"}, {"size": "1"}, {"size": "512"}, {"size": "128"}]}}}, "dtype": {"type": "DT_FLOAT"}}}, {"name": "PartitionedCall/model/tf.math.add_27/Add/y", "op": "Const", "attr": {"dtype": {"type": "DT_FLOAT"}, "value": {"tensor": {"dtype": "DT_FLOAT", "tensorShape": {"dim": [{"size": "128"}]}}}}}, {"name": "PartitionedCall/model/tf.nn.convolution_22/convolution_internal/filters", "op": "Const", "attr": {"value": {"tensor": {"dtype": "DT_FLOAT", "tensorShape": {"dim": [{"size": "3"}, {"size": "3"}, {"size": "128"}, {"size": "128"}]}}}, "dtype": {"type": "DT_FLOAT"}}}, {"name": "PartitionedCall/model/tf.math.add_28/Add/y", "op": "Const", "attr": {"value": {"tensor": {"dtype": "DT_FLOAT", "tensorShape": {"dim": [{"size": "128"}]}}}, "dtype": {"type": "DT_FLOAT"}}}, {"name": "PartitionedCall/model/tf.nn.convolution_23/convolution_internal/filters", "op": "Const", "attr": {"dtype": {"type": "DT_FLOAT"}, "value": {"tensor": {"dtype": "DT_FLOAT", "tensorShape": {"dim": [{"size": "1"}, {"size": "1"}, {"size": "128"}, {"size": "512"}]}}}}}, {"name": "PartitionedCall/model/tf.math.add_25/Add/y", "op": "Const", "attr": {"dtype": {"type": "DT_FLOAT"}, "value": {"tensor": {"dtype": "DT_FLOAT", "tensorShape": {"dim": [{"size": "512"}]}}}}}, {"name": "PartitionedCall/model/tf.nn.convolution_18/convolution_internal/filters", "op": "Const", "attr": {"value": {"tensor": {"dtype": "DT_FLOAT", "tensorShape": {"dim": [{"size": "1"}, {"size": "1"}, {"size": "512"}, {"size": "128"}]}}}, "dtype": {"type": "DT_FLOAT"}}}, {"name": "PartitionedCall/model/tf.math.add_23/Add/y", "op": "Const", "attr": {"dtype": {"type": "DT_FLOAT"}, "value": {"tensor": {"dtype": "DT_FLOAT", "tensorShape": {"dim": [{"size": "128"}]}}}}}, {"name": "PartitionedCall/model/tf.nn.convolution_19/convolution_internal/filters", "op": "Const", "attr": {"dtype": {"type": "DT_FLOAT"}, "value": {"tensor": {"dtype": "DT_FLOAT", "tensorShape": {"dim": [{"size": "3"}, {"size": "3"}, {"size": "128"}, {"size": "128"}]}}}}}, {"name": "PartitionedCall/model/tf.math.add_24/Add/y", "op": "Const", "attr": {"dtype": {"type": "DT_FLOAT"}, "value": {"tensor": {"dtype": "DT_FLOAT", "tensorShape": {"dim": [{"size": "128"}]}}}}}, {"name": "PartitionedCall/model/tf.nn.convolution_20/convolution_internal/filters", "op": "Const", "attr": {"value": {"tensor": {"dtype": "DT_FLOAT", "tensorShape": {"dim": [{"size": "1"}, {"size": "1"}, {"size": "128"}, {"size": "512"}]}}}, "dtype": {"type": "DT_FLOAT"}}}, {"name": "PartitionedCall/model/tf.math.add_21/Add/y", "op": "Const", "attr": {"dtype": {"type": "DT_FLOAT"}, "value": {"tensor": {"dtype": "DT_FLOAT", "tensorShape": {"dim": [{"size": "512"}]}}}}}, {"name": "PartitionedCall/model/tf.nn.convolution_15/convolution_internal/filters", "op": "Const", "attr": {"dtype": {"type": "DT_FLOAT"}, "value": {"tensor": {"dtype": "DT_FLOAT", "tensorShape": {"dim": [{"size": "1"}, {"size": "1"}, {"size": "512"}, {"size": "128"}]}}}}}, {"name": "PartitionedCall/model/tf.math.add_19/Add/y", "op": "Const", "attr": {"value": {"tensor": {"dtype": "DT_FLOAT", "tensorShape": {"dim": [{"size": "128"}]}}}, "dtype": {"type": "DT_FLOAT"}}}, {"name": "PartitionedCall/model/tf.nn.convolution_16/convolution_internal/filters", "op": "Const", "attr": {"dtype": {"type": "DT_FLOAT"}, "value": {"tensor": {"dtype": "DT_FLOAT", "tensorShape": {"dim": [{"size": "3"}, {"size": "3"}, {"size": "128"}, {"size": "128"}]}}}}}, {"name": "PartitionedCall/model/tf.math.add_20/Add/y", "op": "Const", "attr": {"value": {"tensor": {"dtype": "DT_FLOAT", "tensorShape": {"dim": [{"size": "128"}]}}}, "dtype": {"type": "DT_FLOAT"}}}, {"name": "PartitionedCall/model/tf.nn.convolution_17/convolution_internal/filters", "op": "Const", "attr": {"value": {"tensor": {"dtype": "DT_FLOAT", "tensorShape": {"dim": [{"size": "1"}, {"size": "1"}, {"size": "128"}, {"size": "512"}]}}}, "dtype": {"type": "DT_FLOAT"}}}, {"name": "PartitionedCall/model/tf.nn.convolution_11/convolution_internal/filters", "op": "Const", "attr": {"value": {"tensor": {"dtype": "DT_FLOAT", "tensorShape": {"dim": [{"size": "1"}, {"size": "1"}, {"size": "256"}, {"size": "128"}]}}}, "dtype": {"type": "DT_FLOAT"}}}, {"name": "PartitionedCall/model/tf.math.add_14/Add/y", "op": "Const", "attr": {"dtype": {"type": "DT_FLOAT"}, "value": {"tensor": {"dtype": "DT_FLOAT", "tensorShape": {"dim": [{"size": "128"}]}}}}}, {"name": "unknown_4", "op": "Const", "attr": {"value": {"tensor": {"dtype": "DT_INT32", "tensorShape": {"dim": [{"size": "4"}, {"size": "2"}]}}}, "dtype": {"type": "DT_INT32"}}}, {"name": "PartitionedCall/model/tf.nn.convolution_13/convolution_internal/filters", "op": "Const", "attr": {"dtype": {"type": "DT_FLOAT"}, "value": {"tensor": {"dtype": "DT_FLOAT", "tensorShape": {"dim": [{"size": "3"}, {"size": "3"}, {"size": "128"}, {"size": "128"}]}}}}}, {"name": "PartitionedCall/model/tf.math.add_16/Add/y", "op": "Const", "attr": {"value": {"tensor": {"dtype": "DT_FLOAT", "tensorShape": {"dim": [{"size": "128"}]}}}, "dtype": {"type": "DT_FLOAT"}}}, {"name": "PartitionedCall/model/tf.nn.convolution_14/convolution_internal/filters", "op": "Const", "attr": {"dtype": {"type": "DT_FLOAT"}, "value": {"tensor": {"dtype": "DT_FLOAT", "tensorShape": {"dim": [{"size": "1"}, {"size": "1"}, {"size": "128"}, {"size": "512"}]}}}}}, {"name": "PartitionedCall/model/tf.math.add_17/Add/y", "op": "Const", "attr": {"value": {"tensor": {"dtype": "DT_FLOAT", "tensorShape": {"dim": [{"size": "512"}]}}}, "dtype": {"type": "DT_FLOAT"}}}, {"name": "PartitionedCall/model/tf.math.add_12/Add/y", "op": "Const", "attr": {"dtype": {"type": "DT_FLOAT"}, "value": {"tensor": {"dtype": "DT_FLOAT", "tensorShape": {"dim": [{"size": "256"}]}}}}}, {"name": "PartitionedCall/model/tf.nn.convolution_8/convolution_internal/filters", "op": "Const", "attr": {"dtype": {"type": "DT_FLOAT"}, "value": {"tensor": {"dtype": "DT_FLOAT", "tensorShape": {"dim": [{"size": "1"}, {"size": "1"}, {"size": "256"}, {"size": "64"}]}}}}}, {"name": "PartitionedCall/model/tf.math.add_10/Add/y", "op": "Const", "attr": {"dtype": {"type": "DT_FLOAT"}, "value": {"tensor": {"dtype": "DT_FLOAT", "tensorShape": {"dim": [{"size": "64"}]}}}}}, {"name": "PartitionedCall/model/tf.nn.convolution_9/convolution_internal/filters", "op": "Const", "attr": {"value": {"tensor": {"dtype": "DT_FLOAT", "tensorShape": {"dim": [{"size": "3"}, {"size": "3"}, {"size": "64"}, {"size": "64"}]}}}, "dtype": {"type": "DT_FLOAT"}}}, {"name": "PartitionedCall/model/tf.math.add_11/Add/y", "op": "Const", "attr": {"dtype": {"type": "DT_FLOAT"}, "value": {"tensor": {"dtype": "DT_FLOAT", "tensorShape": {"dim": [{"size": "64"}]}}}}}, {"name": "PartitionedCall/model/tf.nn.convolution_10/convolution_internal/filters", "op": "Const", "attr": {"value": {"tensor": {"dtype": "DT_FLOAT", "tensorShape": {"dim": [{"size": "1"}, {"size": "1"}, {"size": "64"}, {"size": "256"}]}}}, "dtype": {"type": "DT_FLOAT"}}}, {"name": "PartitionedCall/model/tf.math.add_8/Add/y", "op": "Const", "attr": {"dtype": {"type": "DT_FLOAT"}, "value": {"tensor": {"dtype": "DT_FLOAT", "tensorShape": {"dim": [{"size": "256"}]}}}}}, {"name": "PartitionedCall/model/tf.nn.convolution_5/convolution_internal/filters", "op": "Const", "attr": {"dtype": {"type": "DT_FLOAT"}, "value": {"tensor": {"dtype": "DT_FLOAT", "tensorShape": {"dim": [{"size": "1"}, {"size": "1"}, {"size": "256"}, {"size": "64"}]}}}}}, {"name": "PartitionedCall/model/tf.math.add_6/Add/y", "op": "Const", "attr": {"dtype": {"type": "DT_FLOAT"}, "value": {"tensor": {"dtype": "DT_FLOAT", "tensorShape": {"dim": [{"size": "64"}]}}}}}, {"name": "PartitionedCall/model/tf.nn.convolution_6/convolution_internal/filters", "op": "Const", "attr": {"dtype": {"type": "DT_FLOAT"}, "value": {"tensor": {"dtype": "DT_FLOAT", "tensorShape": {"dim": [{"size": "3"}, {"size": "3"}, {"size": "64"}, {"size": "64"}]}}}}}, {"name": "PartitionedCall/model/tf.math.add_7/Add/y", "op": "Const", "attr": {"dtype": {"type": "DT_FLOAT"}, "value": {"tensor": {"dtype": "DT_FLOAT", "tensorShape": {"dim": [{"size": "64"}]}}}}}, {"name": "PartitionedCall/model/tf.nn.convolution_7/convolution_internal/filters", "op": "Const", "attr": {"dtype": {"type": "DT_FLOAT"}, "value": {"tensor": {"dtype": "DT_FLOAT", "tensorShape": {"dim": [{"size": "1"}, {"size": "1"}, {"size": "64"}, {"size": "256"}]}}}}}, {"name": "PartitionedCall/model/tf.math.add_5/ArithmeticOptimizer/AddOpsRewrite_Leaf_0_Add", "op": "Const", "attr": {"dtype": {"type": "DT_FLOAT"}, "value": {"tensor": {"dtype": "DT_FLOAT", "tensorShape": {"dim": [{"size": "256"}]}}}}}, {"name": "PartitionedCall/model/tf.nn.convolution_1/convolution_internal/filters", "op": "Const", "attr": {"dtype": {"type": "DT_FLOAT"}, "value": {"tensor": {"dtype": "DT_FLOAT", "tensorShape": {"dim": [{"size": "1"}, {"size": "1"}, {"size": "64"}, {"size": "64"}]}}}}}, {"name": "PartitionedCall/model/tf.math.add_1/Add/y", "op": "Const", "attr": {"dtype": {"type": "DT_FLOAT"}, "value": {"tensor": {"dtype": "DT_FLOAT", "tensorShape": {"dim": [{"size": "64"}]}}}}}, {"name": "PartitionedCall/model/tf.nn.convolution_3/convolution_internal/filters", "op": "Const", "attr": {"value": {"tensor": {"dtype": "DT_FLOAT", "tensorShape": {"dim": [{"size": "3"}, {"size": "3"}, {"size": "64"}, {"size": "64"}]}}}, "dtype": {"type": "DT_FLOAT"}}}, {"name": "PartitionedCall/model/tf.math.add_3/Add/y", "op": "Const", "attr": {"value": {"tensor": {"dtype": "DT_FLOAT", "tensorShape": {"dim": [{"size": "64"}]}}}, "dtype": {"type": "DT_FLOAT"}}}, {"name": "PartitionedCall/model/tf.nn.convolution_4/convolution_internal/filters", "op": "Const", "attr": {"value": {"tensor": {"dtype": "DT_FLOAT", "tensorShape": {"dim": [{"size": "1"}, {"size": "1"}, {"size": "64"}, {"size": "256"}]}}}, "dtype": {"type": "DT_FLOAT"}}}, {"name": "unknown", "op": "Const", "attr": {"value": {"tensor": {"dtype": "DT_INT32", "tensorShape": {"dim": [{"size": "4"}, {"size": "2"}]}}}, "dtype": {"type": "DT_INT32"}}}, {"name": "PartitionedCall/model/tf.nn.convolution/convolution_internal/filters", "op": "Const", "attr": {"value": {"tensor": {"dtype": "DT_FLOAT", "tensorShape": {"dim": [{"size": "7"}, {"size": "7"}, {"size": "3"}, {"size": "64"}]}}}, "dtype": {"type": "DT_FLOAT"}}}, {"name": "PartitionedCall/model/tf.math.add/Add/y", "op": "Const", "attr": {"dtype": {"type": "DT_FLOAT"}, "value": {"tensor": {"dtype": "DT_FLOAT", "tensorShape": {"dim": [{"size": "64"}]}}}}}, {"name": "PartitionedCall/model/tf.compat.v1.pad_1/Pad/paddings", "op": "Const", "attr": {"value": {"tensor": {"dtype": "DT_INT64", "tensorShape": {"dim": [{"size": "4"}, {"size": "2"}]}}}, "dtype": {"type": "DT_INT64"}}}, {"name": "PartitionedCall/model/tf.nn.convolution_2/convolution_internal/filters", "op": "Const", "attr": {"dtype": {"type": "DT_FLOAT"}, "value": {"tensor": {"dtype": "DT_FLOAT", "tensorShape": {"dim": [{"size": "1"}, {"size": "1"}, {"size": "64"}, {"size": "256"}]}}}}}, {"name": "PartitionedCall/model/tf.nn.convolution_12/convolution_internal/filters", "op": "Const", "attr": {"value": {"tensor": {"dtype": "DT_FLOAT", "tensorShape": {"dim": [{"size": "1"}, {"size": "1"}, {"size": "256"}, {"size": "512"}]}}}, "dtype": {"type": "DT_FLOAT"}}}, {"name": "PartitionedCall/model/tf.math.add_15/Add/y", "op": "Const", "attr": {"dtype": {"type": "DT_FLOAT"}, "value": {"tensor": {"dtype": "DT_FLOAT", "tensorShape": {"dim": [{"size": "512"}]}}}}}, {"name": "PartitionedCall/model/tf.nn.convolution_25/convolution_internal/filters", "op": "Const", "attr": {"dtype": {"type": "DT_FLOAT"}, "value": {"tensor": {"dtype": "DT_FLOAT", "tensorShape": {"dim": [{"size": "1"}, {"size": "1"}, {"size": "512"}, {"size": "1024"}]}}}}}, {"name": "PartitionedCall/model/tf.math.add_32/Add/y", "op": "Const", "attr": {"dtype": {"type": "DT_FLOAT"}, "value": {"tensor": {"dtype": "DT_FLOAT", "tensorShape": {"dim": [{"size": "1024"}]}}}}}, {"name": "PartitionedCall/model/tf.nn.convolution_44/convolution_internal/filters", "op": "Const", "attr": {"value": {"tensor": {"dtype": "DT_FLOAT", "tensorShape": {"dim": [{"size": "1"}, {"size": "1"}, {"size": "1024"}, {"size": "2048"}]}}}, "dtype": {"type": "DT_FLOAT"}}}, {"name": "PartitionedCall/model/tf.concat/concat/axis", "op": "Const", "attr": {"value": {"tensor": {"dtype": "DT_INT32", "tensorShape": {}}}, "dtype": {"type": "DT_INT32"}}}, {"name": "PartitionedCall/model/tf.nn.convolution_53/convolution_internal/filters", "op": "Const", "attr": {"dtype": {"type": "DT_FLOAT"}, "value": {"tensor": {"dtype": "DT_FLOAT", "tensorShape": {"dim": [{"size": "1"}, {"size": "1"}, {"size": "4096"}, {"size": "768"}]}}}}}, {"name": "PartitionedCall/model/tf.math.add_69/Add/y", "op": "Const", "attr": {"value": {"tensor": {"dtype": "DT_FLOAT", "tensorShape": {"dim": [{"size": "768"}]}}}, "dtype": {"type": "DT_FLOAT"}}}, {"name": "input", "op": "Placeholder", "attr": {"shape": {"shape": {"dim": [{"size": "-1"}, {"size": "256"}, {"size": "128"}, {"size": "3"}]}}, "dtype": {"type": "DT_FLOAT"}}}, {"name": "PartitionedCall/model/tf.compat.v1.pad/Pad", "op": "Pad", "input": ["input", "unknown"], "attr": {"Tpaddings": {"type": "DT_INT32"}, "T": {"type": "DT_FLOAT"}}}, {"name": "PartitionedCall/model/tf.nn.convolution/convolution", "op": "Conv2D", "input": ["PartitionedCall/model/tf.compat.v1.pad/Pad", "PartitionedCall/model/tf.nn.convolution/convolution_internal/filters"], "device": "/device:CPU:0", "attr": {"explicit_paddings": {"list": {}}, "data_format": {"s": "TkhXQw=="}, "dilations": {"list": {"i": ["1", "1", "1", "1"]}}, "strides": {"list": {"i": ["1", "2", "2", "1"]}}, "T": {"type": "DT_FLOAT"}, "padding": {"s": "VkFMSUQ="}, "use_cudnn_on_gpu": {"b": true}}}, {"name": "PartitionedCall/model/tf.math.add/Add", "op": "AddV2", "input": ["PartitionedCall/model/tf.nn.convolution/convolution", "PartitionedCall/model/tf.math.add/Add/y"], "attr": {"T": {"type": "DT_FLOAT"}}}, {"name": "PartitionedCall/model/tf.nn.relu/Relu", "op": "Relu", "input": ["PartitionedCall/model/tf.math.add/Add"], "attr": {"T": {"type": "DT_FLOAT"}}}, {"name": "PartitionedCall/model/tf.compat.v1.pad_1/Pad", "op": "Pad", "input": ["PartitionedCall/model/tf.nn.relu/Relu", "PartitionedCall/model/tf.compat.v1.pad_1/Pad/paddings"], "attr": {"T": {"type": "DT_FLOAT"}, "Tpaddings": {"type": "DT_INT64"}}}, {"name": "PartitionedCall/model/tf.nn.max_pool2d/MaxPool2d", "op": "MaxPool", "input": ["PartitionedCall/model/tf.compat.v1.pad_1/Pad"], "attr": {"padding": {"s": "VkFMSUQ="}, "T": {"type": "DT_FLOAT"}, "ksize": {"list": {"i": ["1", "3", "3", "1"]}}, "strides": {"list": {"i": ["1", "2", "2", "1"]}}, "explicit_paddings": {"list": {}}, "data_format": {"s": "TkhXQw=="}}}, {"name": "PartitionedCall/model/tf.nn.convolution_1/convolution", "op": "Conv2D", "input": ["PartitionedCall/model/tf.nn.max_pool2d/MaxPool2d", "PartitionedCall/model/tf.nn.convolution_1/convolution_internal/filters"], "device": "/device:CPU:0", "attr": {"data_format": {"s": "TkhXQw=="}, "dilations": {"list": {"i": ["1", "1", "1", "1"]}}, "use_cudnn_on_gpu": {"b": true}, "explicit_paddings": {"list": {}}, "strides": {"list": {"i": ["1", "1", "1", "1"]}}, "padding": {"s": "U0FNRQ=="}, "T": {"type": "DT_FLOAT"}}}, {"name": "PartitionedCall/model/tf.nn.convolution_2/convolution", "op": "Conv2D", "input": ["PartitionedCall/model/tf.nn.max_pool2d/MaxPool2d", "PartitionedCall/model/tf.nn.convolution_2/convolution_internal/filters"], "device": "/device:CPU:0", "attr": {"padding": {"s": "U0FNRQ=="}, "use_cudnn_on_gpu": {"b": true}, "T": {"type": "DT_FLOAT"}, "strides": {"list": {"i": ["1", "1", "1", "1"]}}, "dilations": {"list": {"i": ["1", "1", "1", "1"]}}, "data_format": {"s": "TkhXQw=="}, "explicit_paddings": {"list": {}}}}, {"name": "PartitionedCall/model/tf.math.add_1/Add", "op": "AddV2", "input": ["PartitionedCall/model/tf.nn.convolution_1/convolution", "PartitionedCall/model/tf.math.add_1/Add/y"], "attr": {"T": {"type": "DT_FLOAT"}}}, {"name": "PartitionedCall/model/tf.nn.relu_1/Relu", "op": "Relu", "input": ["PartitionedCall/model/tf.math.add_1/Add"], "attr": {"T": {"type": "DT_FLOAT"}}}, {"name": "PartitionedCall/model/tf.nn.convolution_3/convolution", "op": "Conv2D", "input": ["PartitionedCall/model/tf.nn.relu_1/Relu", "PartitionedCall/model/tf.nn.convolution_3/convolution_internal/filters"], "device": "/device:CPU:0", "attr": {"T": {"type": "DT_FLOAT"}, "padding": {"s": "U0FNRQ=="}, "explicit_paddings": {"list": {}}, "data_format": {"s": "TkhXQw=="}, "strides": {"list": {"i": ["1", "1", "1", "1"]}}, "dilations": {"list": {"i": ["1", "1", "1", "1"]}}, "use_cudnn_on_gpu": {"b": true}}}, {"name": "PartitionedCall/model/tf.math.add_3/Add", "op": "AddV2", "input": ["PartitionedCall/model/tf.nn.convolution_3/convolution", "PartitionedCall/model/tf.math.add_3/Add/y"], "attr": {"T": {"type": "DT_FLOAT"}}}, {"name": "PartitionedCall/model/tf.nn.relu_2/Relu", "op": "Relu", "input": ["PartitionedCall/model/tf.math.add_3/Add"], "attr": {"T": {"type": "DT_FLOAT"}}}, {"name": "PartitionedCall/model/tf.nn.convolution_4/convolution", "op": "Conv2D", "input": ["PartitionedCall/model/tf.nn.relu_2/Relu", "PartitionedCall/model/tf.nn.convolution_4/convolution_internal/filters"], "device": "/device:CPU:0", "attr": {"use_cudnn_on_gpu": {"b": true}, "explicit_paddings": {"list": {}}, "strides": {"list": {"i": ["1", "1", "1", "1"]}}, "data_format": {"s": "TkhXQw=="}, "dilations": {"list": {"i": ["1", "1", "1", "1"]}}, "T": {"type": "DT_FLOAT"}, "padding": {"s": "U0FNRQ=="}}}, {"name": "PartitionedCall/model/tf.math.add_5/ArithmeticOptimizer/AddOpsRewrite_Leaf_1_Add", "op": "AddN", "input": ["PartitionedCall/model/tf.nn.convolution_4/convolution", "PartitionedCall/model/tf.nn.convolution_2/convolution"], "attr": {"_grappler_ArithmeticOptimizer_AddOpsRewriteStage": {"b": true}, "T": {"type": "DT_FLOAT"}, "N": {"i": "2"}}}, {"name": "PartitionedCall/model/tf.math.add_5/ArithmeticOptimizer/AddOpsRewrite_Add", "op": "AddV2", "input": ["PartitionedCall/model/tf.math.add_5/ArithmeticOptimizer/AddOpsRewrite_Leaf_0_Add", "PartitionedCall/model/tf.math.add_5/ArithmeticOptimizer/AddOpsRewrite_Leaf_1_Add"], "attr": {"T": {"type": "DT_FLOAT"}, "_grappler_ArithmeticOptimizer_AddOpsRewriteStage": {"b": true}}}, {"name": "PartitionedCall/model/tf.nn.relu_3/Relu", "op": "Relu", "input": ["PartitionedCall/model/tf.math.add_5/ArithmeticOptimizer/AddOpsRewrite_Add"], "attr": {"T": {"type": "DT_FLOAT"}}}, {"name": "PartitionedCall/model/tf.nn.convolution_5/convolution", "op": "Conv2D", "input": ["PartitionedCall/model/tf.nn.relu_3/Relu", "PartitionedCall/model/tf.nn.convolution_5/convolution_internal/filters"], "device": "/device:CPU:0", "attr": {"use_cudnn_on_gpu": {"b": true}, "explicit_paddings": {"list": {}}, "T": {"type": "DT_FLOAT"}, "data_format": {"s": "TkhXQw=="}, "strides": {"list": {"i": ["1", "1", "1", "1"]}}, "padding": {"s": "U0FNRQ=="}, "dilations": {"list": {"i": ["1", "1", "1", "1"]}}}}, {"name": "PartitionedCall/model/tf.math.add_6/Add", "op": "AddV2", "input": ["PartitionedCall/model/tf.nn.convolution_5/convolution", "PartitionedCall/model/tf.math.add_6/Add/y"], "attr": {"T": {"type": "DT_FLOAT"}}}, {"name": "PartitionedCall/model/tf.nn.relu_4/Relu", "op": "Relu", "input": ["PartitionedCall/model/tf.math.add_6/Add"], "attr": {"T": {"type": "DT_FLOAT"}}}, {"name": "PartitionedCall/model/tf.nn.convolution_6/convolution", "op": "Conv2D", "input": ["PartitionedCall/model/tf.nn.relu_4/Relu", "PartitionedCall/model/tf.nn.convolution_6/convolution_internal/filters"], "device": "/device:CPU:0", "attr": {"dilations": {"list": {"i": ["1", "1", "1", "1"]}}, "use_cudnn_on_gpu": {"b": true}, "padding": {"s": "U0FNRQ=="}, "data_format": {"s": "TkhXQw=="}, "explicit_paddings": {"list": {}}, "T": {"type": "DT_FLOAT"}, "strides": {"list": {"i": ["1", "1", "1", "1"]}}}}, {"name": "PartitionedCall/model/tf.math.add_7/Add", "op": "AddV2", "input": ["PartitionedCall/model/tf.nn.convolution_6/convolution", "PartitionedCall/model/tf.math.add_7/Add/y"], "attr": {"T": {"type": "DT_FLOAT"}}}, {"name": "PartitionedCall/model/tf.nn.relu_5/Relu", "op": "Relu", "input": ["PartitionedCall/model/tf.math.add_7/Add"], "attr": {"T": {"type": "DT_FLOAT"}}}, {"name": "PartitionedCall/model/tf.nn.convolution_7/convolution", "op": "Conv2D", "input": ["PartitionedCall/model/tf.nn.relu_5/Relu", "PartitionedCall/model/tf.nn.convolution_7/convolution_internal/filters"], "device": "/device:CPU:0", "attr": {"T": {"type": "DT_FLOAT"}, "data_format": {"s": "TkhXQw=="}, "padding": {"s": "U0FNRQ=="}, "use_cudnn_on_gpu": {"b": true}, "explicit_paddings": {"list": {}}, "strides": {"list": {"i": ["1", "1", "1", "1"]}}, "dilations": {"list": {"i": ["1", "1", "1", "1"]}}}}, {"name": "PartitionedCall/model/tf.math.add_9/ArithmeticOptimizer/AddOpsRewrite_Leaf_1_Add", "op": "AddN", "input": ["PartitionedCall/model/tf.nn.convolution_7/convolution", "PartitionedCall/model/tf.nn.relu_3/Relu"], "attr": {"_grappler_ArithmeticOptimizer_AddOpsRewriteStage": {"b": true}, "T": {"type": "DT_FLOAT"}, "N": {"i": "2"}}}, {"name": "PartitionedCall/model/tf.math.add_9/ArithmeticOptimizer/AddOpsRewrite_Add", "op": "AddV2", "input": ["PartitionedCall/model/tf.math.add_8/Add/y", "PartitionedCall/model/tf.math.add_9/ArithmeticOptimizer/AddOpsRewrite_Leaf_1_Add"], "attr": {"_grappler_ArithmeticOptimizer_AddOpsRewriteStage": {"b": true}, "T": {"type": "DT_FLOAT"}}}, {"name": "PartitionedCall/model/tf.nn.relu_6/Relu", "op": "Relu", "input": ["PartitionedCall/model/tf.math.add_9/ArithmeticOptimizer/AddOpsRewrite_Add"], "attr": {"T": {"type": "DT_FLOAT"}}}, {"name": "PartitionedCall/model/tf.nn.convolution_8/convolution", "op": "Conv2D", "input": ["PartitionedCall/model/tf.nn.relu_6/Relu", "PartitionedCall/model/tf.nn.convolution_8/convolution_internal/filters"], "device": "/device:CPU:0", "attr": {"use_cudnn_on_gpu": {"b": true}, "data_format": {"s": "TkhXQw=="}, "explicit_paddings": {"list": {}}, "padding": {"s": "U0FNRQ=="}, "dilations": {"list": {"i": ["1", "1", "1", "1"]}}, "T": {"type": "DT_FLOAT"}, "strides": {"list": {"i": ["1", "1", "1", "1"]}}}}, {"name": "PartitionedCall/model/tf.math.add_10/Add", "op": "AddV2", "input": ["PartitionedCall/model/tf.nn.convolution_8/convolution", "PartitionedCall/model/tf.math.add_10/Add/y"], "attr": {"T": {"type": "DT_FLOAT"}}}, {"name": "PartitionedCall/model/tf.nn.relu_7/Relu", "op": "Relu", "input": ["PartitionedCall/model/tf.math.add_10/Add"], "attr": {"T": {"type": "DT_FLOAT"}}}, {"name": "PartitionedCall/model/tf.nn.convolution_9/convolution", "op": "Conv2D", "input": ["PartitionedCall/model/tf.nn.relu_7/Relu", "PartitionedCall/model/tf.nn.convolution_9/convolution_internal/filters"], "device": "/device:CPU:0", "attr": {"dilations": {"list": {"i": ["1", "1", "1", "1"]}}, "use_cudnn_on_gpu": {"b": true}, "padding": {"s": "U0FNRQ=="}, "T": {"type": "DT_FLOAT"}, "strides": {"list": {"i": ["1", "1", "1", "1"]}}, "data_format": {"s": "TkhXQw=="}, "explicit_paddings": {"list": {}}}}, {"name": "PartitionedCall/model/tf.math.add_11/Add", "op": "AddV2", "input": ["PartitionedCall/model/tf.nn.convolution_9/convolution", "PartitionedCall/model/tf.math.add_11/Add/y"], "attr": {"T": {"type": "DT_FLOAT"}}}, {"name": "PartitionedCall/model/tf.nn.relu_8/Relu", "op": "Relu", "input": ["PartitionedCall/model/tf.math.add_11/Add"], "attr": {"T": {"type": "DT_FLOAT"}}}, {"name": "PartitionedCall/model/tf.nn.convolution_10/convolution", "op": "Conv2D", "input": ["PartitionedCall/model/tf.nn.relu_8/Relu", "PartitionedCall/model/tf.nn.convolution_10/convolution_internal/filters"], "device": "/device:CPU:0", "attr": {"explicit_paddings": {"list": {}}, "strides": {"list": {"i": ["1", "1", "1", "1"]}}, "dilations": {"list": {"i": ["1", "1", "1", "1"]}}, "padding": {"s": "U0FNRQ=="}, "data_format": {"s": "TkhXQw=="}, "T": {"type": "DT_FLOAT"}, "use_cudnn_on_gpu": {"b": true}}}, {"name": "PartitionedCall/model/tf.math.add_13/ArithmeticOptimizer/AddOpsRewrite_Leaf_1_Add", "op": "AddN", "input": ["PartitionedCall/model/tf.nn.convolution_10/convolution", "PartitionedCall/model/tf.nn.relu_6/Relu"], "attr": {"_grappler_ArithmeticOptimizer_AddOpsRewriteStage": {"b": true}, "T": {"type": "DT_FLOAT"}, "N": {"i": "2"}}}, {"name": "PartitionedCall/model/tf.math.add_13/ArithmeticOptimizer/AddOpsRewrite_Add", "op": "AddV2", "input": ["PartitionedCall/model/tf.math.add_12/Add/y", "PartitionedCall/model/tf.math.add_13/ArithmeticOptimizer/AddOpsRewrite_Leaf_1_Add"], "attr": {"_grappler_ArithmeticOptimizer_AddOpsRewriteStage": {"b": true}, "T": {"type": "DT_FLOAT"}}}, {"name": "PartitionedCall/model/tf.nn.relu_9/Relu", "op": "Relu", "input": ["PartitionedCall/model/tf.math.add_13/ArithmeticOptimizer/AddOpsRewrite_Add"], "attr": {"T": {"type": "DT_FLOAT"}}}, {"name": "PartitionedCall/model/tf.nn.convolution_11/convolution", "op": "Conv2D", "input": ["PartitionedCall/model/tf.nn.relu_9/Relu", "PartitionedCall/model/tf.nn.convolution_11/convolution_internal/filters"], "device": "/device:CPU:0", "attr": {"explicit_paddings": {"list": {}}, "padding": {"s": "U0FNRQ=="}, "strides": {"list": {"i": ["1", "1", "1", "1"]}}, "data_format": {"s": "TkhXQw=="}, "dilations": {"list": {"i": ["1", "1", "1", "1"]}}, "use_cudnn_on_gpu": {"b": true}, "T": {"type": "DT_FLOAT"}}}, {"name": "PartitionedCall/model/tf.nn.convolution_12/convolution", "op": "Conv2D", "input": ["PartitionedCall/model/tf.nn.relu_9/Relu", "PartitionedCall/model/tf.nn.convolution_12/convolution_internal/filters"], "device": "/device:CPU:0", "attr": {"dilations": {"list": {"i": ["1", "1", "1", "1"]}}, "padding": {"s": "VkFMSUQ="}, "explicit_paddings": {"list": {}}, "use_cudnn_on_gpu": {"b": true}, "data_format": {"s": "TkhXQw=="}, "T": {"type": "DT_FLOAT"}, "strides": {"list": {"i": ["1", "2", "2", "1"]}}}}, {"name": "PartitionedCall/model/tf.math.add_14/Add", "op": "AddV2", "input": ["PartitionedCall/model/tf.nn.convolution_11/convolution", "PartitionedCall/model/tf.math.add_14/Add/y"], "attr": {"T": {"type": "DT_FLOAT"}}}, {"name": "PartitionedCall/model/tf.math.add_15/Add", "op": "AddV2", "input": ["PartitionedCall/model/tf.nn.convolution_12/convolution", "PartitionedCall/model/tf.math.add_15/Add/y"], "attr": {"T": {"type": "DT_FLOAT"}}}, {"name": "PartitionedCall/model/tf.nn.relu_10/Relu", "op": "Relu", "input": ["PartitionedCall/model/tf.math.add_14/Add"], "attr": {"T": {"type": "DT_FLOAT"}}}, {"name": "PartitionedCall/model/tf.compat.v1.pad_2/Pad", "op": "Pad", "input": ["PartitionedCall/model/tf.nn.relu_10/Relu", "unknown_4"], "attr": {"T": {"type": "DT_FLOAT"}, "Tpaddings": {"type": "DT_INT32"}}}, {"name": "PartitionedCall/model/tf.nn.convolution_13/convolution", "op": "Conv2D", "input": ["PartitionedCall/model/tf.compat.v1.pad_2/Pad", "PartitionedCall/model/tf.nn.convolution_13/convolution_internal/filters"], "device": "/device:CPU:0", "attr": {"padding": {"s": "VkFMSUQ="}, "strides": {"list": {"i": ["1", "2", "2", "1"]}}, "data_format": {"s": "TkhXQw=="}, "T": {"type": "DT_FLOAT"}, "dilations": {"list": {"i": ["1", "1", "1", "1"]}}, "use_cudnn_on_gpu": {"b": true}, "explicit_paddings": {"list": {}}}}, {"name": "PartitionedCall/model/tf.math.add_16/Add", "op": "AddV2", "input": ["PartitionedCall/model/tf.nn.convolution_13/convolution", "PartitionedCall/model/tf.math.add_16/Add/y"], "attr": {"T": {"type": "DT_FLOAT"}}}, {"name": "PartitionedCall/model/tf.nn.relu_11/Relu", "op": "Relu", "input": ["PartitionedCall/model/tf.math.add_16/Add"], "attr": {"T": {"type": "DT_FLOAT"}}}, {"name": "PartitionedCall/model/tf.nn.convolution_14/convolution", "op": "Conv2D", "input": ["PartitionedCall/model/tf.nn.relu_11/Relu", "PartitionedCall/model/tf.nn.convolution_14/convolution_internal/filters"], "device": "/device:CPU:0", "attr": {"data_format": {"s": "TkhXQw=="}, "strides": {"list": {"i": ["1", "1", "1", "1"]}}, "T": {"type": "DT_FLOAT"}, "padding": {"s": "U0FNRQ=="}, "use_cudnn_on_gpu": {"b": true}, "dilations": {"list": {"i": ["1", "1", "1", "1"]}}, "explicit_paddings": {"list": {}}}}, {"name": "PartitionedCall/model/tf.math.add_17/Add", "op": "AddV2", "input": ["PartitionedCall/model/tf.nn.convolution_14/convolution", "PartitionedCall/model/tf.math.add_17/Add/y"], "attr": {"T": {"type": "DT_FLOAT"}}}, {"name": "PartitionedCall/model/tf.math.add_18/Add", "op": "AddV2", "input": ["PartitionedCall/model/tf.math.add_17/Add", "PartitionedCall/model/tf.math.add_15/Add"], "attr": {"T": {"type": "DT_FLOAT"}}}, {"name": "PartitionedCall/model/tf.nn.relu_12/Relu", "op": "Relu", "input": ["PartitionedCall/model/tf.math.add_18/Add"], "attr": {"T": {"type": "DT_FLOAT"}}}, {"name": "PartitionedCall/model/tf.nn.convolution_15/convolution", "op": "Conv2D", "input": ["PartitionedCall/model/tf.nn.relu_12/Relu", "PartitionedCall/model/tf.nn.convolution_15/convolution_internal/filters"], "device": "/device:CPU:0", "attr": {"explicit_paddings": {"list": {}}, "padding": {"s": "U0FNRQ=="}, "data_format": {"s": "TkhXQw=="}, "T": {"type": "DT_FLOAT"}, "strides": {"list": {"i": ["1", "1", "1", "1"]}}, "use_cudnn_on_gpu": {"b": true}, "dilations": {"list": {"i": ["1", "1", "1", "1"]}}}}, {"name": "PartitionedCall/model/tf.math.add_19/Add", "op": "AddV2", "input": ["PartitionedCall/model/tf.nn.convolution_15/convolution", "PartitionedCall/model/tf.math.add_19/Add/y"], "attr": {"T": {"type": "DT_FLOAT"}}}, {"name": "PartitionedCall/model/tf.nn.relu_13/Relu", "op": "Relu", "input": ["PartitionedCall/model/tf.math.add_19/Add"], "attr": {"T": {"type": "DT_FLOAT"}}}, {"name": "PartitionedCall/model/tf.nn.convolution_16/convolution", "op": "Conv2D", "input": ["PartitionedCall/model/tf.nn.relu_13/Relu", "PartitionedCall/model/tf.nn.convolution_16/convolution_internal/filters"], "device": "/device:CPU:0", "attr": {"data_format": {"s": "TkhXQw=="}, "strides": {"list": {"i": ["1", "1", "1", "1"]}}, "T": {"type": "DT_FLOAT"}, "padding": {"s": "U0FNRQ=="}, "use_cudnn_on_gpu": {"b": true}, "dilations": {"list": {"i": ["1", "1", "1", "1"]}}, "explicit_paddings": {"list": {}}}}, {"name": "PartitionedCall/model/tf.math.add_20/Add", "op": "AddV2", "input": ["PartitionedCall/model/tf.nn.convolution_16/convolution", "PartitionedCall/model/tf.math.add_20/Add/y"], "attr": {"T": {"type": "DT_FLOAT"}}}, {"name": "PartitionedCall/model/tf.nn.relu_14/Relu", "op": "Relu", "input": ["PartitionedCall/model/tf.math.add_20/Add"], "attr": {"T": {"type": "DT_FLOAT"}}}, {"name": "PartitionedCall/model/tf.nn.convolution_17/convolution", "op": "Conv2D", "input": ["PartitionedCall/model/tf.nn.relu_14/Relu", "PartitionedCall/model/tf.nn.convolution_17/convolution_internal/filters"], "device": "/device:CPU:0", "attr": {"T": {"type": "DT_FLOAT"}, "data_format": {"s": "TkhXQw=="}, "padding": {"s": "U0FNRQ=="}, "dilations": {"list": {"i": ["1", "1", "1", "1"]}}, "strides": {"list": {"i": ["1", "1", "1", "1"]}}, "use_cudnn_on_gpu": {"b": true}, "explicit_paddings": {"list": {}}}}, {"name": "PartitionedCall/model/tf.math.add_22/ArithmeticOptimizer/AddOpsRewrite_Leaf_1_Add", "op": "AddN", "input": ["PartitionedCall/model/tf.nn.convolution_17/convolution", "PartitionedCall/model/tf.nn.relu_12/Relu"], "attr": {"_grappler_ArithmeticOptimizer_AddOpsRewriteStage": {"b": true}, "N": {"i": "2"}, "T": {"type": "DT_FLOAT"}}}, {"name": "PartitionedCall/model/tf.math.add_22/ArithmeticOptimizer/AddOpsRewrite_Add", "op": "AddV2", "input": ["PartitionedCall/model/tf.math.add_21/Add/y", "PartitionedCall/model/tf.math.add_22/ArithmeticOptimizer/AddOpsRewrite_Leaf_1_Add"], "attr": {"T": {"type": "DT_FLOAT"}, "_grappler_ArithmeticOptimizer_AddOpsRewriteStage": {"b": true}}}, {"name": "PartitionedCall/model/tf.nn.relu_15/Relu", "op": "Relu", "input": ["PartitionedCall/model/tf.math.add_22/ArithmeticOptimizer/AddOpsRewrite_Add"], "attr": {"T": {"type": "DT_FLOAT"}}}, {"name": "PartitionedCall/model/tf.nn.convolution_18/convolution", "op": "Conv2D", "input": ["PartitionedCall/model/tf.nn.relu_15/Relu", "PartitionedCall/model/tf.nn.convolution_18/convolution_internal/filters"], "device": "/device:CPU:0", "attr": {"padding": {"s": "U0FNRQ=="}, "strides": {"list": {"i": ["1", "1", "1", "1"]}}, "dilations": {"list": {"i": ["1", "1", "1", "1"]}}, "explicit_paddings": {"list": {}}, "use_cudnn_on_gpu": {"b": true}, "T": {"type": "DT_FLOAT"}, "data_format": {"s": "TkhXQw=="}}}, {"name": "PartitionedCall/model/tf.math.add_23/Add", "op": "AddV2", "input": ["PartitionedCall/model/tf.nn.convolution_18/convolution", "PartitionedCall/model/tf.math.add_23/Add/y"], "attr": {"T": {"type": "DT_FLOAT"}}}, {"name": "PartitionedCall/model/tf.nn.relu_16/Relu", "op": "Relu", "input": ["PartitionedCall/model/tf.math.add_23/Add"], "attr": {"T": {"type": "DT_FLOAT"}}}, {"name": "PartitionedCall/model/tf.nn.convolution_19/convolution", "op": "Conv2D", "input": ["PartitionedCall/model/tf.nn.relu_16/Relu", "PartitionedCall/model/tf.nn.convolution_19/convolution_internal/filters"], "device": "/device:CPU:0", "attr": {"use_cudnn_on_gpu": {"b": true}, "padding": {"s": "U0FNRQ=="}, "dilations": {"list": {"i": ["1", "1", "1", "1"]}}, "T": {"type": "DT_FLOAT"}, "data_format": {"s": "TkhXQw=="}, "explicit_paddings": {"list": {}}, "strides": {"list": {"i": ["1", "1", "1", "1"]}}}}, {"name": "PartitionedCall/model/tf.math.add_24/Add", "op": "AddV2", "input": ["PartitionedCall/model/tf.nn.convolution_19/convolution", "PartitionedCall/model/tf.math.add_24/Add/y"], "attr": {"T": {"type": "DT_FLOAT"}}}, {"name": "PartitionedCall/model/tf.nn.relu_17/Relu", "op": "Relu", "input": ["PartitionedCall/model/tf.math.add_24/Add"], "attr": {"T": {"type": "DT_FLOAT"}}}, {"name": "PartitionedCall/model/tf.nn.convolution_20/convolution", "op": "Conv2D", "input": ["PartitionedCall/model/tf.nn.relu_17/Relu", "PartitionedCall/model/tf.nn.convolution_20/convolution_internal/filters"], "device": "/device:CPU:0", "attr": {"data_format": {"s": "TkhXQw=="}, "explicit_paddings": {"list": {}}, "T": {"type": "DT_FLOAT"}, "padding": {"s": "U0FNRQ=="}, "strides": {"list": {"i": ["1", "1", "1", "1"]}}, "use_cudnn_on_gpu": {"b": true}, "dilations": {"list": {"i": ["1", "1", "1", "1"]}}}}, {"name": "PartitionedCall/model/tf.math.add_26/ArithmeticOptimizer/AddOpsRewrite_Leaf_1_Add", "op": "AddN", "input": ["PartitionedCall/model/tf.nn.convolution_20/convolution", "PartitionedCall/model/tf.nn.relu_15/Relu"], "attr": {"_grappler_ArithmeticOptimizer_AddOpsRewriteStage": {"b": true}, "N": {"i": "2"}, "T": {"type": "DT_FLOAT"}}}, {"name": "PartitionedCall/model/tf.math.add_26/ArithmeticOptimizer/AddOpsRewrite_Add", "op": "AddV2", "input": ["PartitionedCall/model/tf.math.add_25/Add/y", "PartitionedCall/model/tf.math.add_26/ArithmeticOptimizer/AddOpsRewrite_Leaf_1_Add"], "attr": {"_grappler_ArithmeticOptimizer_AddOpsRewriteStage": {"b": true}, "T": {"type": "DT_FLOAT"}}}, {"name": "PartitionedCall/model/tf.nn.relu_18/Relu", "op": "Relu", "input": ["PartitionedCall/model/tf.math.add_26/ArithmeticOptimizer/AddOpsRewrite_Add"], "attr": {"T": {"type": "DT_FLOAT"}}}, {"name": "PartitionedCall/model/tf.nn.convolution_21/convolution", "op": "Conv2D", "input": ["PartitionedCall/model/tf.nn.relu_18/Relu", "PartitionedCall/model/tf.nn.convolution_21/convolution_internal/filters"], "device": "/device:CPU:0", "attr": {"strides": {"list": {"i": ["1", "1", "1", "1"]}}, "padding": {"s": "U0FNRQ=="}, "data_format": {"s": "TkhXQw=="}, "explicit_paddings": {"list": {}}, "T": {"type": "DT_FLOAT"}, "dilations": {"list": {"i": ["1", "1", "1", "1"]}}, "use_cudnn_on_gpu": {"b": true}}}, {"name": "PartitionedCall/model/tf.math.add_27/Add", "op": "AddV2", "input": ["PartitionedCall/model/tf.nn.convolution_21/convolution", "PartitionedCall/model/tf.math.add_27/Add/y"], "attr": {"T": {"type": "DT_FLOAT"}}}, {"name": "PartitionedCall/model/tf.nn.relu_19/Relu", "op": "Relu", "input": ["PartitionedCall/model/tf.math.add_27/Add"], "attr": {"T": {"type": "DT_FLOAT"}}}, {"name": "PartitionedCall/model/tf.nn.convolution_22/convolution", "op": "Conv2D", "input": ["PartitionedCall/model/tf.nn.relu_19/Relu", "PartitionedCall/model/tf.nn.convolution_22/convolution_internal/filters"], "device": "/device:CPU:0", "attr": {"T": {"type": "DT_FLOAT"}, "padding": {"s": "U0FNRQ=="}, "strides": {"list": {"i": ["1", "1", "1", "1"]}}, "explicit_paddings": {"list": {}}, "data_format": {"s": "TkhXQw=="}, "use_cudnn_on_gpu": {"b": true}, "dilations": {"list": {"i": ["1", "1", "1", "1"]}}}}, {"name": "PartitionedCall/model/tf.math.add_28/Add", "op": "AddV2", "input": ["PartitionedCall/model/tf.nn.convolution_22/convolution", "PartitionedCall/model/tf.math.add_28/Add/y"], "attr": {"T": {"type": "DT_FLOAT"}}}, {"name": "PartitionedCall/model/tf.nn.relu_20/Relu", "op": "Relu", "input": ["PartitionedCall/model/tf.math.add_28/Add"], "attr": {"T": {"type": "DT_FLOAT"}}}, {"name": "PartitionedCall/model/tf.nn.convolution_23/convolution", "op": "Conv2D", "input": ["PartitionedCall/model/tf.nn.relu_20/Relu", "PartitionedCall/model/tf.nn.convolution_23/convolution_internal/filters"], "device": "/device:CPU:0", "attr": {"use_cudnn_on_gpu": {"b": true}, "dilations": {"list": {"i": ["1", "1", "1", "1"]}}, "padding": {"s": "U0FNRQ=="}, "strides": {"list": {"i": ["1", "1", "1", "1"]}}, "T": {"type": "DT_FLOAT"}, "data_format": {"s": "TkhXQw=="}, "explicit_paddings": {"list": {}}}}, {"name": "PartitionedCall/model/tf.math.add_30/ArithmeticOptimizer/AddOpsRewrite_Leaf_1_Add", "op": "AddN", "input": ["PartitionedCall/model/tf.nn.convolution_23/convolution", "PartitionedCall/model/tf.nn.relu_18/Relu"], "attr": {"_grappler_ArithmeticOptimizer_AddOpsRewriteStage": {"b": true}, "N": {"i": "2"}, "T": {"type": "DT_FLOAT"}}}, {"name": "PartitionedCall/model/tf.math.add_30/ArithmeticOptimizer/AddOpsRewrite_Add", "op": "AddV2", "input": ["PartitionedCall/model/tf.math.add_29/Add/y", "PartitionedCall/model/tf.math.add_30/ArithmeticOptimizer/AddOpsRewrite_Leaf_1_Add"], "attr": {"_grappler_ArithmeticOptimizer_AddOpsRewriteStage": {"b": true}, "T": {"type": "DT_FLOAT"}}}, {"name": "PartitionedCall/model/tf.nn.relu_21/Relu", "op": "Relu", "input": ["PartitionedCall/model/tf.math.add_30/ArithmeticOptimizer/AddOpsRewrite_Add"], "attr": {"T": {"type": "DT_FLOAT"}}}, {"name": "PartitionedCall/model/tf.nn.convolution_24/convolution", "op": "Conv2D", "input": ["PartitionedCall/model/tf.nn.relu_21/Relu", "PartitionedCall/model/tf.nn.convolution_24/convolution_internal/filters"], "device": "/device:CPU:0", "attr": {"use_cudnn_on_gpu": {"b": true}, "explicit_paddings": {"list": {}}, "padding": {"s": "U0FNRQ=="}, "strides": {"list": {"i": ["1", "1", "1", "1"]}}, "data_format": {"s": "TkhXQw=="}, "T": {"type": "DT_FLOAT"}, "dilations": {"list": {"i": ["1", "1", "1", "1"]}}}}, {"name": "PartitionedCall/model/tf.nn.convolution_25/convolution", "op": "Conv2D", "input": ["PartitionedCall/model/tf.nn.relu_21/Relu", "PartitionedCall/model/tf.nn.convolution_25/convolution_internal/filters"], "device": "/device:CPU:0", "attr": {"explicit_paddings": {"list": {}}, "use_cudnn_on_gpu": {"b": true}, "padding": {"s": "VkFMSUQ="}, "T": {"type": "DT_FLOAT"}, "dilations": {"list": {"i": ["1", "1", "1", "1"]}}, "strides": {"list": {"i": ["1", "2", "2", "1"]}}, "data_format": {"s": "TkhXQw=="}}}, {"name": "PartitionedCall/model/tf.math.add_31/Add", "op": "AddV2", "input": ["PartitionedCall/model/tf.nn.convolution_24/convolution", "PartitionedCall/model/tf.math.add_31/Add/y"], "attr": {"T": {"type": "DT_FLOAT"}}}, {"name": "PartitionedCall/model/tf.math.add_32/Add", "op": "AddV2", "input": ["PartitionedCall/model/tf.nn.convolution_25/convolution", "PartitionedCall/model/tf.math.add_32/Add/y"], "attr": {"T": {"type": "DT_FLOAT"}}}, {"name": "PartitionedCall/model/tf.nn.relu_22/Relu", "op": "Relu", "input": ["PartitionedCall/model/tf.math.add_31/Add"], "attr": {"T": {"type": "DT_FLOAT"}}}, {"name": "PartitionedCall/model/tf.compat.v1.pad_3/Pad", "op": "Pad", "input": ["PartitionedCall/model/tf.nn.relu_22/Relu", "unknown_5"], "attr": {"T": {"type": "DT_FLOAT"}, "Tpaddings": {"type": "DT_INT32"}}}, {"name": "PartitionedCall/model/tf.nn.convolution_26/convolution", "op": "Conv2D", "input": ["PartitionedCall/model/tf.compat.v1.pad_3/Pad", "PartitionedCall/model/tf.nn.convolution_26/convolution_internal/filters"], "device": "/device:CPU:0", "attr": {"use_cudnn_on_gpu": {"b": true}, "data_format": {"s": "TkhXQw=="}, "padding": {"s": "VkFMSUQ="}, "T": {"type": "DT_FLOAT"}, "strides": {"list": {"i": ["1", "2", "2", "1"]}}, "explicit_paddings": {"list": {}}, "dilations": {"list": {"i": ["1", "1", "1", "1"]}}}}, {"name": "PartitionedCall/model/tf.math.add_33/Add", "op": "AddV2", "input": ["PartitionedCall/model/tf.nn.convolution_26/convolution", "PartitionedCall/model/tf.math.add_33/Add/y"], "attr": {"T": {"type": "DT_FLOAT"}}}, {"name": "PartitionedCall/model/tf.nn.relu_23/Relu", "op": "Relu", "input": ["PartitionedCall/model/tf.math.add_33/Add"], "attr": {"T": {"type": "DT_FLOAT"}}}, {"name": "PartitionedCall/model/tf.nn.convolution_27/convolution", "op": "Conv2D", "input": ["PartitionedCall/model/tf.nn.relu_23/Relu", "PartitionedCall/model/tf.nn.convolution_27/convolution_internal/filters"], "device": "/device:CPU:0", "attr": {"dilations": {"list": {"i": ["1", "1", "1", "1"]}}, "strides": {"list": {"i": ["1", "1", "1", "1"]}}, "data_format": {"s": "TkhXQw=="}, "explicit_paddings": {"list": {}}, "use_cudnn_on_gpu": {"b": true}, "padding": {"s": "U0FNRQ=="}, "T": {"type": "DT_FLOAT"}}}, {"name": "PartitionedCall/model/tf.math.add_34/Add", "op": "AddV2", "input": ["PartitionedCall/model/tf.nn.convolution_27/convolution", "PartitionedCall/model/tf.math.add_34/Add/y"], "attr": {"T": {"type": "DT_FLOAT"}}}, {"name": "PartitionedCall/model/tf.math.add_35/Add", "op": "AddV2", "input": ["PartitionedCall/model/tf.math.add_34/Add", "PartitionedCall/model/tf.math.add_32/Add"], "attr": {"T": {"type": "DT_FLOAT"}}}, {"name": "PartitionedCall/model/tf.nn.relu_24/Relu", "op": "Relu", "input": ["PartitionedCall/model/tf.math.add_35/Add"], "attr": {"T": {"type": "DT_FLOAT"}}}, {"name": "PartitionedCall/model/tf.nn.convolution_28/convolution", "op": "Conv2D", "input": ["PartitionedCall/model/tf.nn.relu_24/Relu", "PartitionedCall/model/tf.nn.convolution_28/convolution_internal/filters"], "device": "/device:CPU:0", "attr": {"dilations": {"list": {"i": ["1", "1", "1", "1"]}}, "use_cudnn_on_gpu": {"b": true}, "explicit_paddings": {"list": {}}, "padding": {"s": "U0FNRQ=="}, "data_format": {"s": "TkhXQw=="}, "strides": {"list": {"i": ["1", "1", "1", "1"]}}, "T": {"type": "DT_FLOAT"}}}, {"name": "PartitionedCall/model/tf.math.add_36/Add", "op": "AddV2", "input": ["PartitionedCall/model/tf.nn.convolution_28/convolution", "PartitionedCall/model/tf.math.add_36/Add/y"], "attr": {"T": {"type": "DT_FLOAT"}}}, {"name": "PartitionedCall/model/tf.nn.relu_25/Relu", "op": "Relu", "input": ["PartitionedCall/model/tf.math.add_36/Add"], "attr": {"T": {"type": "DT_FLOAT"}}}, {"name": "PartitionedCall/model/tf.nn.convolution_29/convolution", "op": "Conv2D", "input": ["PartitionedCall/model/tf.nn.relu_25/Relu", "PartitionedCall/model/tf.nn.convolution_29/convolution_internal/filters"], "device": "/device:CPU:0", "attr": {"explicit_paddings": {"list": {}}, "padding": {"s": "U0FNRQ=="}, "dilations": {"list": {"i": ["1", "1", "1", "1"]}}, "data_format": {"s": "TkhXQw=="}, "use_cudnn_on_gpu": {"b": true}, "T": {"type": "DT_FLOAT"}, "strides": {"list": {"i": ["1", "1", "1", "1"]}}}}, {"name": "PartitionedCall/model/tf.math.add_37/Add", "op": "AddV2", "input": ["PartitionedCall/model/tf.nn.convolution_29/convolution", "PartitionedCall/model/tf.math.add_37/Add/y"], "attr": {"T": {"type": "DT_FLOAT"}}}, {"name": "PartitionedCall/model/tf.nn.relu_26/Relu", "op": "Relu", "input": ["PartitionedCall/model/tf.math.add_37/Add"], "attr": {"T": {"type": "DT_FLOAT"}}}, {"name": "PartitionedCall/model/tf.nn.convolution_30/convolution", "op": "Conv2D", "input": ["PartitionedCall/model/tf.nn.relu_26/Relu", "PartitionedCall/model/tf.nn.convolution_30/convolution_internal/filters"], "device": "/device:CPU:0", "attr": {"padding": {"s": "U0FNRQ=="}, "use_cudnn_on_gpu": {"b": true}, "explicit_paddings": {"list": {}}, "T": {"type": "DT_FLOAT"}, "strides": {"list": {"i": ["1", "1", "1", "1"]}}, "dilations": {"list": {"i": ["1", "1", "1", "1"]}}, "data_format": {"s": "TkhXQw=="}}}, {"name": "PartitionedCall/model/tf.math.add_39/ArithmeticOptimizer/AddOpsRewrite_Leaf_1_Add", "op": "AddN", "input": ["PartitionedCall/model/tf.nn.convolution_30/convolution", "PartitionedCall/model/tf.nn.relu_24/Relu"], "attr": {"N": {"i": "2"}, "T": {"type": "DT_FLOAT"}, "_grappler_ArithmeticOptimizer_AddOpsRewriteStage": {"b": true}}}, {"name": "PartitionedCall/model/tf.math.add_39/ArithmeticOptimizer/AddOpsRewrite_Add", "op": "AddV2", "input": ["PartitionedCall/model/tf.math.add_38/Add/y", "PartitionedCall/model/tf.math.add_39/ArithmeticOptimizer/AddOpsRewrite_Leaf_1_Add"], "attr": {"_grappler_ArithmeticOptimizer_AddOpsRewriteStage": {"b": true}, "T": {"type": "DT_FLOAT"}}}, {"name": "PartitionedCall/model/tf.nn.relu_27/Relu", "op": "Relu", "input": ["PartitionedCall/model/tf.math.add_39/ArithmeticOptimizer/AddOpsRewrite_Add"], "attr": {"T": {"type": "DT_FLOAT"}}}, {"name": "PartitionedCall/model/tf.nn.convolution_31/convolution", "op": "Conv2D", "input": ["PartitionedCall/model/tf.nn.relu_27/Relu", "PartitionedCall/model/tf.nn.convolution_31/convolution_internal/filters"], "device": "/device:CPU:0", "attr": {"padding": {"s": "U0FNRQ=="}, "dilations": {"list": {"i": ["1", "1", "1", "1"]}}, "T": {"type": "DT_FLOAT"}, "strides": {"list": {"i": ["1", "1", "1", "1"]}}, "use_cudnn_on_gpu": {"b": true}, "data_format": {"s": "TkhXQw=="}, "explicit_paddings": {"list": {}}}}, {"name": "PartitionedCall/model/tf.math.add_40/Add", "op": "AddV2", "input": ["PartitionedCall/model/tf.nn.convolution_31/convolution", "PartitionedCall/model/tf.math.add_40/Add/y"], "attr": {"T": {"type": "DT_FLOAT"}}}, {"name": "PartitionedCall/model/tf.nn.relu_28/Relu", "op": "Relu", "input": ["PartitionedCall/model/tf.math.add_40/Add"], "attr": {"T": {"type": "DT_FLOAT"}}}, {"name": "PartitionedCall/model/tf.nn.convolution_32/convolution", "op": "Conv2D", "input": ["PartitionedCall/model/tf.nn.relu_28/Relu", "PartitionedCall/model/tf.nn.convolution_32/convolution_internal/filters"], "device": "/device:CPU:0", "attr": {"padding": {"s": "U0FNRQ=="}, "T": {"type": "DT_FLOAT"}, "explicit_paddings": {"list": {}}, "strides": {"list": {"i": ["1", "1", "1", "1"]}}, "data_format": {"s": "TkhXQw=="}, "use_cudnn_on_gpu": {"b": true}, "dilations": {"list": {"i": ["1", "1", "1", "1"]}}}}, {"name": "PartitionedCall/model/tf.math.add_41/Add", "op": "AddV2", "input": ["PartitionedCall/model/tf.nn.convolution_32/convolution", "PartitionedCall/model/tf.math.add_41/Add/y"], "attr": {"T": {"type": "DT_FLOAT"}}}, {"name": "PartitionedCall/model/tf.nn.relu_29/Relu", "op": "Relu", "input": ["PartitionedCall/model/tf.math.add_41/Add"], "attr": {"T": {"type": "DT_FLOAT"}}}, {"name": "PartitionedCall/model/tf.nn.convolution_33/convolution", "op": "Conv2D", "input": ["PartitionedCall/model/tf.nn.relu_29/Relu", "PartitionedCall/model/tf.nn.convolution_33/convolution_internal/filters"], "device": "/device:CPU:0", "attr": {"explicit_paddings": {"list": {}}, "padding": {"s": "U0FNRQ=="}, "use_cudnn_on_gpu": {"b": true}, "T": {"type": "DT_FLOAT"}, "strides": {"list": {"i": ["1", "1", "1", "1"]}}, "data_format": {"s": "TkhXQw=="}, "dilations": {"list": {"i": ["1", "1", "1", "1"]}}}}, {"name": "PartitionedCall/model/tf.math.add_43/ArithmeticOptimizer/AddOpsRewrite_Leaf_1_Add", "op": "AddN", "input": ["PartitionedCall/model/tf.nn.convolution_33/convolution", "PartitionedCall/model/tf.nn.relu_27/Relu"], "attr": {"N": {"i": "2"}, "_grappler_ArithmeticOptimizer_AddOpsRewriteStage": {"b": true}, "T": {"type": "DT_FLOAT"}}}, {"name": "PartitionedCall/model/tf.math.add_43/ArithmeticOptimizer/AddOpsRewrite_Add", "op": "AddV2", "input": ["PartitionedCall/model/tf.math.add_42/Add/y", "PartitionedCall/model/tf.math.add_43/ArithmeticOptimizer/AddOpsRewrite_Leaf_1_Add"], "attr": {"_grappler_ArithmeticOptimizer_AddOpsRewriteStage": {"b": true}, "T": {"type": "DT_FLOAT"}}}, {"name": "PartitionedCall/model/tf.nn.relu_30/Relu", "op": "Relu", "input": ["PartitionedCall/model/tf.math.add_43/ArithmeticOptimizer/AddOpsRewrite_Add"], "attr": {"T": {"type": "DT_FLOAT"}}}, {"name": "PartitionedCall/model/tf.nn.convolution_34/convolution", "op": "Conv2D", "input": ["PartitionedCall/model/tf.nn.relu_30/Relu", "PartitionedCall/model/tf.nn.convolution_34/convolution_internal/filters"], "device": "/device:CPU:0", "attr": {"dilations": {"list": {"i": ["1", "1", "1", "1"]}}, "padding": {"s": "U0FNRQ=="}, "use_cudnn_on_gpu": {"b": true}, "data_format": {"s": "TkhXQw=="}, "explicit_paddings": {"list": {}}, "strides": {"list": {"i": ["1", "1", "1", "1"]}}, "T": {"type": "DT_FLOAT"}}}, {"name": "PartitionedCall/model/tf.math.add_44/Add", "op": "AddV2", "input": ["PartitionedCall/model/tf.nn.convolution_34/convolution", "PartitionedCall/model/tf.math.add_44/Add/y"], "attr": {"T": {"type": "DT_FLOAT"}}}, {"name": "PartitionedCall/model/tf.nn.relu_31/Relu", "op": "Relu", "input": ["PartitionedCall/model/tf.math.add_44/Add"], "attr": {"T": {"type": "DT_FLOAT"}}}, {"name": "PartitionedCall/model/tf.nn.convolution_35/convolution", "op": "Conv2D", "input": ["PartitionedCall/model/tf.nn.relu_31/Relu", "PartitionedCall/model/tf.nn.convolution_35/convolution_internal/filters"], "device": "/device:CPU:0", "attr": {"data_format": {"s": "TkhXQw=="}, "T": {"type": "DT_FLOAT"}, "dilations": {"list": {"i": ["1", "1", "1", "1"]}}, "padding": {"s": "U0FNRQ=="}, "explicit_paddings": {"list": {}}, "strides": {"list": {"i": ["1", "1", "1", "1"]}}, "use_cudnn_on_gpu": {"b": true}}}, {"name": "PartitionedCall/model/tf.math.add_45/Add", "op": "AddV2", "input": ["PartitionedCall/model/tf.nn.convolution_35/convolution", "PartitionedCall/model/tf.math.add_45/Add/y"], "attr": {"T": {"type": "DT_FLOAT"}}}, {"name": "PartitionedCall/model/tf.nn.relu_32/Relu", "op": "Relu", "input": ["PartitionedCall/model/tf.math.add_45/Add"], "attr": {"T": {"type": "DT_FLOAT"}}}, {"name": "PartitionedCall/model/tf.nn.convolution_36/convolution", "op": "Conv2D", "input": ["PartitionedCall/model/tf.nn.relu_32/Relu", "PartitionedCall/model/tf.nn.convolution_36/convolution_internal/filters"], "device": "/device:CPU:0", "attr": {"data_format": {"s": "TkhXQw=="}, "T": {"type": "DT_FLOAT"}, "strides": {"list": {"i": ["1", "1", "1", "1"]}}, "explicit_paddings": {"list": {}}, "dilations": {"list": {"i": ["1", "1", "1", "1"]}}, "use_cudnn_on_gpu": {"b": true}, "padding": {"s": "U0FNRQ=="}}}, {"name": "PartitionedCall/model/tf.math.add_47/ArithmeticOptimizer/AddOpsRewrite_Leaf_1_Add", "op": "AddN", "input": ["PartitionedCall/model/tf.nn.convolution_36/convolution", "PartitionedCall/model/tf.nn.relu_30/Relu"], "attr": {"N": {"i": "2"}, "T": {"type": "DT_FLOAT"}, "_grappler_ArithmeticOptimizer_AddOpsRewriteStage": {"b": true}}}, {"name": "PartitionedCall/model/tf.math.add_47/ArithmeticOptimizer/AddOpsRewrite_Add", "op": "AddV2", "input": ["PartitionedCall/model/tf.math.add_46/Add/y", "PartitionedCall/model/tf.math.add_47/ArithmeticOptimizer/AddOpsRewrite_Leaf_1_Add"], "attr": {"_grappler_ArithmeticOptimizer_AddOpsRewriteStage": {"b": true}, "T": {"type": "DT_FLOAT"}}}, {"name": "PartitionedCall/model/tf.nn.relu_33/Relu", "op": "Relu", "input": ["PartitionedCall/model/tf.math.add_47/ArithmeticOptimizer/AddOpsRewrite_Add"], "attr": {"T": {"type": "DT_FLOAT"}}}, {"name": "PartitionedCall/model/tf.nn.convolution_37/convolution", "op": "Conv2D", "input": ["PartitionedCall/model/tf.nn.relu_33/Relu", "PartitionedCall/model/tf.nn.convolution_37/convolution_internal/filters"], "device": "/device:CPU:0", "attr": {"use_cudnn_on_gpu": {"b": true}, "dilations": {"list": {"i": ["1", "1", "1", "1"]}}, "data_format": {"s": "TkhXQw=="}, "padding": {"s": "U0FNRQ=="}, "T": {"type": "DT_FLOAT"}, "explicit_paddings": {"list": {}}, "strides": {"list": {"i": ["1", "1", "1", "1"]}}}}, {"name": "PartitionedCall/model/tf.math.add_48/Add", "op": "AddV2", "input": ["PartitionedCall/model/tf.nn.convolution_37/convolution", "PartitionedCall/model/tf.math.add_48/Add/y"], "attr": {"T": {"type": "DT_FLOAT"}}}, {"name": "PartitionedCall/model/tf.nn.relu_34/Relu", "op": "Relu", "input": ["PartitionedCall/model/tf.math.add_48/Add"], "attr": {"T": {"type": "DT_FLOAT"}}}, {"name": "PartitionedCall/model/tf.nn.convolution_38/convolution", "op": "Conv2D", "input": ["PartitionedCall/model/tf.nn.relu_34/Relu", "PartitionedCall/model/tf.nn.convolution_38/convolution_internal/filters"], "device": "/device:CPU:0", "attr": {"T": {"type": "DT_FLOAT"}, "dilations": {"list": {"i": ["1", "1", "1", "1"]}}, "strides": {"list": {"i": ["1", "1", "1", "1"]}}, "data_format": {"s": "TkhXQw=="}, "use_cudnn_on_gpu": {"b": true}, "explicit_paddings": {"list": {}}, "padding": {"s": "U0FNRQ=="}}}, {"name": "PartitionedCall/model/tf.math.add_49/Add", "op": "AddV2", "input": ["PartitionedCall/model/tf.nn.convolution_38/convolution", "PartitionedCall/model/tf.math.add_49/Add/y"], "attr": {"T": {"type": "DT_FLOAT"}}}, {"name": "PartitionedCall/model/tf.nn.relu_35/Relu", "op": "Relu", "input": ["PartitionedCall/model/tf.math.add_49/Add"], "attr": {"T": {"type": "DT_FLOAT"}}}, {"name": "PartitionedCall/model/tf.nn.convolution_39/convolution", "op": "Conv2D", "input": ["PartitionedCall/model/tf.nn.relu_35/Relu", "PartitionedCall/model/tf.nn.convolution_39/convolution_internal/filters"], "device": "/device:CPU:0", "attr": {"padding": {"s": "U0FNRQ=="}, "use_cudnn_on_gpu": {"b": true}, "explicit_paddings": {"list": {}}, "dilations": {"list": {"i": ["1", "1", "1", "1"]}}, "strides": {"list": {"i": ["1", "1", "1", "1"]}}, "data_format": {"s": "TkhXQw=="}, "T": {"type": "DT_FLOAT"}}}, {"name": "PartitionedCall/model/tf.math.add_51/ArithmeticOptimizer/AddOpsRewrite_Leaf_1_Add", "op": "AddN", "input": ["PartitionedCall/model/tf.nn.convolution_39/convolution", "PartitionedCall/model/tf.nn.relu_33/Relu"], "attr": {"_grappler_ArithmeticOptimizer_AddOpsRewriteStage": {"b": true}, "T": {"type": "DT_FLOAT"}, "N": {"i": "2"}}}, {"name": "PartitionedCall/model/tf.math.add_51/ArithmeticOptimizer/AddOpsRewrite_Add", "op": "AddV2", "input": ["PartitionedCall/model/tf.math.add_50/Add/y", "PartitionedCall/model/tf.math.add_51/ArithmeticOptimizer/AddOpsRewrite_Leaf_1_Add"], "attr": {"T": {"type": "DT_FLOAT"}, "_grappler_ArithmeticOptimizer_AddOpsRewriteStage": {"b": true}}}, {"name": "PartitionedCall/model/tf.nn.relu_36/Relu", "op": "Relu", "input": ["PartitionedCall/model/tf.math.add_51/ArithmeticOptimizer/AddOpsRewrite_Add"], "attr": {"T": {"type": "DT_FLOAT"}}}, {"name": "PartitionedCall/model/tf.nn.convolution_40/convolution", "op": "Conv2D", "input": ["PartitionedCall/model/tf.nn.relu_36/Relu", "PartitionedCall/model/tf.nn.convolution_40/convolution_internal/filters"], "device": "/device:CPU:0", "attr": {"use_cudnn_on_gpu": {"b": true}, "data_format": {"s": "TkhXQw=="}, "dilations": {"list": {"i": ["1", "1", "1", "1"]}}, "explicit_paddings": {"list": {}}, "padding": {"s": "U0FNRQ=="}, "strides": {"list": {"i": ["1", "1", "1", "1"]}}, "T": {"type": "DT_FLOAT"}}}, {"name": "PartitionedCall/model/tf.math.add_52/Add", "op": "AddV2", "input": ["PartitionedCall/model/tf.nn.convolution_40/convolution", "PartitionedCall/model/tf.math.add_52/Add/y"], "attr": {"T": {"type": "DT_FLOAT"}}}, {"name": "PartitionedCall/model/tf.nn.relu_37/Relu", "op": "Relu", "input": ["PartitionedCall/model/tf.math.add_52/Add"], "attr": {"T": {"type": "DT_FLOAT"}}}, {"name": "PartitionedCall/model/tf.nn.convolution_41/convolution", "op": "Conv2D", "input": ["PartitionedCall/model/tf.nn.relu_37/Relu", "PartitionedCall/model/tf.nn.convolution_41/convolution_internal/filters"], "device": "/device:CPU:0", "attr": {"explicit_paddings": {"list": {}}, "padding": {"s": "U0FNRQ=="}, "use_cudnn_on_gpu": {"b": true}, "dilations": {"list": {"i": ["1", "1", "1", "1"]}}, "data_format": {"s": "TkhXQw=="}, "T": {"type": "DT_FLOAT"}, "strides": {"list": {"i": ["1", "1", "1", "1"]}}}}, {"name": "PartitionedCall/model/tf.math.add_53/Add", "op": "AddV2", "input": ["PartitionedCall/model/tf.nn.convolution_41/convolution", "PartitionedCall/model/tf.math.add_53/Add/y"], "attr": {"T": {"type": "DT_FLOAT"}}}, {"name": "PartitionedCall/model/tf.nn.relu_38/Relu", "op": "Relu", "input": ["PartitionedCall/model/tf.math.add_53/Add"], "attr": {"T": {"type": "DT_FLOAT"}}}, {"name": "PartitionedCall/model/tf.nn.convolution_42/convolution", "op": "Conv2D", "input": ["PartitionedCall/model/tf.nn.relu_38/Relu", "PartitionedCall/model/tf.nn.convolution_42/convolution_internal/filters"], "device": "/device:CPU:0", "attr": {"T": {"type": "DT_FLOAT"}, "explicit_paddings": {"list": {}}, "strides": {"list": {"i": ["1", "1", "1", "1"]}}, "dilations": {"list": {"i": ["1", "1", "1", "1"]}}, "padding": {"s": "U0FNRQ=="}, "use_cudnn_on_gpu": {"b": true}, "data_format": {"s": "TkhXQw=="}}}, {"name": "PartitionedCall/model/tf.math.add_55/ArithmeticOptimizer/AddOpsRewrite_Leaf_1_Add", "op": "AddN", "input": ["PartitionedCall/model/tf.nn.convolution_42/convolution", "PartitionedCall/model/tf.nn.relu_36/Relu"], "attr": {"_grappler_ArithmeticOptimizer_AddOpsRewriteStage": {"b": true}, "T": {"type": "DT_FLOAT"}, "N": {"i": "2"}}}, {"name": "PartitionedCall/model/tf.math.add_55/ArithmeticOptimizer/AddOpsRewrite_Add", "op": "AddV2", "input": ["PartitionedCall/model/tf.math.add_54/Add/y", "PartitionedCall/model/tf.math.add_55/ArithmeticOptimizer/AddOpsRewrite_Leaf_1_Add"], "attr": {"T": {"type": "DT_FLOAT"}, "_grappler_ArithmeticOptimizer_AddOpsRewriteStage": {"b": true}}}, {"name": "PartitionedCall/model/tf.nn.relu_39/Relu", "op": "Relu", "input": ["PartitionedCall/model/tf.math.add_55/ArithmeticOptimizer/AddOpsRewrite_Add"], "attr": {"T": {"type": "DT_FLOAT"}}}, {"name": "PartitionedCall/model/tf.nn.convolution_43/convolution", "op": "Conv2D", "input": ["PartitionedCall/model/tf.nn.relu_39/Relu", "PartitionedCall/model/tf.nn.convolution_43/convolution_internal/filters"], "device": "/device:CPU:0", "attr": {"dilations": {"list": {"i": ["1", "1", "1", "1"]}}, "data_format": {"s": "TkhXQw=="}, "strides": {"list": {"i": ["1", "1", "1", "1"]}}, "use_cudnn_on_gpu": {"b": true}, "explicit_paddings": {"list": {}}, "T": {"type": "DT_FLOAT"}, "padding": {"s": "U0FNRQ=="}}}, {"name": "PartitionedCall/model/tf.nn.convolution_44/convolution", "op": "Conv2D", "input": ["PartitionedCall/model/tf.nn.relu_39/Relu", "PartitionedCall/model/tf.nn.convolution_44/convolution_internal/filters"], "device": "/device:CPU:0", "attr": {"T": {"type": "DT_FLOAT"}, "padding": {"s": "U0FNRQ=="}, "explicit_paddings": {"list": {}}, "data_format": {"s": "TkhXQw=="}, "use_cudnn_on_gpu": {"b": true}, "strides": {"list": {"i": ["1", "1", "1", "1"]}}, "dilations": {"list": {"i": ["1", "1", "1", "1"]}}}}, {"name": "PartitionedCall/model/tf.math.add_56/Add", "op": "AddV2", "input": ["PartitionedCall/model/tf.nn.convolution_43/convolution", "PartitionedCall/model/tf.math.add_56/Add/y"], "attr": {"T": {"type": "DT_FLOAT"}}}, {"name": "PartitionedCall/model/tf.nn.relu_40/Relu", "op": "Relu", "input": ["PartitionedCall/model/tf.math.add_56/Add"], "attr": {"T": {"type": "DT_FLOAT"}}}, {"name": "PartitionedCall/model/tf.nn.convolution_45/convolution", "op": "Conv2D", "input": ["PartitionedCall/model/tf.nn.relu_40/Relu", "PartitionedCall/model/tf.nn.convolution_45/convolution_internal/filters"], "device": "/device:CPU:0", "attr": {"padding": {"s": "U0FNRQ=="}, "dilations": {"list": {"i": ["1", "1", "1", "1"]}}, "use_cudnn_on_gpu": {"b": true}, "data_format": {"s": "TkhXQw=="}, "T": {"type": "DT_FLOAT"}, "strides": {"list": {"i": ["1", "1", "1", "1"]}}, "explicit_paddings": {"list": {}}}}, {"name": "PartitionedCall/model/tf.math.add_58/Add", "op": "AddV2", "input": ["PartitionedCall/model/tf.nn.convolution_45/convolution", "PartitionedCall/model/tf.math.add_58/Add/y"], "attr": {"T": {"type": "DT_FLOAT"}}}, {"name": "PartitionedCall/model/tf.nn.relu_41/Relu", "op": "Relu", "input": ["PartitionedCall/model/tf.math.add_58/Add"], "attr": {"T": {"type": "DT_FLOAT"}}}, {"name": "PartitionedCall/model/tf.nn.convolution_46/convolution", "op": "Conv2D", "input": ["PartitionedCall/model/tf.nn.relu_41/Relu", "PartitionedCall/model/tf.nn.convolution_46/convolution_internal/filters"], "device": "/device:CPU:0", "attr": {"padding": {"s": "U0FNRQ=="}, "data_format": {"s": "TkhXQw=="}, "explicit_paddings": {"list": {}}, "use_cudnn_on_gpu": {"b": true}, "strides": {"list": {"i": ["1", "1", "1", "1"]}}, "dilations": {"list": {"i": ["1", "1", "1", "1"]}}, "T": {"type": "DT_FLOAT"}}}, {"name": "PartitionedCall/model/tf.math.add_60/ArithmeticOptimizer/AddOpsRewrite_Leaf_1_Add", "op": "AddN", "input": ["PartitionedCall/model/tf.nn.convolution_46/convolution", "PartitionedCall/model/tf.nn.convolution_44/convolution"], "attr": {"N": {"i": "2"}, "_grappler_ArithmeticOptimizer_AddOpsRewriteStage": {"b": true}, "T": {"type": "DT_FLOAT"}}}, {"name": "PartitionedCall/model/tf.math.add_60/ArithmeticOptimizer/AddOpsRewrite_Add", "op": "AddV2", "input": ["PartitionedCall/model/tf.math.add_60/ArithmeticOptimizer/AddOpsRewrite_Leaf_0_Add", "PartitionedCall/model/tf.math.add_60/ArithmeticOptimizer/AddOpsRewrite_Leaf_1_Add"], "attr": {"_grappler_ArithmeticOptimizer_AddOpsRewriteStage": {"b": true}, "T": {"type": "DT_FLOAT"}}}, {"name": "PartitionedCall/model/tf.nn.relu_42/Relu", "op": "Relu", "input": ["PartitionedCall/model/tf.math.add_60/ArithmeticOptimizer/AddOpsRewrite_Add"], "attr": {"T": {"type": "DT_FLOAT"}}}, {"name": "PartitionedCall/model/tf.nn.convolution_47/convolution", "op": "Conv2D", "input": ["PartitionedCall/model/tf.nn.relu_42/Relu", "PartitionedCall/model/tf.nn.convolution_47/convolution_internal/filters"], "device": "/device:CPU:0", "attr": {"dilations": {"list": {"i": ["1", "1", "1", "1"]}}, "T": {"type": "DT_FLOAT"}, "data_format": {"s": "TkhXQw=="}, "use_cudnn_on_gpu": {"b": true}, "explicit_paddings": {"list": {}}, "padding": {"s": "U0FNRQ=="}, "strides": {"list": {"i": ["1", "1", "1", "1"]}}}}, {"name": "PartitionedCall/model/tf.math.add_61/Add", "op": "AddV2", "input": ["PartitionedCall/model/tf.nn.convolution_47/convolution", "PartitionedCall/model/tf.math.add_61/Add/y"], "attr": {"T": {"type": "DT_FLOAT"}}}, {"name": "PartitionedCall/model/tf.nn.relu_43/Relu", "op": "Relu", "input": ["PartitionedCall/model/tf.math.add_61/Add"], "attr": {"T": {"type": "DT_FLOAT"}}}, {"name": "PartitionedCall/model/tf.nn.convolution_48/convolution", "op": "Conv2D", "input": ["PartitionedCall/model/tf.nn.relu_43/Relu", "PartitionedCall/model/tf.nn.convolution_48/convolution_internal/filters"], "device": "/device:CPU:0", "attr": {"use_cudnn_on_gpu": {"b": true}, "explicit_paddings": {"list": {}}, "data_format": {"s": "TkhXQw=="}, "T": {"type": "DT_FLOAT"}, "dilations": {"list": {"i": ["1", "1", "1", "1"]}}, "strides": {"list": {"i": ["1", "1", "1", "1"]}}, "padding": {"s": "U0FNRQ=="}}}, {"name": "PartitionedCall/model/tf.math.add_62/Add", "op": "AddV2", "input": ["PartitionedCall/model/tf.nn.convolution_48/convolution", "PartitionedCall/model/tf.math.add_62/Add/y"], "attr": {"T": {"type": "DT_FLOAT"}}}, {"name": "PartitionedCall/model/tf.nn.relu_44/Relu", "op": "Relu", "input": ["PartitionedCall/model/tf.math.add_62/Add"], "attr": {"T": {"type": "DT_FLOAT"}}}, {"name": "PartitionedCall/model/tf.nn.convolution_49/convolution", "op": "Conv2D", "input": ["PartitionedCall/model/tf.nn.relu_44/Relu", "PartitionedCall/model/tf.nn.convolution_49/convolution_internal/filters"], "device": "/device:CPU:0", "attr": {"strides": {"list": {"i": ["1", "1", "1", "1"]}}, "explicit_paddings": {"list": {}}, "T": {"type": "DT_FLOAT"}, "use_cudnn_on_gpu": {"b": true}, "data_format": {"s": "TkhXQw=="}, "padding": {"s": "U0FNRQ=="}, "dilations": {"list": {"i": ["1", "1", "1", "1"]}}}}, {"name": "PartitionedCall/model/tf.math.add_64/ArithmeticOptimizer/AddOpsRewrite_Leaf_1_Add", "op": "AddN", "input": ["PartitionedCall/model/tf.nn.convolution_49/convolution", "PartitionedCall/model/tf.nn.relu_42/Relu"], "attr": {"_grappler_ArithmeticOptimizer_AddOpsRewriteStage": {"b": true}, "N": {"i": "2"}, "T": {"type": "DT_FLOAT"}}}, {"name": "PartitionedCall/model/tf.math.add_64/ArithmeticOptimizer/AddOpsRewrite_Add", "op": "AddV2", "input": ["PartitionedCall/model/tf.math.add_63/Add/y", "PartitionedCall/model/tf.math.add_64/ArithmeticOptimizer/AddOpsRewrite_Leaf_1_Add"], "attr": {"T": {"type": "DT_FLOAT"}, "_grappler_ArithmeticOptimizer_AddOpsRewriteStage": {"b": true}}}, {"name": "PartitionedCall/model/tf.nn.relu_45/Relu", "op": "Relu", "input": ["PartitionedCall/model/tf.math.add_64/ArithmeticOptimizer/AddOpsRewrite_Add"], "attr": {"T": {"type": "DT_FLOAT"}}}, {"name": "PartitionedCall/model/tf.nn.convolution_50/convolution", "op": "Conv2D", "input": ["PartitionedCall/model/tf.nn.relu_45/Relu", "PartitionedCall/model/tf.nn.convolution_50/convolution_internal/filters"], "device": "/device:CPU:0", "attr": {"explicit_paddings": {"list": {}}, "use_cudnn_on_gpu": {"b": true}, "padding": {"s": "U0FNRQ=="}, "T": {"type": "DT_FLOAT"}, "data_format": {"s": "TkhXQw=="}, "strides": {"list": {"i": ["1", "1", "1", "1"]}}, "dilations": {"list": {"i": ["1", "1", "1", "1"]}}}}, {"name": "PartitionedCall/model/tf.math.add_65/Add", "op": "AddV2", "input": ["PartitionedCall/model/tf.nn.convolution_50/convolution", "PartitionedCall/model/tf.math.add_65/Add/y"], "attr": {"T": {"type": "DT_FLOAT"}}}, {"name": "PartitionedCall/model/tf.nn.relu_46/Relu", "op": "Relu", "input": ["PartitionedCall/model/tf.math.add_65/Add"], "attr": {"T": {"type": "DT_FLOAT"}}}, {"name": "PartitionedCall/model/tf.nn.convolution_51/convolution", "op": "Conv2D", "input": ["PartitionedCall/model/tf.nn.relu_46/Relu", "PartitionedCall/model/tf.nn.convolution_51/convolution_internal/filters"], "device": "/device:CPU:0", "attr": {"padding": {"s": "U0FNRQ=="}, "explicit_paddings": {"list": {}}, "T": {"type": "DT_FLOAT"}, "dilations": {"list": {"i": ["1", "1", "1", "1"]}}, "data_format": {"s": "TkhXQw=="}, "use_cudnn_on_gpu": {"b": true}, "strides": {"list": {"i": ["1", "1", "1", "1"]}}}}, {"name": "PartitionedCall/model/tf.math.add_66/Add", "op": "AddV2", "input": ["PartitionedCall/model/tf.nn.convolution_51/convolution", "PartitionedCall/model/tf.math.add_66/Add/y"], "attr": {"T": {"type": "DT_FLOAT"}}}, {"name": "PartitionedCall/model/tf.nn.relu_47/Relu", "op": "Relu", "input": ["PartitionedCall/model/tf.math.add_66/Add"], "attr": {"T": {"type": "DT_FLOAT"}}}, {"name": "PartitionedCall/model/tf.nn.convolution_52/convolution", "op": "Conv2D", "input": ["PartitionedCall/model/tf.nn.relu_47/Relu", "PartitionedCall/model/tf.nn.convolution_52/convolution_internal/filters"], "device": "/device:CPU:0", "attr": {"use_cudnn_on_gpu": {"b": true}, "dilations": {"list": {"i": ["1", "1", "1", "1"]}}, "padding": {"s": "U0FNRQ=="}, "T": {"type": "DT_FLOAT"}, "explicit_paddings": {"list": {}}, "data_format": {"s": "TkhXQw=="}, "strides": {"list": {"i": ["1", "1", "1", "1"]}}}}, {"name": "PartitionedCall/model/tf.math.add_68/ArithmeticOptimizer/AddOpsRewrite_Leaf_1_Add", "op": "AddN", "input": ["PartitionedCall/model/tf.nn.convolution_52/convolution", "PartitionedCall/model/tf.nn.relu_45/Relu"], "attr": {"_grappler_ArithmeticOptimizer_AddOpsRewriteStage": {"b": true}, "T": {"type": "DT_FLOAT"}, "N": {"i": "2"}}}, {"name": "PartitionedCall/model/tf.math.add_68/ArithmeticOptimizer/AddOpsRewrite_Add", "op": "AddV2", "input": ["PartitionedCall/model/tf.math.add_67/Add/y", "PartitionedCall/model/tf.math.add_68/ArithmeticOptimizer/AddOpsRewrite_Leaf_1_Add"], "attr": {"_grappler_ArithmeticOptimizer_AddOpsRewriteStage": {"b": true}, "T": {"type": "DT_FLOAT"}}}, {"name": "PartitionedCall/model/tf.nn.relu_48/Relu", "op": "Relu", "input": ["PartitionedCall/model/tf.math.add_68/ArithmeticOptimizer/AddOpsRewrite_Add"], "attr": {"T": {"type": "DT_FLOAT"}}}, {"name": "PartitionedCall/model/tf.math.reduce_mean/Mean", "op": "Mean", "input": ["PartitionedCall/model/tf.nn.relu_48/Relu", "PartitionedCall/model/tf.math.reduce_mean/Mean/reduction_indices"], "attr": {"T": {"type": "DT_FLOAT"}, "keep_dims": {"b": true}, "Tidx": {"type": "DT_INT32"}}}, {"name": "PartitionedCall/model/tf.nn.max_pool2d_1/MaxPool2d", "op": "MaxPool", "input": ["PartitionedCall/model/tf.nn.relu_48/Relu"], "attr": {"strides": {"list": {"i": ["1", "16", "8", "1"]}}, "explicit_paddings": {"list": {}}, "padding": {"s": "VkFMSUQ="}, "data_format": {"s": "TkhXQw=="}, "ksize": {"list": {"i": ["1", "16", "8", "1"]}}, "T": {"type": "DT_FLOAT"}}}, {"name": "PartitionedCall/model/tf.concat/concat", "op": "ConcatV2", "input": ["PartitionedCall/model/tf.math.reduce_mean/Mean", "PartitionedCall/model/tf.nn.max_pool2d_1/MaxPool2d", "PartitionedCall/model/tf.concat/concat/axis"], "attr": {"T": {"type": "DT_FLOAT"}, "Tidx": {"type": "DT_INT32"}, "N": {"i": "2"}}}, {"name": "PartitionedCall/model/tf.nn.convolution_53/convolution", "op": "Conv2D", "input": ["PartitionedCall/model/tf.concat/concat", "PartitionedCall/model/tf.nn.convolution_53/convolution_internal/filters"], "device": "/device:CPU:0", "attr": {"strides": {"list": {"i": ["1", "1", "1", "1"]}}, "padding": {"s": "U0FNRQ=="}, "explicit_paddings": {"list": {}}, "use_cudnn_on_gpu": {"b": true}, "dilations": {"list": {"i": ["1", "1", "1", "1"]}}, "T": {"type": "DT_FLOAT"}, "data_format": {"s": "TkhXQw=="}}}, {"name": "PartitionedCall/model/tf.math.add_69/Add", "op": "AddV2", "input": ["PartitionedCall/model/tf.nn.convolution_53/convolution", "PartitionedCall/model/tf.math.add_69/Add/y"], "attr": {"T": {"type": "DT_FLOAT"}}}, {"name": "Identity", "op": "Identity", "input": ["PartitionedCall/model/tf.math.add_69/Add"], "attr": {"T": {"type": "DT_FLOAT"}}}], "library": {}, "versions": {"producer": 1286}}, "weightsManifest": [{"paths": ["group1-shard1of26.bin", "group1-shard2of26.bin", "group1-shard3of26.bin", "group1-shard4of26.bin", "group1-shard5of26.bin", "group1-shard6of26.bin", "group1-shard7of26.bin", "group1-shard8of26.bin", "group1-shard9of26.bin", "group1-shard10of26.bin", "group1-shard11of26.bin", "group1-shard12of26.bin", "group1-shard13of26.bin", "group1-shard14of26.bin", "group1-shard15of26.bin", "group1-shard16of26.bin", "group1-shard17of26.bin", "group1-shard18of26.bin", "group1-shard19of26.bin", "group1-shard20of26.bin", "group1-shard21of26.bin", "group1-shard22of26.bin", "group1-shard23of26.bin", "group1-shard24of26.bin", "group1-shard25of26.bin", "group1-shard26of26.bin"], "weights": [{"name": "PartitionedCall/model/tf.math.reduce_mean/Mean/reduction_indices", "shape": [2], "dtype": "int32"}, {"name": "PartitionedCall/model/tf.math.add_67/Add/y", "shape": [2048], "dtype": "float32"}, {"name": "PartitionedCall/model/tf.nn.convolution_50/convolution_internal/filters", "shape": [1, 1, 2048, 512], "dtype": "float32"}, {"name": "PartitionedCall/model/tf.math.add_65/Add/y", "shape": [512], "dtype": "float32"}, {"name": "PartitionedCall/model/tf.nn.convolution_51/convolution_internal/filters", "shape": [3, 3, 512, 512], "dtype": "float32"}, {"name": "PartitionedCall/model/tf.math.add_66/Add/y", "shape": [512], "dtype": "float32"}, {"name": "PartitionedCall/model/tf.nn.convolution_52/convolution_internal/filters", "shape": [1, 1, 512, 2048], "dtype": "float32"}, {"name": "PartitionedCall/model/tf.math.add_63/Add/y", "shape": [2048], "dtype": "float32"}, {"name": "PartitionedCall/model/tf.nn.convolution_47/convolution_internal/filters", "shape": [1, 1, 2048, 512], "dtype": "float32"}, {"name": "PartitionedCall/model/tf.math.add_61/Add/y", "shape": [512], "dtype": "float32"}, {"name": "PartitionedCall/model/tf.nn.convolution_48/convolution_internal/filters", "shape": [3, 3, 512, 512], "dtype": "float32"}, {"name": "PartitionedCall/model/tf.math.add_62/Add/y", "shape": [512], "dtype": "float32"}, {"name": "PartitionedCall/model/tf.nn.convolution_49/convolution_internal/filters", "shape": [1, 1, 512, 2048], "dtype": "float32"}, {"name": "PartitionedCall/model/tf.math.add_60/ArithmeticOptimizer/AddOpsRewrite_Leaf_0_Add", "shape": [2048], "dtype": "float32"}, {"name": "PartitionedCall/model/tf.nn.convolution_43/convolution_internal/filters", "shape": [1, 1, 1024, 512], "dtype": "float32"}, {"name": "PartitionedCall/model/tf.math.add_56/Add/y", "shape": [512], "dtype": "float32"}, {"name": "PartitionedCall/model/tf.nn.convolution_45/convolution_internal/filters", "shape": [3, 3, 512, 512], "dtype": "float32"}, {"name": "PartitionedCall/model/tf.math.add_58/Add/y", "shape": [512], "dtype": "float32"}, {"name": "PartitionedCall/model/tf.nn.convolution_46/convolution_internal/filters", "shape": [1, 1, 512, 2048], "dtype": "float32"}, {"name": "PartitionedCall/model/tf.math.add_54/Add/y", "shape": [1024], "dtype": "float32"}, {"name": "PartitionedCall/model/tf.nn.convolution_40/convolution_internal/filters", "shape": [1, 1, 1024, 256], "dtype": "float32"}, {"name": "PartitionedCall/model/tf.math.add_52/Add/y", "shape": [256], "dtype": "float32"}, {"name": "PartitionedCall/model/tf.nn.convolution_41/convolution_internal/filters", "shape": [3, 3, 256, 256], "dtype": "float32"}, {"name": "PartitionedCall/model/tf.math.add_53/Add/y", "shape": [256], "dtype": "float32"}, {"name": "PartitionedCall/model/tf.nn.convolution_42/convolution_internal/filters", "shape": [1, 1, 256, 1024], "dtype": "float32"}, {"name": "PartitionedCall/model/tf.math.add_50/Add/y", "shape": [1024], "dtype": "float32"}, {"name": "PartitionedCall/model/tf.nn.convolution_37/convolution_internal/filters", "shape": [1, 1, 1024, 256], "dtype": "float32"}, {"name": "PartitionedCall/model/tf.math.add_48/Add/y", "shape": [256], "dtype": "float32"}, {"name": "PartitionedCall/model/tf.nn.convolution_38/convolution_internal/filters", "shape": [3, 3, 256, 256], "dtype": "float32"}, {"name": "PartitionedCall/model/tf.math.add_49/Add/y", "shape": [256], "dtype": "float32"}, {"name": "PartitionedCall/model/tf.nn.convolution_39/convolution_internal/filters", "shape": [1, 1, 256, 1024], "dtype": "float32"}, {"name": "PartitionedCall/model/tf.math.add_46/Add/y", "shape": [1024], "dtype": "float32"}, {"name": "PartitionedCall/model/tf.nn.convolution_34/convolution_internal/filters", "shape": [1, 1, 1024, 256], "dtype": "float32"}, {"name": "PartitionedCall/model/tf.math.add_44/Add/y", "shape": [256], "dtype": "float32"}, {"name": "PartitionedCall/model/tf.nn.convolution_35/convolution_internal/filters", "shape": [3, 3, 256, 256], "dtype": "float32"}, {"name": "PartitionedCall/model/tf.math.add_45/Add/y", "shape": [256], "dtype": "float32"}, {"name": "PartitionedCall/model/tf.nn.convolution_36/convolution_internal/filters", "shape": [1, 1, 256, 1024], "dtype": "float32"}, {"name": "PartitionedCall/model/tf.math.add_42/Add/y", "shape": [1024], "dtype": "float32"}, {"name": "PartitionedCall/model/tf.nn.convolution_31/convolution_internal/filters", "shape": [1, 1, 1024, 256], "dtype": "float32"}, {"name": "PartitionedCall/model/tf.math.add_40/Add/y", "shape": [256], "dtype": "float32"}, {"name": "PartitionedCall/model/tf.nn.convolution_32/convolution_internal/filters", "shape": [3, 3, 256, 256], "dtype": "float32"}, {"name": "PartitionedCall/model/tf.math.add_41/Add/y", "shape": [256], "dtype": "float32"}, {"name": "PartitionedCall/model/tf.nn.convolution_33/convolution_internal/filters", "shape": [1, 1, 256, 1024], "dtype": "float32"}, {"name": "PartitionedCall/model/tf.math.add_38/Add/y", "shape": [1024], "dtype": "float32"}, {"name": "PartitionedCall/model/tf.nn.convolution_28/convolution_internal/filters", "shape": [1, 1, 1024, 256], "dtype": "float32"}, {"name": "PartitionedCall/model/tf.math.add_36/Add/y", "shape": [256], "dtype": "float32"}, {"name": "PartitionedCall/model/tf.nn.convolution_29/convolution_internal/filters", "shape": [3, 3, 256, 256], "dtype": "float32"}, {"name": "PartitionedCall/model/tf.math.add_37/Add/y", "shape": [256], "dtype": "float32"}, {"name": "PartitionedCall/model/tf.nn.convolution_30/convolution_internal/filters", "shape": [1, 1, 256, 1024], "dtype": "float32"}, {"name": "PartitionedCall/model/tf.nn.convolution_24/convolution_internal/filters", "shape": [1, 1, 512, 256], "dtype": "float32"}, {"name": "PartitionedCall/model/tf.math.add_31/Add/y", "shape": [256], "dtype": "float32"}, {"name": "unknown_5", "shape": [4, 2], "dtype": "int32"}, {"name": "PartitionedCall/model/tf.nn.convolution_26/convolution_internal/filters", "shape": [3, 3, 256, 256], "dtype": "float32"}, {"name": "PartitionedCall/model/tf.math.add_33/Add/y", "shape": [256], "dtype": "float32"}, {"name": "PartitionedCall/model/tf.nn.convolution_27/convolution_internal/filters", "shape": [1, 1, 256, 1024], "dtype": "float32"}, {"name": "PartitionedCall/model/tf.math.add_34/Add/y", "shape": [1024], "dtype": "float32"}, {"name": "PartitionedCall/model/tf.math.add_29/Add/y", "shape": [512], "dtype": "float32"}, {"name": "PartitionedCall/model/tf.nn.convolution_21/convolution_internal/filters", "shape": [1, 1, 512, 128], "dtype": "float32"}, {"name": "PartitionedCall/model/tf.math.add_27/Add/y", "shape": [128], "dtype": "float32"}, {"name": "PartitionedCall/model/tf.nn.convolution_22/convolution_internal/filters", "shape": [3, 3, 128, 128], "dtype": "float32"}, {"name": "PartitionedCall/model/tf.math.add_28/Add/y", "shape": [128], "dtype": "float32"}, {"name": "PartitionedCall/model/tf.nn.convolution_23/convolution_internal/filters", "shape": [1, 1, 128, 512], "dtype": "float32"}, {"name": "PartitionedCall/model/tf.math.add_25/Add/y", "shape": [512], "dtype": "float32"}, {"name": "PartitionedCall/model/tf.nn.convolution_18/convolution_internal/filters", "shape": [1, 1, 512, 128], "dtype": "float32"}, {"name": "PartitionedCall/model/tf.math.add_23/Add/y", "shape": [128], "dtype": "float32"}, {"name": "PartitionedCall/model/tf.nn.convolution_19/convolution_internal/filters", "shape": [3, 3, 128, 128], "dtype": "float32"}, {"name": "PartitionedCall/model/tf.math.add_24/Add/y", "shape": [128], "dtype": "float32"}, {"name": "PartitionedCall/model/tf.nn.convolution_20/convolution_internal/filters", "shape": [1, 1, 128, 512], "dtype": "float32"}, {"name": "PartitionedCall/model/tf.math.add_21/Add/y", "shape": [512], "dtype": "float32"}, {"name": "PartitionedCall/model/tf.nn.convolution_15/convolution_internal/filters", "shape": [1, 1, 512, 128], "dtype": "float32"}, {"name": "PartitionedCall/model/tf.math.add_19/Add/y", "shape": [128], "dtype": "float32"}, {"name": "PartitionedCall/model/tf.nn.convolution_16/convolution_internal/filters", "shape": [3, 3, 128, 128], "dtype": "float32"}, {"name": "PartitionedCall/model/tf.math.add_20/Add/y", "shape": [128], "dtype": "float32"}, {"name": "PartitionedCall/model/tf.nn.convolution_17/convolution_internal/filters", "shape": [1, 1, 128, 512], "dtype": "float32"}, {"name": "PartitionedCall/model/tf.nn.convolution_11/convolution_internal/filters", "shape": [1, 1, 256, 128], "dtype": "float32"}, {"name": "PartitionedCall/model/tf.math.add_14/Add/y", "shape": [128], "dtype": "float32"}, {"name": "unknown_4", "shape": [4, 2], "dtype": "int32"}, {"name": "PartitionedCall/model/tf.nn.convolution_13/convolution_internal/filters", "shape": [3, 3, 128, 128], "dtype": "float32"}, {"name": "PartitionedCall/model/tf.math.add_16/Add/y", "shape": [128], "dtype": "float32"}, {"name": "PartitionedCall/model/tf.nn.convolution_14/convolution_internal/filters", "shape": [1, 1, 128, 512], "dtype": "float32"}, {"name": "PartitionedCall/model/tf.math.add_17/Add/y", "shape": [512], "dtype": "float32"}, {"name": "PartitionedCall/model/tf.math.add_12/Add/y", "shape": [256], "dtype": "float32"}, {"name": "PartitionedCall/model/tf.nn.convolution_8/convolution_internal/filters", "shape": [1, 1, 256, 64], "dtype": "float32"}, {"name": "PartitionedCall/model/tf.math.add_10/Add/y", "shape": [64], "dtype": "float32"}, {"name": "PartitionedCall/model/tf.nn.convolution_9/convolution_internal/filters", "shape": [3, 3, 64, 64], "dtype": "float32"}, {"name": "PartitionedCall/model/tf.math.add_11/Add/y", "shape": [64], "dtype": "float32"}, {"name": "PartitionedCall/model/tf.nn.convolution_10/convolution_internal/filters", "shape": [1, 1, 64, 256], "dtype": "float32"}, {"name": "PartitionedCall/model/tf.math.add_8/Add/y", "shape": [256], "dtype": "float32"}, {"name": "PartitionedCall/model/tf.nn.convolution_5/convolution_internal/filters", "shape": [1, 1, 256, 64], "dtype": "float32"}, {"name": "PartitionedCall/model/tf.math.add_6/Add/y", "shape": [64], "dtype": "float32"}, {"name": "PartitionedCall/model/tf.nn.convolution_6/convolution_internal/filters", "shape": [3, 3, 64, 64], "dtype": "float32"}, {"name": "PartitionedCall/model/tf.math.add_7/Add/y", "shape": [64], "dtype": "float32"}, {"name": "PartitionedCall/model/tf.nn.convolution_7/convolution_internal/filters", "shape": [1, 1, 64, 256], "dtype": "float32"}, {"name": "PartitionedCall/model/tf.math.add_5/ArithmeticOptimizer/AddOpsRewrite_Leaf_0_Add", "shape": [256], "dtype": "float32"}, {"name": "PartitionedCall/model/tf.nn.convolution_1/convolution_internal/filters", "shape": [1, 1, 64, 64], "dtype": "float32"}, {"name": "PartitionedCall/model/tf.math.add_1/Add/y", "shape": [64], "dtype": "float32"}, {"name": "PartitionedCall/model/tf.nn.convolution_3/convolution_internal/filters", "shape": [3, 3, 64, 64], "dtype": "float32"}, {"name": "PartitionedCall/model/tf.math.add_3/Add/y", "shape": [64], "dtype": "float32"}, {"name": "PartitionedCall/model/tf.nn.convolution_4/convolution_internal/filters", "shape": [1, 1, 64, 256], "dtype": "float32"}, {"name": "unknown", "shape": [4, 2], "dtype": "int32"}, {"name": "PartitionedCall/model/tf.nn.convolution/convolution_internal/filters", "shape": [7, 7, 3, 64], "dtype": "float32"}, {"name": "PartitionedCall/model/tf.math.add/Add/y", "shape": [64], "dtype": "float32"}, {"name": "PartitionedCall/model/tf.compat.v1.pad_1/Pad/paddings", "shape": [4, 2], "dtype": "int32"}, {"name": "PartitionedCall/model/tf.nn.convolution_2/convolution_internal/filters", "shape": [1, 1, 64, 256], "dtype": "float32"}, {"name": "PartitionedCall/model/tf.nn.convolution_12/convolution_internal/filters", "shape": [1, 1, 256, 512], "dtype": "float32"}, {"name": "PartitionedCall/model/tf.math.add_15/Add/y", "shape": [512], "dtype": "float32"}, {"name": "PartitionedCall/model/tf.nn.convolution_25/convolution_internal/filters", "shape": [1, 1, 512, 1024], "dtype": "float32"}, {"name": "PartitionedCall/model/tf.math.add_32/Add/y", "shape": [1024], "dtype": "float32"}, {"name": "PartitionedCall/model/tf.nn.convolution_44/convolution_internal/filters", "shape": [1, 1, 1024, 2048], "dtype": "float32"}, {"name": "PartitionedCall/model/tf.concat/concat/axis", "shape": [], "dtype": "int32"}, {"name": "PartitionedCall/model/tf.nn.convolution_53/convolution_internal/filters", "shape": [1, 1, 4096, 768], "dtype": "float32"}, {"name": "PartitionedCall/model/tf.math.add_69/Add/y", "shape": [768], "dtype": "float32"}]}]}